networkparams.pt (torch_old, 3871 bytes, 8 tensors)

fc1.weight f4 [20, 6]
000000 e0 2c 65 3e 3c 76 02 be 32 7f 29 be 9f 94 f7 3e
       0.223804 -0.12740415 -0.16552427 0.48355576
000010 ec b9 d8 bd 86 3c 51 be e0 c6 4f bd e1 75 3c bd
       -0.10582337 -0.20433244 -0.05072677 -0.046010856
000020 86 27 68 be 44 66 2a be d2 ec b0 3e 83 65 02 3f
       -0.22671327 -0.16640574 0.3455568 0.50936145
000030 64 b1 f5 bd 0e 34 81 be da a6 23 3b 74 8c a8 bc
       -0.11996725 -0.25235027 0.0024971277 -0.020574786
000040 9c 2d 81 3e e1 98 d8 bd d2 67 97 be c7 77 83 3e
       0.2523011 -0.10576034 -0.29571396 0.2567732
000050 ec 32 c7 be 6c 39 8e be c2 2a 89 3d f3 93 d9 bd
       -0.38906038 -0.27778184 0.066976085 -0.10623922
000060 a0 d2 c9 3e 5d f5 03 3f f7 07 db 3d ca c4 9a be
       0.39418507 0.5154627 0.106948785 -0.30228263
000070 a5 b7 26 bd b1 17 f5 be 78 7c 2f 3d b2 4a 29 be
       -0.04070248 -0.47869638 0.042843312 -0.165324
000080 e4 c2 ad be 25 66 26 be 8b 9f 92 be 0e 9b 8c be
       -0.33937752 -0.16249903 -0.28637347 -0.27462047
000090 98 c7 15 bd a0 99 69 bc c0 de 29 be 18 14 8b 3e
       -0.0365673 -0.014257818 -0.16588879 0.27163768
0000a0 84 85 1e 3e 6e 96 5a be cf 41 ae be dc 8b 04 3f
       0.1548062 -0.21346447 -0.34034583 0.5177591
0000b0 09 30 2c 3e d0 32 97 3e d5 6c 73 be 38 a2 04 3d
       0.16815199 0.29530954 -0.23771985 0.032381266
0000c0 c8 e2 5c 3e ad b1 db 3d bd 8b c4 3d 95 e4 ae 3e
       0.21570885 0.10727248 0.095969655 0.3415877
0000d0 61 6a e5 3d be 09 29 be 1c 85 82 be 10 f6 b2 3e
       0.11201931 -0.16507623 -0.2549218 0.34953356
0000e0 7d 79 64 3d c8 d1 fa 3c 20 3e 6f bd 80 c2 c8 3e
       0.055779923 0.03061761 -0.058408856 0.39210892
0000f0 02 1e 44 be a7 b2 4e 3e c5 94 87 be 47 d8 27 3e
       -0.19152072 0.20185338 -0.2648069 0.16391097
000100 07 0e 45 3e b5 bd aa be 0e bc a4 be 21 44 f7 3d
       0.19243632 -0.3334786 -0.32174724 0.120735414
000110 5f df 43 be 08 31 28 3c ba 52 9f bc 9a 99 b9 3e
       -0.19128178 0.010265596 -0.019448627 0.3625
000120 54 8a 84 3e fc bc fd 3d 32 54 5b 3e f4 2d c0 be
       0.25886786 0.123895615 0.21418837 -0.3753506
000130 21 dc 7c be 95 e6 6e be eb aa 9a be 1b 9f 07 3f
       -0.24693348 -0.23330148 -0.30208525 0.5297715
000140 68 13 c6 be c2 92 12 3e cc 51 1f 3d e8 19 c4 be
       -0.3868668 0.14313796 0.038896367 -0.38301015
000150 28 ef 04 be 4e 62 be be 5c 64 cf bd d8 9b 20 3e
       -0.12981856 -0.37184376 -0.10126564 0.1568445
000160 18 e9 92 3e 0c ad ad 3d b8 7c 39 3e 70 6a 98 bd
       0.2869346 0.08480272 0.18113983 -0.07442176
000170 b0 a2 74 3e 03 33 b3 3d 31 b1 9a 3e bb 06 11 3f
       0.23890185 0.08749964 0.3021331 0.56650895
000180 dc 64 b0 3e 30 ab 13 3e c2 60 ad 3e 48 7c ae bd
       0.3445195 0.14420772 0.33862883 -0.085197985
000190 65 34 a7 be 08 8e 99 3d 90 43 e4 bd 07 0f 97 be
       -0.3265716 0.074977934 -0.11145699 -0.29503652
0001a0 8e 99 ce 3e cc 38 b9 3d cc 06 d0 be de dc b4 3d
       0.40351528 0.09044036 -0.40630186 0.088311896
0001b0 e0 1f 8f be 15 38 20 3e df e6 18 be 39 10 d2 3c
       -0.27954006 0.15646394 -0.1493182 0.025642501
0001c0 4a 66 8a be 7a b2 bf bd 11 98 d0 be 16 98 70 3e
       -0.27031165 -0.093602136 -0.40741017 0.23495516
0001d0 ee c0 92 be 92 45 63 be b2 ed 9e 3e 80 37 7b bd
       -0.2866282 -0.22194508 0.31040722 -0.061332226

fc1.bias f4 [20]
000000 d2 f0 1a bd 3f a4 29 3e d1 b5 75 3e 3a e8 1c 3e
       -0.03782732 0.16566561 0.23995139 0.15322962
000010 d2 cb dd 3e 64 72 23 be be 70 ba be 53 1e 22 be
       0.43319565 -0.15961605 -0.3641414 -0.1583188
000020 d4 c8 51 3e 15 f6 cf bc c4 5c a6 3e 2d 7a b9 3e
       0.20486766 -0.025385896 0.3249265 0.36226025
000030 4a d3 60 3e 32 4e c6 3e 3a 2b 97 be 0c f9 b3 bd
       0.219556 0.38731533 -0.29525167 -0.08787736
000040 9a f2 b8 be c5 23 65 bc ea df 99 3e e8 36 84 be
       -0.3612259 -0.013985579 0.30053645 -0.2582314

fc2.weight f4 [15, 20]
000000 79 68 27 be e0 cf 7d be 63 72 3c be 1c 6e 37 3e
       -0.16348447 -0.2478633 -0.1840301 0.17913097
000010 63 16 81 3e 10 c4 0f be f8 5c 3c 3e ed e4 f0 bd
       0.25212392 -0.14039636 0.1839484 -0.11762414
000020 16 33 9a 3d 5d e6 49 bd b8 64 0b 3e c1 a1 58 3e
       0.07529275 -0.049291957 0.1361264 0.21155454
000030 2c c4 94 3d f1 37 18 3e d1 4e 35 be 73 a1 32 bd
       0.07263979 0.1486509 -0.17705847 -0.043611
000040 e4 f7 26 bd 36 03 54 be 3c fc 5a bd 73 33 38 be
       -0.04076375 -0.2070435 -0.053463206 -0.17988376
000050 35 16 7d 3e 5c 0a d7 3d 93 a0 12 3e 9c 20 90 3c
       0.24715503 0.10500023 0.14319067 0.017593674
000060 cf ea 4c be e8 f9 ad bd a4 88 1a 3e d4 ad 07 3e
       -0.20011447 -0.084949315 0.15091187 0.13249904
000070 41 af 65 bd e7 d4 7d be 0a 7a bc bc 1b 67 73 be
       -0.05607534 -0.24788247 -0.023007412 -0.237698
000080 9d 39 41 be 39 ef 75 3e 10 62 1d bc 13 a2 a6 bd
       -0.18869634 0.24017037 -0.009605899 -0.08136382
000090 e8 2e 79 bd e8 a4 82 3d 0c 42 4b 3c 1f 62 0e 3e
       -0.06083575 0.063791096 0.0124058835 0.13904618
0000a0 ac a2 7f 3e 21 b8 32 be b3 1a 9b bd 48 b8 fe 3d
       0.24964398 -0.17453052 -0.07573452 0.124374926
0000b0 28 52 ea bc 06 fd 4e be 78 d1 c9 3c 6f d6 05 3d
       -0.028603628 -0.20213708 0.024636015 0.032675203
0000c0 2b a7 14 3e e9 a9 22 3e 5b b5 70 3e 96 c8 52 bc
       0.14516895 0.15885128 0.23506682 -0.012865206
0000d0 d3 5e 21 be 20 6c 88 3e 90 30 7d 3c 89 95 12 bd
       -0.15758829 0.26644993 0.015453473 -0.03578714
0000e0 e0 a9 85 bd 03 60 06 be dd 40 74 3e a3 97 bc 3d
       -0.06526542 -0.13122563 0.23852868 0.0920861
0000f0 ac 34 c4 bd 31 1b 43 bd 3c a0 15 3d c7 67 35 bd
       -0.09580359 -0.047633354 0.036529765 -0.044288423
000100 65 65 2b 3e bc 15 e0 3d cc 0c a9 3d 8b 38 68 3e
       0.16737898 0.109416455 0.08254394 0.2267782
000110 38 eb 3f 3e 62 a0 d2 3d b4 f2 84 3d 48 44 71 be
       0.18742073 0.10284497 0.064916044 -0.23561203
000120 35 10 2b be ac 87 c0 3d de 2c 5c be 30 ed 1e be
       -0.16705401 0.09400877 -0.2150149 -0.15520167
000130 be 00 3f be 51 81 25 3e e4 33 4f 3e 22 ab 9a bd
       -0.18652627 0.16162612 0.20234638 -0.07552172
000140 c0 67 29 be 69 ea 47 be ff 82 82 bd bb 10 19 be
       -0.16543484 -0.19523014 -0.06372642 -0.14947788
000150 92 ec 16 be b0 8d 86 3d 8e c5 46 3e 87 a1 64 3e
       -0.14738682 0.065699935 0.19411299 0.22327243
000160 43 fd 97 3d cf ec 07 3d fb 85 ba bd 96 bb 3b 3e
       0.07421353 0.033184823 -0.09107586 0.18333277
000170 25 1e f6 bc e8 70 cd 3d d8 0f b9 3c 74 e4 fa 3d
       -0.03004367 0.10031301 0.022590563 0.12250605
000180 7c e3 12 3e 69 75 12 be c3 e2 cd bd 78 d2 ab 3d
       0.14344591 -0.14302601 -0.10053017 0.08389753
000190 3f b7 37 be d1 71 02 be 0a 4f 48 be 05 e2 16 be
       -0.17940997 -0.1273873 -0.19561401 -0.14734657
0001a0 34 58 aa bd e2 8b 44 be fe ec 31 3e 60 7c 2a 3d
       -0.08317605 -0.19193986 0.17375562 0.04162252
0001b0 00 d1 a3 ba 28 42 f5 bc 64 ce 65 bd a2 89 46 3e
       -0.00124982 -0.029938772 -0.056105033 0.1938844
0001c0 be 8c 0b be e4 8e 29 bd 10 a0 14 bc 60 90 31 bd
       -0.13627908 -0.041396037 -0.009071365 -0.043350577
0001d0 08 d7 57 3e 30 eb 15 3e 10 b0 f3 bc a0 f9 87 3d
       0.21078122 0.14640498 -0.02974704 0.06639409
0001e0 56 8a 5e bc 7a 03 9d 3d ed 87 c3 bd da 01 e2 3d
       -0.013582787 0.07666679 -0.0954741 0.110355094
0001f0 5c c3 7a 3e 0a 68 4e 3e 96 a4 a7 bd 7c 7c 45 3d
       0.24488586 0.20156875 -0.08185689 0.04821442
000200 92 f8 2f 3e f9 72 83 3d 48 2a 96 bc 49 a8 f7 3d
       0.17184666 0.06418414 -0.018330708 0.12092645
000210 81 f9 46 3e fe c8 99 bc 34 11 04 be df e5 21 be
       0.19431116 -0.018772598 -0.12897187 -0.15810345
000220 68 8e a8 3d ad 47 b4 bd dd 19 1a 3c 91 c9 02 3e
       0.08230287 -0.088027336 0.00940558 0.12772204
000230 27 82 49 3e 59 bb 52 be 35 34 6e be 0f f5 45 3e
       0.19678555 -0.2057928 -0.23262103 0.19331764
000240 b8 48 e7 3e c8 f4 6d 3d a0 80 cb 3b 75 d8 20 bd
       0.45172668 0.05809477 0.0062104017 -0.03926893
000250 e3 60 5a bd ea fb 0f be 36 f2 40 3e d3 8e ec 3d
       -0.053315055 -0.14060941 0.18842396 0.11550679
000260 4f ab 77 3e 3a 40 a0 3e 58 6b 3c 3d 1c 61 8b be
       0.24186443 0.31299 0.04600081 -0.27222526
000270 6c 98 55 bd e8 51 1c 3e df 04 c0 bd da 90 b1 3d
       -0.052147314 0.1526562 -0.09375929 0.08670206
000280 80 9f a6 bb bc 82 79 3d f6 ae 9e bb 59 1a ff bd
       -0.005084932 0.060915694 -0.0048426343 -0.12456197
000290 42 58 2e 3e ce 92 07 be d0 f6 e1 3d e4 34 0f 3e
       0.17025855 -0.13239595 0.11033404 0.1398502
0002a0 79 3d 7d bd 3e eb 48 3e 77 9e 66 be b1 2e 85 bc
       -0.061826203 0.19620988 -0.22521387 -0.016257616
0002b0 39 53 25 be 8b f2 fc 3d f4 25 f8 3d c8 53 fa bc
       -0.16145028 0.12350949 0.12116614 -0.030557528
0002c0 02 a1 b7 bd 3f 4a 52 3e ac 16 d5 bc 1f 3b 78 bd
       -0.08966257 0.20536135 -0.026011787 -0.060603257
0002d0 b5 d6 15 3b 7d 4d 78 3e 42 20 af bd 42 8a 2e be
       0.002286357 0.2424831 -0.085510746 -0.17044929
0002e0 2d 08 97 be a2 90 43 be a8 d6 ab bc 52 c2 63 3d
       -0.29498425 -0.19098142 -0.02097638 0.05560524
0002f0 5c a0 dd bd 81 b6 a9 bd 5a 97 c9 bd 6e d3 b3 3d
       -0.10821602 -0.08286763 -0.09843321 0.087805614
000300 03 2c 92 bd c0 d0 5c be 7e ec 34 be d8 6d 12 3e
       -0.07137301 -0.21564007 -0.1766834 0.14299715
000310 8c 44 8c 3d 5f c7 b8 3d 3b 0d e5 ba 9c 69 5a 3e
       0.06849012 0.09022402 -0.0017475256 0.2132935
000320 98 80 9c 3d 28 19 c6 bd 5b 17 29 3e 7a 4b 1f be
       0.07641715 -0.09672767 0.16512816 -0.15556136
000330 a2 64 f3 3d c0 75 49 3d fe 39 42 3e 9b 18 36 bc
       0.118844286 0.04918456 0.18967435 -0.011114265
000340 75 43 57 be 1f 05 54 be 44 a1 dd 3a b1 4b 9d bd
       -0.21021827 -0.20705079 0.0016909023 -0.076804526
000350 74 f2 24 3e 04 cb 05 3e 30 f3 48 3c c4 a1 b1 bd
       0.16108114 0.13065726 0.012265012 -0.086734325
000360 48 65 02 3e a8 13 35 3e 88 13 1d be 70 52 00 bd
       0.12733948 0.1768328 -0.15339482 -0.03132862
000370 e8 7e 9a 3d ab 96 18 3e 07 4c 41 bd 45 20 a5 3d
       0.07543737 0.14901225 -0.047191646 0.080627955
000380 3d cc f1 bd e6 a7 3c 3e 00 38 aa 39 2e 6b 25 be
       -0.118065335 0.18423423 0.0003246665 -0.16154167
000390 0b ee 4d 3e 97 6e c8 bd c8 b9 f9 3d a5 8a ba 3d
       0.20110337 -0.09786718 0.12193638 0.091084756
0003a0 a4 bc 21 3e 70 f0 27 be a2 a1 05 3e 67 dd 66 3e
       0.15794617 -0.16400313 0.1304994 0.22545396
0003b0 20 06 c2 bc 33 bc 56 3e 30 48 80 bd 10 23 d5 3d
       -0.023684561 0.2097023 -0.06263769 0.10407078
0003c0 76 4d 61 be fb 89 5b 3e d1 2b 0d bd f7 61 23 be
       -0.22002205 0.21439354 -0.034465615 -0.1595534
0003d0 56 a8 bc be e0 6e 19 3c 10 05 f8 3d 81 12 f3 bd
       -0.3684718 0.009364814 0.121103406 -0.11868764
0003e0 b9 95 57 be 1d 14 45 3e 75 0f 07 3d 65 4a 7c 3e
       -0.21053208 0.19245954 0.032973725 0.24637754
0003f0 7d 8a fa bc 53 53 a3 be 58 29 5f be 64 5c 63 3e
       -0.030583614 -0.3189951 -0.21793115 0.22203213

fc2.bias f4 [15]
000000 a7 ec 13 be bf 58 3e 3e bf 46 a7 bd f0 ac 17 3e
       -0.14445744 0.18588541 -0.081677906 0.14812064
000010 cf b0 e2 3d 57 54 0c be 34 3a 5f 3d 38 14 fc 3d
       0.1106888 -0.13704048 0.054498866 0.12308544
000020 c7 39 07 be 12 09 27 3e 13 21 14 be 39 6f 4c be
       -0.13205634 0.16312054 -0.14465742 -0.19964303
000030 1a ce 0d 3e 9c c1 e3 bd 7f 05 62 bd
       0.13848153 -0.111209124 -0.055181023

fc3.weight f4 [10, 15]
000000 12 58 0b 3e 46 83 e6 ba 5a d2 00 be d7 12 a6 be
       0.13607815 -0.001758673 -0.12580243 -0.3243625
000010 93 06 bb 3c 18 d6 32 3e e2 40 41 be 5d f1 c5 be
       0.022830283 0.17464483 -0.18872407 -0.38660708
000020 99 db b2 bd 3c f6 9d 3e bc cb f1 3d e0 a2 66 3e
       -0.08733291 0.30851924 0.118064374 0.2252307
000030 ec ac bf 3e e6 87 9a 3e 6c ab 39 3e 58 fb 47 3e
       0.37436616 0.30181807 0.18131799 0.19529474
000040 a9 d2 e9 3d 5e 33 90 bb fb 1b bd bd db 71 7e be
       0.11417133 -0.0044006547 -0.092338525 -0.2484812
000050 6a 1b 24 3e 4a 3b b5 bd bd fa 6b 3e 93 40 60 be
       0.16026083 -0.08849199 0.23044868 -0.21899633
000060 03 81 1b 3d 67 12 2e 3e b2 3d 61 3e 3e 3f a3 be
       0.037964832 0.16999207 0.21996191 -0.31884187
000070 32 41 54 3e 95 dd d7 3b d2 ed 55 3e 9a a1 cd bd
       0.20727995 0.006587694 0.20891502 -0.10040589
000080 20 62 0e be 04 64 6d be c6 cf be bd 30 80 85 3c
       -0.13904619 -0.23182684 -0.093169734 0.016296476
000090 20 c2 05 be 68 a4 84 3d c4 fb 1c 3e ca 19 67 3e
       -0.13062334 0.064766705 0.15330416 0.22568431
0000a0 6e 6a 18 3e ee 71 14 be 58 4b 96 3d d7 22 08 be
       0.1488435 -0.14496586 0.073385894 -0.1329454
0000b0 80 a5 21 3b 45 30 5c be d8 6b 57 3d b4 bc 40 be
       0.0024665296 -0.21502788 0.052593082 -0.18821985
0000c0 af 5d dc 3d 11 41 11 3e 5e 1f 0c 3e df 3c 74 3e
       0.10760056 0.14184977 0.1368384 0.23851345
0000d0 6b 89 06 3e 54 40 8b 3d 91 63 1f 3e 15 c0 d6 3d
       0.13138358 0.06799379 0.15565325 0.104858555
0000e0 90 34 7d 3d b6 e9 14 be 92 85 c7 bd 05 9e 63 3b
       0.061817706 -0.14542279 -0.097422734 0.0034731638
0000f0 16 1f 1b be 1b 36 d0 3d d2 96 01 bd 0b 26 87 be
       -0.15148577 0.1016657 -0.031637974 -0.26396212
000100 22 08 67 3e f2 32 74 be f5 69 72 be 2d 32 62 3e
       0.22561696 -0.23847559 -0.23673232 0.22089453
000110 f1 1f 6e 3e 8e d1 1b be 30 10 4d be d8 fb 50 3e
       0.23254372 -0.15216658 -0.20025706 0.20408571
000120 f6 fd 74 be b7 28 ec 3d 02 cf 81 be a3 58 00 3e
       -0.23925003 0.11531203 -0.25353247 0.12533812
000130 7e cd 8c be 32 e2 1a bc 43 b0 10 3e 5f d8 7b 3d
       -0.27500528 -0.009453343 0.14129739 0.061485644
000140 88 e7 ea 3d c8 b9 e2 3c da f1 b5 3e c1 d1 4f be
       0.11469942 0.027676478 0.3553608 -0.20294859
000150 c6 1c 84 be 03 30 78 3e 90 13 68 bd 0c 5f cc bd
       -0.25803202 0.24237065 -0.05665928 -0.09979066
000160 68 98 af 3e a1 fc 94 3e 9e 58 86 3d a5 d2 fa bd
       0.34295964 0.2909899 0.06559871 -0.122472085
000170 58 68 b5 3e e5 b4 e5 3d a6 26 39 3e 0e 16 6e 3e
       0.3543117 0.112161435 0.1808115 0.232506
000180 b5 6f 1c be 16 f8 4d 3e 16 24 69 be de 80 92 3d
       -0.15276988 0.20114169 -0.22767672 0.07153486
000190 d1 6f a1 bd 0a 92 9b 3d ff 92 3e 3e 1c 82 9d 3e
       -0.078826554 0.07596214 0.18610762 0.30763328
0001a0 fb 48 2c 3e 97 a7 aa bd 53 c4 6b 3e bd 7a 9f 3e
       0.16824715 -0.083327465 0.2302411 0.3114833
0001b0 6f 78 4e 3e c8 4c e5 bd 90 5b 0c be 9f 15 82 3e
       0.2016313 -0.111962855 -0.13706803 0.2540712
0001c0 2d 58 c1 3e 29 70 eb bd a8 f5 b4 be 38 15 90 bd
       0.37762585 -0.11496002 -0.3534367 -0.07035297
0001d0 c0 82 ea 3c eb 7e 16 be 2d bf f2 bd 19 30 f5 3d
       0.0286268 -0.14696853 -0.1185287 0.119720645
0001e0 cf c1 51 be f0 64 5d be 58 f8 5c bd 62 44 10 3e
       -0.20484088 -0.21620536 -0.053947777 0.14088586
0001f0 9c 9b d3 3d 3a 3a e8 bd f2 d1 08 be 08 85 50 bd
       0.103324145 -0.11339231 -0.13361338 -0.05090812
000200 1c a1 d2 bd 00 8a 65 bb 60 0c f5 bc 40 5c dd 3d
       -0.102846354 -0.0035024881 -0.029913127 0.10808611
000210 90 85 8f 3d be 65 80 be dc 30 d0 3d b3 c9 aa 3e
       0.07007897 -0.25077623 0.10165569 0.3335701
000220 4f 46 9c bc 3e e3 04 be 8a 63 0d 3e a8 4d 18 be
       -0.019076495 -0.12977311 0.13807502 -0.14873374
000230 24 52 5a 3e bb cb 6c 3e 10 1b f5 3d 5f 2a bc bc
       0.21320397 0.23124592 0.119680524 -0.022969423
000240 e4 f3 35 3e 93 7e 80 3e 19 d5 5a be 58 9b ab 3e
       0.17768818 0.25096568 -0.21370353 0.33516955
000250 46 0c db 3e 14 74 9c 3e
       0.427828 0.3055731

fc3.bias f4 [10]
000000 f1 81 2f 3e 93 1f 21 3e 50 b8 8c bd 8c 9d 55 be
       0.17139412 0.15734701 -0.06871092 -0.2086088
000010 15 c6 73 bc 3b 7d 3f be 2d c9 05 be 62 b9 00 3e
       -0.014878769 -0.18700115 -0.13065024 0.12570718
000020 4e 82 f4 bd 49 1e 94 bd
       -0.11938916 -0.07232339

out.weight f4 [3, 10]
000000 fd be 29 3e 85 5c 8a be 38 ce 80 be 66 f9 67 be
       0.16576762 -0.27023712 -0.25157332 -0.22653732
000010 8e 45 68 bd 90 04 e2 3d 7b ea 21 3e ec b0 88 3e
       -0.056706958 0.110360265 0.15812103 0.2669748
000020 d0 c8 9a 3c 9b 77 37 be 93 71 ad bd fc 64 0d be
       0.018894583 -0.1791672 -0.08468928 -0.13808054
000030 eb c6 7d be d5 50 51 be 7a 1d 50 bc 1b f5 ea be
       -0.24782912 -0.20440991 -0.01270234 -0.45890126
000040 c2 db cb be e4 62 92 be 28 54 ca 3d 12 ac d4 be
       -0.398161 -0.28591073 0.09879333 -0.4153753
000050 e9 5d 3a 3f 72 73 cd be 95 8b 93 3e 31 f5 8d 3d
       0.72799546 -0.4012714 0.2881743 0.06931532
000060 7d 08 f4 3d 7c 02 58 bd 89 ee 06 3e 3c 47 28 bf
       0.119156815 -0.052736744 0.13176931 -0.65733695
000070 f3 ed 94 be 4e 58 e4 3e
       -0.2908779 0.4459862

out.bias f4 [3]
000000 f9 66 00 bc 8f be a2 3e 36 3c d3 3e
       -0.007837051 0.3178601 0.41256875
