qnet_parameters.pt (torch_old, 24650 bytes, 6 tensors)

fc1.weight f4 [100, 6]
000000 b4 b1 e6 bd ba 5e c9 be 5a 6f bd be 64 9f e6 3d
       -0.11264363 -0.39330083 -0.36999017 0.1126087
000010 4b fd ad be e1 ad ee 3d 46 72 44 be 4c 97 a0 3e
       -0.3398231 0.116542585 -0.19184217 0.3136543
000020 72 5e 0d be 07 68 ce 3e 86 65 c5 be fc 7a 7d 3e
       -0.1380556 0.40313742 -0.3855402 0.24753946
000030 50 eb 3b bd fa 77 79 3d ab b6 7d 3d 6e cf a0 3e
       -0.04587871 0.060905434 0.061941784 0.31408256
000040 12 68 86 bd 83 32 93 3d 0c 7a 8b 3e a2 0d 8a 3e
       -0.065628186 0.07187369 0.27241552 0.26963526
000050 67 b4 3c 3e f7 07 75 be 84 41 b7 bd 91 8c 8a 3d
       0.18428193 -0.2392882 -0.08948043 0.06765092
000060 6c 51 62 3e 5e 53 aa 3e 50 87 83 bc 18 d7 69 be
       0.22101372 0.3326673 -0.016055733 -0.22835958
000070 ac 23 af bd c0 e5 bf 3e 00 c4 19 3b ec 26 b1 3e
       -0.08551726 0.37479973 0.0023462772 0.34600008
000080 24 a4 fe 3d 08 9c 87 be 2f 23 7b be 74 4a 9d bd
       0.12433651 -0.2648623 -0.2452514 -0.076802164
000090 99 a3 93 be 6d 5a 38 3e e1 91 81 3e 11 b5 36 3e
       -0.28835753 0.18003245 0.2530661 0.17842509
0000a0 d2 31 88 3e 4f 6f ac be 26 ac 87 3e 5f 7a a0 be
       0.2660051 -0.33678672 0.26498526 -0.31343362
0000b0 56 e4 7c be 10 5c d1 bc e0 5e 0a bd f0 5a 80 3d
       -0.24696478 -0.025556594 -0.033781886 0.06267345
0000c0 30 fb a0 be 00 b5 58 3b e0 2d b3 be c2 9c 51 be
       -0.3144164 0.0033066869 -0.34995937 -0.20469955
0000d0 1c 86 c0 bd 40 68 60 bd 38 75 6f 3e f7 62 71 3e
       -0.09400579 -0.05478692 0.23384559 0.23572908
0000e0 37 0f 98 3e b2 ff b3 3e b1 da 80 3e e4 54 e5 bd
       0.29699108 0.35156018 0.25166848 -0.11197832
0000f0 d0 4d 16 bd 08 09 3b 3e 41 1a 55 3e a7 f6 9a 3e
       -0.0366953 0.18265164 0.20810796 0.30266306
000100 d0 26 66 3d 38 39 07 3d 4c e5 2f 3e 08 4a b0 3e
       0.05618936 0.033013552 0.17177314 0.3443148
000110 cd c0 04 be f9 b7 05 be ca 2c 2e be d6 e6 42 3e
       -0.12964173 -0.13058461 -0.17009273 0.1903337
000120 f8 59 53 3e 92 40 75 be 10 5d e2 bd db 29 9b 3e
       0.20639789 -0.23950413 -0.110529065 0.3030537
000130 fc 33 40 3e b3 bf 9b be 5e 31 a8 be e0 c2 7e bc
       0.1876983 -0.30419692 -0.32850164 -0.0155493915
000140 ec 2c 6f 3e 78 5f 7b bd 08 60 17 3e 7a ef 95 3e
       0.2335698 -0.061370343 0.14782727 0.2928427
000150 cc 68 c0 be 32 64 aa 3e 2e 79 93 3d c0 4a 28 bd
       -0.37579954 0.33279568 0.072008476 -0.041086912
000160 bc 91 6c be d6 80 62 3d 59 35 6b be b8 97 45 3e
       -0.23102468 0.05529865 -0.2296957 0.19296157
000170 a8 91 e0 3d 96 70 a8 3e 7e c9 81 be eb f2 29 be
       0.10965282 0.32898396 -0.2534904 -0.16596572
000180 1e 3b 0b be ce db 32 be ce 8d c8 3e bf 8c a8 3e
       -0.1359677 -0.17466661 0.39170688 0.3291988
000190 2e 9c a4 be 00 98 5a 3c cb 25 43 be fd 41 92 be
       -0.32150406 0.013341904 -0.19057386 -0.2856597
0001a0 cd 41 65 be cd 11 7a be 20 64 ed bc a0 e4 e0 3d
       -0.22388382 -0.24420853 -0.028978407 0.10981107
0001b0 cc 15 81 3e 67 b8 07 be f7 f3 bc 3d 65 c5 99 be
       0.25211942 -0.13253938 0.0922622 -0.30033413
0001c0 34 5c 68 3e fd 9c 75 3d 28 f8 c8 3e b1 2c a6 be
       0.22691423 0.05996417 0.39251828 -0.32455972
0001d0 0f cd cf be 00 49 60 3b 6e ad b1 be e1 0f 1a 3e
       -0.40586135 0.00342232 -0.3470263 0.1504512
0001e0 c8 7a cb 3d 80 48 77 be e2 13 ac 3e 12 b1 f9 ba
       0.09935528 -0.2414875 0.3360892 -0.0019049963
0001f0 bb 51 b4 3e 9b c8 bc be e3 c3 b9 be 46 e7 37 be
       0.35218605 -0.368718 -0.36282262 -0.17959318
000200 61 b1 07 be 6f b3 d4 3e f7 0e 59 3e a4 51 46 be
       -0.13251258 0.41543147 0.21197115 -0.19367081
000210 c4 6f aa 3e 3a 0b 09 3d e5 b7 ca 3e bf 23 b1 3d
       0.33288395 0.033457972 0.39593425 0.08649396
000220 f3 75 c7 be 30 f0 ba be ac f8 b2 be 07 77 c0 be
       -0.38957176 -0.36511374 -0.34955347 -0.3759081
000230 40 30 50 bc 42 55 9b 3e b4 94 ee bd b4 2d 3e be
       -0.012706816 0.30338484 -0.116494566 -0.18572122
000240 4c ce 92 bd e0 b0 b6 3d 92 7a 82 bd 57 ad a4 3d
       -0.07168254 0.08920455 -0.06371035 0.080408745
000250 fa 76 b1 be 6d ca e9 bc 02 84 8f 3e 7e de 13 be
       -0.34661084 -0.028538907 0.280304 -0.14440343
000260 69 18 7f 3e e5 49 64 3e 07 d8 c9 3e 8b c5 81 be
       0.24911655 0.22293814 0.39422628 -0.25346026
000270 ae b4 cf 3e c2 3f c3 3e 2f a5 5f 3c 9d 40 33 be
       0.40567535 0.3813458 0.013650223 -0.17505117
000280 83 90 b2 3e 6b 66 a5 3e d2 09 8a 3e d6 18 8f be
       0.3487588 0.323047 0.26960617 -0.27948636
000290 63 e4 00 bb 25 b1 61 bd fd 9a 7b be 89 18 98 bd
       -0.001966738 -0.05510058 -0.24570842 -0.07426555
0002a0 00 df b8 ba 0c 75 90 bd 48 c1 ce 3e 52 17 bb be
       -0.0014104545 -0.07053575 0.40381837 -0.3654123
0002b0 2c de c8 bd 92 85 bd 3d 8c 16 85 bd c0 cf 33 be
       -0.09808001 0.09253992 -0.06498441 -0.17559719
0002c0 15 e1 84 bd c7 e6 69 be 09 01 cb bd 5c 9c 5c 3e
       -0.064882435 -0.22841941 -0.09912307 0.21544021
0002d0 60 cf f2 3d 9f 92 74 3e 5d ff 75 be 82 fd 83 be
       0.1185596 0.23884057 -0.24023195 -0.2577935
0002e0 95 51 93 be 19 ca 14 bd 08 dd 7a 3d f4 8a 98 be
       -0.2877318 -0.036325548 0.061245948 -0.29793513
0002f0 a5 2f 0a be c9 46 96 3e 16 08 ac 3e 66 6b 80 3d
       -0.13494737 0.2935088 0.3359992 0.062704846
000300 d8 af 23 3d 82 84 d2 3e 41 40 4a 3e c6 77 c4 3e
       0.03996262 0.4111672 0.19751073 0.3837263
000310 43 8f 85 be eb 87 57 bd 14 c5 b6 3d dc 0a 9e bd
       -0.26085863 -0.052619856 0.089243084 -0.07716915
000320 0c 78 57 3e 70 ee 07 3d 1c 98 96 3d e4 6f ec bd
       0.21041888 0.033186376 0.07353231 -0.11544779
000330 19 f0 a5 be 0e c9 9b 3e b8 5f e9 bd ea 7b 82 be
       -0.32409742 0.3042683 -0.1139521 -0.25485164
000340 f0 f8 14 3e 00 75 55 3b 68 1d 33 3e cc 35 88 3e
       0.14548087 0.0032570958 0.17491686 0.26603544
000350 40 e9 f9 3d 30 89 df bd a9 72 50 be f0 ca ed bc
       0.12202692 -0.10914838 -0.2035624 -0.029027432
000360 14 52 b7 3e 68 61 dd 3e 06 1c bf 3e 75 bc 0d 3e
       0.35804808 0.43238378 0.37326068 0.13841422
000370 1d e4 22 be 02 52 44 be 40 55 10 be 20 f1 29 3c
       -0.15907331 -0.19171908 -0.1409502 0.01037243
000380 f0 f3 ce 3e 60 2b ac 3d c0 29 00 3c b9 4a ad be
       0.40420485 0.084067106 0.007822454 -0.3384607
000390 3e 66 9c be e4 cd 90 3e fe 0a 4a be 29 96 cc 3e
       -0.30546755 0.28282082 -0.19730756 0.39958313
0003a0 7b 23 a9 3e c9 4a 96 3e e0 9e 40 3d ec 96 aa 3e
       0.33034882 0.29353932 0.047026515 0.3331827
0003b0 48 27 c4 be b1 6d ab be ac 0d 6e 3e 1e eb 1f 3d
       -0.3831122 -0.33482125 0.23247403 0.039042585
0003c0 90 39 8e 3e 4d 86 07 3e dd 0c 76 3e 2b f5 c5 be
       0.27778292 0.13234825 0.24028344 -0.3866361
0003d0 9e a3 4d 3e b7 0b d4 3e c8 f7 23 3d 7a 78 10 be
       0.20081946 0.41415188 0.040031224 -0.14108458
0003e0 c9 c6 82 be 5e d4 b3 be f9 2d 05 3e d3 af be 3e
       -0.25542286 -0.3512296 0.13005818 0.37243518
0003f0 f4 ff 91 be 16 34 8b be 90 1d 9d bd ac 6a 95 be
       -0.2851559 -0.27188176 -0.07671654 -0.29182947

fc1.bias f4 [100]
000000 22 d2 23 3e 7e af 04 be be 74 db 3e a7 53 bd 3d
       0.15998128 -0.1295757 0.42862505 0.09244471
000010 19 f4 bf be 5c ea 26 bd 5b 06 c1 3b 9e 01 95 be
       -0.3749092 -0.040750846 0.00589065 -0.29102796
000020 fc 82 9d bd b8 b5 ac bb fc 9f 13 be 3c 49 ad 3e
       -0.07690999 -0.005270686 -0.14416498 0.33844936
000030 9e e6 30 3d a5 8c 9f be 3a 7a b7 bd df 7e af be
       0.043188684 -0.3116199 -0.0895886 -0.34276482
000040 95 91 2c be 08 ca 7f be 9a 05 0d 3e 91 13 1a be
       -0.1685241 -0.24979413 0.13771668 -0.15046526
000050 04 24 dc 3d 9b d5 0c 3f 15 f9 b0 bc e6 2d cd be
       0.10749057 0.55013436 -0.021603147 -0.4007408
000060 4f ab 1b 3e 8d 07 7e 3e 90 0e be 3e 38 8c 83 3e
       0.15202068 0.24807568 0.37120485 0.25692916
000070 f6 3e f1 3c f9 90 b0 3e d1 c9 fa 3d b0 ab 30 3f
       0.029448967 0.34485605 0.12245525 0.69011974
000080 fd d8 33 3e 8a 0f a5 be 15 3a 72 be 54 4a a3 be
       0.17563243 -0.32238418 -0.23654969 -0.31892645
000090 13 ce 1b bc 90 d5 c1 be 78 42 7d be bf f6 0e 3e
       -0.009509581 -0.37858248 -0.24732387 0.13961314
0000a0 e9 63 f3 3e 9a 42 8a bc e1 ae b5 be bb 69 ac be
       0.47537163 -0.016877461 -0.35484985 -0.33674416
0000b0 92 70 b4 bd d3 09 a6 3e 3b 34 2c 3e f5 e0 0e 3c
       -0.088105336 0.3242937 0.168168 0.008720626
0000c0 4e 75 3b be eb 3f 8e 3e 9c dd a2 bd c6 83 83 3e
       -0.18306467 0.2778314 -0.07952425 0.25686473
0000d0 cd b5 a4 3e 54 82 e6 3e 9d 4d b3 3b f6 15 cb be
       0.32169953 0.45021307 0.0054718987 -0.39665192
0000e0 7e 80 cf be ca 91 d5 3e a4 3b 9a be 53 be 3b bd
       -0.4052772 0.4171279 -0.30123627 -0.045835804
0000f0 99 b9 18 3d bd f6 b5 3d a6 5b e2 3d bf ad 75 be
       0.037286375 0.08884952 0.11052637 -0.2399206
000100 08 57 98 3e 23 a2 80 be be 15 28 3e ca 3c f8 3e
       0.297539 -0.251237 0.16414544 0.48483878
000110 6e 8a 9b be 43 7e 4a be 6f d2 d9 bc c2 9e 7c 3d
       -0.3037905 -0.19774728 -0.0265896 0.06167484
000120 cf 7c d6 3d af 7d 10 3e 7d b7 1e bd 3c 83 96 be
       0.10473024 0.14110444 -0.038749207 -0.29397
000130 6b 58 26 be 7d 3c 9d 3d 62 81 a4 be 67 80 48 3c
       -0.16244666 0.07677553 -0.3212996 0.012237645
000140 00 0c 93 be f8 c7 00 3f 7e 5e e7 3e e8 89 b9 be
       -0.28720093 0.5030513 0.4518928 -0.36238027
000150 88 d7 8c 3e 53 62 3f be 8f 30 c3 be c2 10 e4 3e
       0.27508187 -0.18689851 -0.38122985 0.44544035
000160 35 52 e5 3e 25 e0 aa be b8 5e 98 bd 2a 17 8d be
       0.4478928 -0.33374134 -0.07439941 -0.27556735
000170 6b 2b 74 be 51 a9 bf be 11 67 93 3e 93 78 4d be
       -0.23844688 -0.37433866 0.2878957 -0.20065527
000180 eb 5b ac bd 02 77 91 bd 52 20 7a 3e f4 12 0e bd
       -0.084159695 -0.07102777 0.24426392 -0.034686044

fc2.weight f4 [50, 100]
000000 05 ca 22 bd 2d 1c ec 3d 81 a4 d7 3d e8 f3 65 3c
       -0.039743442 0.115288116 0.105294235 0.014035203
000010 28 29 c5 3d 60 be 89 3d e5 71 73 3d a7 1f 27 bd
       0.096269906 0.06725764 0.05943479 -0.04080167
000020 c0 77 49 3c 87 22 8f 3c c5 2a f2 3c 89 25 25 bd
       0.012296617 0.017472519 0.02956141 -0.040319
000030 e4 20 b7 3d 09 43 b3 3d 34 67 8c bd 8a 5c 64 bd
       0.0894182 0.0875302 -0.06855622 -0.055752315
000040 d0 be 9f bd d9 68 af 3d bf 36 86 3c e2 24 98 bd
       -0.078000665 0.0856492 0.016383527 -0.0742891
000050 e2 b5 9f bd f1 31 29 3e 2a 31 c7 3d ba 2c 28 3d
       -0.07798363 0.16522957 0.09726174 0.04105828
000060 e5 97 ce 3d 02 78 33 3d 6b 4c fc bb cf 49 83 3b
       0.10087565 0.04381562 -0.0076995394 0.0040066014
000070 80 58 85 3d d8 88 91 3d 0c c7 6f 3d 85 67 b9 3d
       0.06511021 0.07106179 0.058539435 0.09052948
000080 fc b8 ad bc 98 84 70 bc 9d c0 b0 3d d7 32 a9 3d
       -0.021206371 -0.01468005 0.08630488 0.0826165
000090 9d 9e b7 3d 4c dc 7e 3c 05 b9 00 3d e4 e5 57 3d
       0.089658 0.015555453 0.03142645 0.052709475
0000a0 be 9c ac 3d 97 d5 46 3c 2f 3c 5d 3d 4f 68 1c bd
       0.08428334 0.012135885 0.054012474 -0.038185414
0000b0 51 96 48 3d 89 c0 fe 3d 77 8a 97 3d 9d b7 0a bd
       0.048971478 0.12439067 0.07399457 -0.033866514
0000c0 5c 48 67 ba 31 29 11 3e de 3d a9 bd 07 24 53 3d
       -0.0008822733 0.1417587 -0.08263753 0.05154803
0000d0 a3 c6 05 3e 08 0c 0a 3e 28 80 29 3d 83 67 39 bd
       0.13064055 0.13481152 0.041381985 -0.045264732
0000e0 4b 48 82 3d a6 fe 24 3e 4c 19 b8 bd 52 0e 31 3a
       0.06361445 0.16112766 -0.089892 0.0006754148
0000f0 6f 0a 9b bd 5d 62 ba 3d d8 6d 82 3d 92 40 9e 3d
       -0.075703494 0.091007926 0.06368607 0.077271596
000100 0b 54 4c 3d 49 0d 08 3c fb 42 0a bc 48 71 9b 3c
       0.049884837 0.008303949 -0.008438821 0.018974915
000110 4e e6 7c 3d 18 85 4f 3d f2 4c 77 bc 9f fa a1 bd
       0.061743073 0.050664037 -0.015094029 -0.0790913
000120 ab 60 38 3d 53 5c dd 3d 84 07 29 bd 50 98 71 bc
       0.045014065 0.10808625 -0.041266933 -0.014745787
000130 fd 29 07 bd dd 5b 4f bd 9b 19 b2 3d 0d e1 1b 3c
       -0.032999028 -0.050624717 0.0869629 0.0095141055
000140 c0 02 08 bc 4b fa f4 3d af f6 3f 3d ac 48 86 bc
       -0.008301437 0.11961802 0.046866115 -0.016392075
000150 13 ba 51 bd 2c c1 a1 3d 10 ed 3d 3c 85 85 76 3d
       -0.051202845 0.07898173 0.011592165 0.060185928
000160 bf 3f 52 bd aa 16 90 bd 30 33 96 bb 20 36 c2 bc
       -0.051330324 -0.07035573 -0.0045837387 -0.02370745
000170 97 fc 80 bd 05 9b 84 bd ce 48 d5 3c 32 fb 9a bd
       -0.06298178 -0.0647488 0.026035693 -0.07567443
000180 f8 8b 24 bd 47 cf a1 3d fd b8 12 3d b5 bf 9c 3d
       -0.040172547 0.07900863 0.03582095 0.07653753
000190 08 7f cf bc 14 87 85 bd 03 8b c1 bd 8b 96 a5 3d
       -0.025329128 -0.06519905 -0.094503425 0.080853544
0001a0 98 3e 38 bc 20 27 bc 3c ff 14 bc bd d9 a3 a8 3d
       -0.011245392 0.022967875 -0.09183692 0.082343765
0001b0 30 40 ab bb 89 1c b9 3d 5b 10 b7 bd e1 bc ba 3d
       -0.0052261576 0.09038646 -0.089386664 0.09118057
0001c0 a9 c7 85 3d d3 bd 3f bd f7 ac 64 bd ec 4e e6 bc
       0.06532223 -0.04681189 -0.055829015 -0.028113805
0001d0 20 63 b0 bb 76 74 37 3d 4d c7 6b bd a8 2d 96 bc
       -0.0053829104 0.0447888 -0.057563115 -0.018332317
0001e0 f5 f5 b7 3d 84 1d f3 3c 4e 87 65 3d 74 d4 c4 bc
       0.089824595 0.02967716 0.05603724 -0.024027087
0001f0 72 9d 84 bd 2d 10 3b bd c7 ac b1 3d ca 1d 13 bd
       -0.06475343 -0.045669723 0.08675533 -0.03591708
000200 ac bd 8d bc 40 77 38 bd ea 6c a6 bd 86 69 83 bd
       -0.017302357 -0.0450356 -0.081262425 -0.064166114
000210 70 6b 7d bc ff e0 96 3d 09 7f c5 3d b4 1e 9d bc
       -0.01546751 0.07367133 0.09643371 -0.01917968
000220 a8 94 cb 3c 3a 00 64 bd 6e a7 4c 3d 50 f4 98 bb
       0.024851158 -0.05566428 0.04996436 -0.004667796
000230 9c f7 17 bd 7d 61 54 bd 3a 72 77 bd 00 63 59 3c
       -0.037101373 -0.051850785 -0.06041167 0.013268232
000240 40 47 dd 3a 10 a7 20 bc b2 90 74 3d 80 45 4e ba
       0.0016882196 -0.009805456 0.059708305 -0.00078686327
000250 e0 31 8b bd 80 d8 a4 3a ff 6f 87 3d 1b 4e c7 3d
       -0.06796622 0.0012576729 0.066131584 0.09731694
000260 0d f0 a2 bd 9d 82 5e bd 2a 63 cb bd cc f9 f2 3c
       -0.07955942 -0.05432378 -0.099310234 0.029660128
000270 99 36 9c 3d 2a 00 80 bd 0f 3b bf 3d 58 2d a2 3c
       0.07627601 -0.06250031 0.093374364 0.019797012
000280 80 82 24 3a e3 1b 67 bd 60 89 00 bd 48 e9 84 bc
       0.00062755495 -0.05642308 -0.03138101 -0.016224518
000290 12 8d 40 3d 65 4f b1 bd 9b 20 a2 bd 16 d4 9b bd
       0.047009535 -0.086577214 -0.07916375 -0.076088116
0002a0 de e6 46 3d a1 23 8d 3d 92 93 46 3d 10 d9 75 bd
       0.048560016 0.06891561 0.048480578 -0.06002146
0002b0 0e 6b 92 bd b4 4a f2 bc d4 68 98 3c 78 6d 85 3c
       -0.07149325 -0.029576637 0.018604673 0.01628755
0002c0 a0 35 20 bd 86 f2 81 bd bb a5 b2 3d af e7 c4 bd
       -0.03911364 -0.06345086 0.08723017 -0.09614503
0002d0 50 68 af bd 34 93 c3 bc d3 04 8c 3d 08 b8 94 bc
       -0.08564818 -0.023873903 0.06836858 -0.01815416
0002e0 83 34 ae 3d 58 2d e6 bc ba 8b 55 bd f5 b4 a9 bd
       0.085061096 -0.028097793 -0.052135207 -0.08286468
0002f0 60 b6 fd 3b 68 51 5a bc aa 4e 00 3d 05 d0 ba bd
       0.007742688 -0.013325073 0.03132502 -0.09121708
000300 72 7b 4d 3d f6 fc 59 3d b0 af 5e bd d0 29 66 3c
       0.050166555 0.053219758 -0.054366767 0.014048055
000310 43 a7 bf 3d bb d1 b1 3d b0 30 45 bc 50 8e b8 bb
       0.093580745 0.08682581 -0.012035534 -0.0056321993
000320 23 93 a1 3d ae 79 8f 3d 1d fe a1 3c d3 08 97 3d
       0.07889392 0.070056304 0.019774491 0.0737473
000330 3a 99 a0 3d 3d 8c 6c 3a b1 b8 c3 bb c1 5e 98 3d
       0.07841726 0.00090235827 -0.0059729447 0.07439948
000340 a8 e1 41 3c 06 24 55 bd b1 c7 b2 3d 76 11 86 bd
       0.011833586 -0.052036308 0.08729494 -0.06546299
000350 8d bb 0b 3d 85 a5 c8 bd 8c be 38 bd f4 45 aa 3c
       0.03411441 -0.09797195 -0.045103595 0.02078531
000360 85 3c 81 bd b6 a7 20 3d 9f 2b 2b 3c f3 56 6d bd
       -0.06310371 0.03922244 0.010447412 -0.05794425
000370 32 53 9d bd e5 3a 24 bd cf 2d b9 3d a0 63 7e bd
       -0.07681884 -0.04009523 0.090419404 -0.06210673
000380 4d 11 21 3d 69 63 8a bd a1 84 ce 3c 16 62 18 3c
       0.03932314 -0.06757242 0.025209727 0.009300729
000390 0f e4 65 3d 9f 59 7e 3c ce df 2a 3d 59 35 5c bd
       0.056125697 0.015524297 0.041717343 -0.053761814
0003a0 a8 13 4f 3d d6 0a 2b 3d cf 43 cc 3d db d3 bc bd
       0.050555855 0.04175838 0.09973871 -0.09220096
0003b0 72 ce f3 3b f4 c9 4d 3d f7 2f c5 bc 83 5a 66 bd
       0.0074403817 0.050241426 -0.024070723 -0.056238662
0003c0 49 29 4f bd 46 39 74 bc 23 02 37 bd 0a 66 3f 3d
       -0.050576482 -0.014906233 -0.044679772 0.04672817
0003d0 5e 50 84 3d 02 2a bf 3c d5 d6 15 3b 4e 91 08 bd
       0.06460641 0.02333546 0.0022863646 -0.0333417
0003e0 ab cf c5 3b a2 24 e6 3c 58 0f 21 3c 10 ad 08 3d
       0.006036719 0.02809364 0.009830318 0.03336817
0003f0 b1 71 70 bd 6c 92 88 3d fb b7 b6 bd 79 d2 82 3d
       -0.058702175 0.06668553 -0.0892181 0.06387801

fc2.bias f4 [50]
000000 9c dd 2e 3e 9d 2a 58 bd 91 ed 50 3d 82 92 9c bd
       0.17076725 -0.052775014 0.05100781 -0.07645132
000010 c0 11 06 3b f1 e3 b0 bd 7e c9 1d 3d df 0e b4 3c
       0.0020457357 -0.086372264 0.038522236 0.021979747
000020 e2 22 ce bc ff 7d 3a 3e 13 a0 72 3e 72 82 57 3d
       -0.025163118 0.18212126 0.23693876 0.052614637
000030 d7 07 75 bd 80 e3 9c bb 60 44 91 3c 2b 3a be 3d
       -0.05982193 -0.0047878623 0.017732799 0.092884384
000040 4b 94 1e 3e e1 2e f0 bd 8f c9 b0 bb f7 f7 32 3d
       0.15486257 -0.117276914 -0.0053951214 0.04369351
000050 4d 60 b8 bd 75 24 ee bc 6a 1e 76 3d 2c 86 96 3d
       -0.09002743 -0.029070118 0.0600876 0.0734981
000060 60 85 62 3d 91 96 9d 3e 5d 17 1f 3e f8 22 5b 3e
       0.055302978 0.30778936 0.15536256 0.21400058
000070 9e 0a 91 bd 90 31 b8 bd 24 f9 ee 3b e5 9a a4 3d
       -0.07082103 -0.08993828 0.0072928835 0.08037356
000080 c8 15 98 bd 33 cf 62 bc 98 02 06 bc bb 5e 11 3b
       -0.074260294 -0.013843345 -0.008179329 0.0022181708
000090 e8 01 f4 bc df 7a 86 3e 0f 72 7a 3e d9 a2 d5 3d
       -0.029786065 0.26265618 0.24457572 0.10431451
0000a0 8b ff be bd 72 54 c5 bd 9b 60 0f 3d dc 32 99 bd
       -0.09326085 -0.09635247 0.03500424 -0.07480404
0000b0 95 8d 9b 3d 31 48 1f 3d 1e c7 23 bc 24 98 76 3d
       0.07595364 0.038887206 -0.009996204 0.060203686
0000c0 56 2d ba bc 36 4d f1 bc
       -0.022726696 -0.029455762

out.weight f4 [3, 50]
000000 c1 88 92 3e 66 b6 ab 3d ad 25 80 3d 80 86 c9 bc
       0.2861996 0.08384399 0.06257186 -0.024600267
000010 08 5f db bc 81 d0 a8 bd 5d 56 0c be 30 f3 82 3c
       -0.026778713 -0.08242894 -0.1370482 0.015985101
000020 34 eb 82 bc 73 66 ab 3e 6d b1 62 3e e4 3d 86 bd
       -0.015981294 0.334766 0.22137995 -0.065547734
000030 ba 3d c5 bd 90 10 77 bc 4e 34 23 bd 3d 71 87 bd
       -0.09630914 -0.015079632 -0.039844804 -0.06613395
000040 b3 10 d1 3d 1b 88 ed 3d 75 a7 04 be 2d 24 f1 bd
       0.10208263 0.11598226 -0.12954505 -0.11774478
000050 a6 e2 02 be f2 ae b4 3d 10 29 16 3d 01 c0 5c 3e
       -0.12781772 0.08822431 0.036660254 0.21557619
000060 5c eb 16 3d eb 56 c5 3e a1 9d 59 3e f7 1d b3 3e
       0.03684555 0.38542876 0.21251537 0.349838
000070 3f 8e 07 3e 81 be 28 bd 42 32 c4 bd 13 38 37 3e
       0.13237856 -0.041197304 -0.095798984 0.17892484
000080 cc 38 0c 3d 34 e0 fe 3b b7 19 95 bd 6d 6e 02 3d
       0.034233853 0.007778192 -0.07280295 0.03184359
000090 6b fd 37 3c 41 e1 8a 3e cf 6b 10 3f ff 8f 96 3d
       0.011229853 0.2712498 0.564145 0.07351684
0000a0 78 f4 e9 3c c4 1e 11 3d 36 d2 0d 3e 23 2c 91 bd
       0.028558955 0.03542973 0.1384972 -0.070884965
0000b0 83 c3 08 3e 37 5a 01 3d 36 b6 5f bd 5d 51 a9 3d
       0.13355832 0.031580176 -0.05461713 0.08267472
0000c0 66 9b c6 3c 2f 40 04 3e 94 f3 67 3e 0c 87 d7 3d
       0.024244022 0.12915109 0.22651511 0.10523805
0000d0 8d bc 1a bd e8 2a fc bd 20 12 ce 3d 28 e0 04 3e
       -0.037777472 -0.12312871 0.10062051 0.12976134
0000e0 f6 da ba 3d 87 3b 13 bd 6b e5 3c bd 96 db 91 3e
       0.09123795 -0.03594544 -0.046117228 0.28487843
0000f0 2b bc 5e 3e 70 81 bd 3c 86 e9 ba 3d 90 2b 54 bc
       0.21751468 0.02313301 0.09126572 -0.012949839
000100 a0 9b d8 3d 94 11 59 3d 7a aa bc 3d df 04 4d bd
       0.10576558 0.05299528 0.09212203 -0.050053474
000110 46 c3 fb bd 1b fb 93 bc ed 0f ab bd 19 66 5f bd
       -0.12293105 -0.018064072 -0.08352647 -0.054540727
000120 d0 cc 2d be 93 52 86 3e 00 62 90 3b d3 51 01 3f
       -0.16972661 0.26234874 0.0044062138 0.5051548
000130 a7 9e 9a 3e 8f 16 cd 3e c8 4a 52 3d fb 16 eb bd
       0.30199167 0.40056273 0.05134085 -0.114789926
000140 42 72 1f be af 5c 23 3b 05 bf e9 bd 6d e4 19 be
       -0.1557093 0.002492707 -0.11413387 -0.15028544
000150 90 af ab bc 9c 8c 13 be f8 5d 2c bd 0a a8 aa 3e
       -0.020957738 -0.14409107 -0.042081803 0.3333133
000160 5a 55 da 3e 00 1e a1 bd d6 1c fd bd 07 de 95 bc
       0.42643243 -0.0786705 -0.12359016 -0.018294347
000170 b9 33 cf 3d 3d 9e dc 3d 7c 4c 89 3c b2 7c d4 bd
       0.10117287 0.10772369 0.016760103 -0.10375346
000180 98 dc aa 3c cb fb bc bd bb 1e f6 bd b9 d7 0b 3e
       0.02085714 -0.09227713 -0.1201758 0.1365651
000190 b9 c1 57 3e 00 fa 88 b9 70 fa 83 3a 4b 1f f4 bc
       0.21069993 -0.00026126206 0.0010069143 -0.029800078
0001a0 c0 8e 63 3b dd e1 0a 3c 44 f8 a1 bd 2d 96 0d 3e
       0.0034722537 0.008476702 -0.07908681 0.13826819
0001b0 c7 db e6 3d c7 25 c3 3e d6 af a5 3e 68 94 93 3b
       0.11272388 0.3811476 0.32360715 0.0045037754
0001c0 b1 03 fd bd 40 7e d9 3b 6c 6a 56 bd 80 fd c1 3b
       -0.1235422 0.0066373646 -0.052347586 0.005920112
0001d0 8b 87 49 3e 92 8c 07 be 77 1a 91 bd 96 f3 80 bd
       0.19680612 -0.13237217 -0.07085126 -0.0629646
0001e0 89 51 80 bd 56 6f 31 3d 8e df ad bd d8 93 9b 3e
       -0.062655516 0.04331907 -0.08489905 0.30386233
0001f0 e4 46 3a ba 4d b5 fc 3e 9d e6 e0 3d 86 15 fa 3e
       -0.00071059004 0.49357072 0.10981486 0.48844546
000200 00 fa b9 3c b8 cc 54 3d eb 35 e9 bc cb 12 20 3e
       0.022702217 0.051953048 -0.028468093 0.15632169
000210 f3 69 05 3e fd 6d ab 3d 88 fa ce 3d 2d 56 a8 3b
       0.13028698 0.08370588 0.10106379 0.005137226
000220 23 7a d8 3d 99 b4 84 3e 55 20 db 3e 50 a7 68 3e
       0.10570171 0.25919035 0.42798105 0.22720075
000230 00 23 2e bc e0 20 64 bd 8f b7 a6 3d 61 24 b7 3d
       -0.010628462 -0.055695415 0.0814048 0.089424856
000240 7a c2 7f bc f8 2e 02 be 34 30 0b 3e 92 c8 01 3e
       -0.015610332 -0.1271323 0.13592607 0.12674168
000250 00 e6 30 bc c3 ce e5 bc
       -0.010797024 -0.028052693

out.bias f4 [3]
000000 21 c2 cc 3e c7 fa 54 3e 50 83 e6 3e
       0.3999186 0.20798789 0.45022058
