models/242493232fc675fa8230a5d5967daa33.pt (torch_old, 64210 bytes, 8 tensors)

fc1.weight f4 [100, 39]
000000 25 a2 84 bd 85 c5 e2 bd 8f 55 32 3d 48 39 ce 3d
       -0.06476239 -0.1107283 0.043538626 0.10069519
000010 46 f0 97 3d 98 15 ca bd b2 4a 09 bd 79 b9 12 3e
       0.074188754 -0.098674 -0.0335185 0.14328565
000020 6f b3 b5 bd e0 13 95 bd 70 83 55 3d 69 1c 96 bc
       -0.08872115 -0.072791815 0.0521273 -0.018324094
000030 70 f3 6d bd fc ec 05 be 3e 4b c5 3d 34 6d ba 3d
       -0.05809349 -0.13078684 0.09633492 0.0910286
000040 f4 a2 17 3d ae 5a 21 bd 5e cc 73 bd 45 73 a6 bd
       0.03702064 -0.03939312 -0.05952107 -0.08127455
000050 97 39 a6 3d a7 87 c2 bd 7d f8 ef 3d 18 da b0 bd
       0.08116453 -0.0949853 0.11717317 -0.08635348
000060 47 c4 62 bd ea b9 3e be d4 98 5d 3d 5a 86 c0 3d
       -0.055362966 -0.18625608 0.054100826 0.094006255
000070 7b 04 e2 bd f0 7c 07 be 47 19 f7 3d cc 88 63 bd
       -0.11036011 -0.13231254 0.12065368 -0.05555038
000080 d3 34 b3 bd 0c 22 88 3d 26 36 4b bd 90 a4 a9 bd
       -0.0875031 0.06647119 -0.049612187 -0.08283341
000090 57 7c b3 bd d2 d7 a5 bd 32 9b 15 3d 9d 11 96 3d
       -0.0876395 -0.08097805 0.03652496 0.07327578
0000a0 c2 92 ad bd 75 14 a3 3d 3c 1b 64 3d a2 ac fc bd
       -0.084752575 0.07962886 0.055690035 -0.123376146
0000b0 62 4f ab 3d 9c 6b 21 3d 7b 28 84 bd 58 95 14 bd
       0.083647504 0.039409265 -0.064530335 -0.036275238
0000c0 6a 2c d4 bd 19 63 0e 3e 19 ea 22 bd d0 29 46 bc
       -0.10360034 0.1390499 -0.039774034 -0.01209493
0000d0 d1 eb 24 3e fb 20 80 bb 36 37 43 ba 25 a0 17 be
       0.16105582 -0.0039101816 -0.0007446887 -0.14807184
0000e0 4f 67 3b bd b8 04 c2 3c 95 44 a5 bd 4c 32 86 bc
       -0.04575282 0.02368389 -0.080697216 -0.016381405
0000f0 fb 9d fc bd 91 84 d3 bc 69 83 a0 3d 3d 65 a9 bd
       -0.1233482 -0.025820049 0.078375645 -0.08271263
000100 e0 37 76 3c 9f 84 da 3d 2d 0e 39 bd 1b f8 36 bd
       0.01502797 0.10669827 -0.045179535 -0.044670206
000110 7c 6a 16 be 10 22 85 3e 1c f5 9c 3d c0 80 33 3e
       -0.14689058 0.2600255 0.076639384 0.17529583
000120 03 b7 72 3d 01 d4 90 be 84 02 83 bc 89 70 c3 3c
       0.059256565 -0.28286746 -0.01599241 0.023857372
000130 5d 12 47 be 3b d8 89 3d 68 6a 9e 3d 1a 0e 9f 3c
       -0.19440599 0.06730696 0.07735139 0.019415904
000140 a9 95 94 bd 6d 75 98 bd b6 c5 af 3d ab e1 8f bd
       -0.07255108 -0.07444272 0.08582632 -0.070254646
000150 d6 ee b0 3d 3c ba d2 3d e3 7e 28 be a3 18 e1 bd
       0.08639304 0.10289428 -0.16454653 -0.10991027
000160 80 10 39 bd c2 ea de bc dc f9 4d be 57 60 14 3e
       -0.04518175 -0.02721155 -0.20114845 0.14489876
000170 08 d9 0a be 56 7e 16 3e 28 0f c5 3c c2 6a ec 3d
       -0.13559353 0.14696631 0.024055079 0.115438
000180 68 00 ae 3c 14 48 ad bd 00 ce d1 3c 5f 32 0e be
       0.021240428 -0.084610134 0.025610924 -0.13886403
000190 0a 63 17 be 3c d7 fb 3d c6 e7 7f 3c 35 97 9f bc
       -0.14783874 0.12296912 0.015619224 -0.01948128
0001a0 e6 61 b8 bc 47 d9 fd 3d c7 3f ed bd ac 26 22 3e
       -0.02250762 0.12394958 -0.1158443 0.15835065
0001b0 f9 28 e3 bc 50 03 9f bc 28 75 18 3c c2 ad c2 3c
       -0.027729498 -0.01941076 0.009305276 0.023764495
0001c0 c0 ea 6e be c6 a4 03 3e f4 55 ee bd 6e c6 b9 bd
       -0.23331738 0.12855825 -0.11637488 -0.090710506
0001d0 44 95 cf bd 62 b4 1f 3e ed ed 98 bc 4c 01 1e be
       -0.10135892 0.15596154 -0.01866814 -0.15430182
0001e0 04 0a 58 3d 6c 62 89 bd bc 33 11 be 5e fb 2c 3d
       0.052743927 -0.067082256 -0.14179891 0.04223191
0001f0 09 40 87 bd fa 23 93 bd 9e 9f 06 bc 9f 7e 8b bb
       -0.066040106 -0.07184596 -0.008216767 -0.004257038
000200 60 75 ba bc ca df da bd 1c 16 58 3e 86 34 3b 3d
       -0.022761047 -0.106872156 0.21102184 0.045704387
000210 d6 c9 32 bc 64 10 1f be c7 37 c9 bd b0 b8 22 be
       -0.010912379 -0.15533596 -0.09825092 -0.15890765
000220 58 89 c0 bc f1 2a 3a bd 28 ab 8b bd b7 14 47 bd
       -0.02350299 -0.04545111 -0.06819755 -0.04860374
000230 fd 45 7d bd 8e e4 72 3d a3 95 48 3d 25 7a 14 3e
       -0.061834324 0.059299998 0.04897083 0.1449972
000240 67 73 4e 3d de 54 16 bd 8c 4e 21 3d fc 06 4b 3c
       0.050403025 -0.03670203 0.03938155 0.012391802
000250 4e f1 fb bd 4e 55 08 be 4b 6f c4 bd 56 65 7c bd
       -0.123018846 -0.13313791 -0.0959154 -0.06162008
000260 70 c9 b3 39 c8 52 1a 3e 83 a5 7f bd 6b b6 78 be
       0.00034291623 0.15070641 -0.062413704 -0.24288337
000270 4a 73 95 bd a0 09 e6 3d 56 1f 74 bd 5c 9c f2 3d
       -0.0729738 0.112323046 -0.059600197 0.118462294
000280 4b d7 eb bd 18 e9 ff bc 45 7e ed bd 37 c4 12 3e
       -0.11515673 -0.031239077 -0.115963496 0.14332663
000290 03 fe e7 3d 2f 0a d0 3d 47 1d e2 3d fe ea 89 bc
       0.11327746 0.10158192 0.110407405 -0.016835686
0002a0 bb 08 52 3d c8 8a 9d 3d 67 ff 95 bd 29 23 36 be
       0.051277857 0.07692486 -0.07324105 -0.1778685
0002b0 2c a9 02 3d 77 f6 13 3d 74 a6 7b bd 5d aa 7d 3d
       0.031899616 0.03612372 -0.06143804 0.06193005
0002c0 99 8b 6c bd bf 74 19 be 73 e0 6c bd 49 01 14 be
       -0.05775032 -0.14985941 -0.05783124 -0.14453615
0002d0 44 59 0c be de c6 8a 3c 09 77 21 3e 40 7e e6 bd
       -0.13705927 0.01694053 0.15768065 -0.11254549
0002e0 bf 03 b1 3d b8 6f 87 3c 67 74 ff 3c a0 b5 d4 3c
       0.08643293 0.016532764 0.031183435 0.025965512
0002f0 49 79 f0 3d de 70 50 3d 56 92 90 bd a9 7e 33 3d
       0.11741883 0.05088889 -0.07059161 0.043821964
000300 16 c7 04 bd 4d 3e df bc 04 c5 3d 3b a5 7e ab bd
       -0.032416426 -0.027251387 0.0028956542 -0.08373765
000310 78 94 83 3d f7 fe b6 3c 70 a1 d0 bc f2 28 8f 3d
       0.064248025 0.022338374 -0.025467604 0.069902316
000320 74 4b 13 3e d2 f9 1e bd bf 73 13 be 59 60 7e 3b
       0.14384252 -0.038812466 -0.14399622 0.0038814752
000330 7b 30 69 3d 16 e4 4e bc 38 d6 ea 3d 21 c1 ec bd
       0.056931 -0.012627622 0.1146664 -0.11560274
000340 56 7f d1 3d 04 57 a5 3d 7d 50 0a 3e d4 c2 00 3e
       0.102293655 0.080732375 0.13507266 0.12574321
000350 9b 68 a1 3d 1c 78 1e bd 7a 12 15 3e 33 1a 03 3e
       0.0788128 -0.038688764 0.1455783 0.12802963
000360 4b 45 a2 3d c7 df 4d 3c 65 28 00 be 4e 3b e2 bd
       0.07923373 0.01256556 -0.1251541 -0.11046468
000370 67 42 a3 bb 02 70 75 3c f1 87 c0 3d 32 84 b0 3d
       -0.004982281 0.014980318 0.09400929 0.08618964
000380 61 0d c9 bd 26 d3 10 be b8 a4 80 3c 40 04 e1 3d
       -0.09817005 -0.14143047 0.015703544 0.10987139
000390 a7 35 e6 3c 15 2e 07 be 4b cb 41 bc 40 f3 08 3e
       0.028101755 -0.13201173 -0.011828254 0.13374043
0003a0 ba b0 6f 3d 90 86 15 be b0 72 cd bd cf eb 2b be
       0.05851815 -0.14602113 -0.100316405 -0.16789173
0003b0 ef 31 2a bd e6 0e 12 3e 47 a9 e0 3d 2e 8b 0b 3e
       -0.041551527 0.14263496 0.10969787 0.13627312
0003c0 41 b1 fc 3d 35 a4 cd bd ef 94 ee bd 52 d4 ca 3d
       0.12338496 -0.10041086 -0.116495006 0.09903778
0003d0 87 3b 23 3a 09 75 e6 bd 19 b3 dc bd 09 79 fe bd
       0.0006226827 -0.112527914 -0.10776348 -0.124254294
0003e0 c4 ee 99 bc 52 35 c4 3c 60 fb f6 3d 93 4e 0d 3d
       -0.01879061 0.023951206 0.12059665 0.034498762
0003f0 dc 83 84 bd 97 2f 12 be 9d b5 50 bd d6 49 c0 bd
       -0.06470463 -0.14275967 -0.05095445 -0.09389083

fc1.bias f4 [100]
000000 60 11 80 bd 5a 2c d2 bd d5 16 99 bd 90 3e fd 3d
       -0.06253314 -0.10262366 -0.07475058 0.123654485
000010 68 6c b3 3c 78 32 40 bc da a5 81 3d 4d 00 45 3e
       0.021902278 -0.011730783 0.06330462 0.19238396
000020 40 04 21 3d 8f 38 89 3c e3 a3 e4 bd fc 52 0e be
       0.039310694 0.016750602 -0.111640714 -0.13898844
000030 ce 1e 8c bd 27 8a 98 bd 9c 65 43 bd 85 ca 89 bd
       -0.06841813 -0.074482255 -0.047704324 -0.06728081
000040 e2 07 c1 3d a8 cc 9b 3d 7c 92 00 be 0c eb 62 3e
       0.09425332 0.076073945 -0.1255588 0.22159976
000050 58 3c 1a bd 34 0b cf bd c2 e1 1a be 6f e9 9f bc
       -0.037655205 -0.10109559 -0.15125182 -0.01952049
000060 07 2d cf 3b 95 89 f6 bd e7 75 d4 3d ba 51 f0 3c
       0.0063225063 -0.120379604 0.103740506 0.029335845
000070 ae 08 06 bd aa d2 17 3e 30 a9 38 be 1b f2 32 3d
       -0.03272312 0.14826456 -0.1803329 0.04368792
000080 94 24 1a 3e 35 e4 44 3d 4f c4 03 be aa 44 9e 3c
       0.15053016 0.048069198 -0.12867855 0.019319851
000090 0b 7c 21 3e 9b d6 2b bd 85 a0 46 3e e3 af d5 bd
       0.15769975 -0.04195271 0.19397171 -0.10433938
0000a0 e0 67 03 3d 3b 98 c3 3d 48 15 2c 3d 9a cb 8c 3d
       0.032081485 0.0955052 0.042012483 0.068747714
0000b0 40 2b 19 3e 20 2a 35 3d 93 93 8b bc b9 2a 5c 3e
       0.14957905 0.044229627 -0.017038142 0.21500672
0000c0 9c 8a 91 bb 60 46 1c 3c e5 42 c5 bd 06 41 37 3e
       -0.0044415724 0.009538263 -0.096319 0.17895898
0000d0 33 4e 00 be 7f 2b 25 3b 71 a5 22 3e f8 c6 36 3c
       -0.1252983 0.0025202928 0.15883423 0.011155836
0000e0 af 16 0a be e8 a4 78 bc 9a 2e 1e be b2 c4 0b 3e
       -0.13485216 -0.015176035 -0.15447465 0.13649252
0000f0 29 65 5d 3e 8e 79 00 be 6f 04 67 3d 83 17 be 3c
       0.21620621 -0.1254637 0.056400713 0.02320457
000100 f5 93 27 bd 3f ad a3 3d 48 01 d2 3d 9e 42 0b be
       -0.040912587 0.079920284 0.10254151 -0.13599631
000110 d3 e8 ce bd e0 01 e9 3b b0 73 3c bc 3a 0c 1f 3d
       -0.101030014 0.007110819 -0.011502191 0.03883002
000120 5d 3a 18 3d 78 b2 10 be aa 82 c9 bc 38 54 6b 3d
       0.037165035 -0.1413058 -0.024598438 0.057453364
000130 0e 27 ba bd bf 94 91 3b 98 b5 d0 3d 72 da 56 bd
       -0.0908948 0.0044427807 0.10190886 -0.05245442
000140 7b 51 97 3d dd 6e 2a 3d 8e bd eb bc 69 c1 42 3e
       0.07388588 0.041609634 -0.02877691 0.19019093
000150 1e 56 a9 bb 53 be 9d 3d 69 88 34 be 90 0b 15 bc
       -0.0051677367 0.07702317 -0.17630161 -0.009096995
000160 b9 ae 98 bd cf df 08 be 1f 6f 09 3e cf 8e 52 bd
       -0.07455201 -0.13366626 0.13421296 -0.051405724
000170 43 d9 c4 bd 4d da 60 bc 07 c3 eb bd aa e6 b1 3c
       -0.09611752 -0.013723922 -0.11511808 0.021716435
000180 66 5f 88 bd c3 70 ff 3d 51 2c c3 3d fd 73 c3 3c
       -0.06658821 0.124726795 0.09529937 0.023859018

fc2.weight f4 [75, 100]
000000 63 49 58 3d d1 b8 12 be 26 54 b5 bd 91 da 70 3b
       0.052804362 -0.14328314 -0.08853941 0.003675137
000010 25 ca d4 3c 28 70 04 3d b5 de f5 bd 38 46 c1 3d
       0.025975296 0.032333523 -0.120053686 0.09437221
000020 59 bc b8 3c 96 fc 4b 3d 77 d9 72 3d 12 ce 9f 3c
       0.022550749 0.04980143 0.059289422 0.019507442
000030 16 ae 14 be 4e 4c 82 3d 8a 4d f4 3c e6 50 af 3d
       -0.14519534 0.0636221 0.02982213 0.08560352
000040 10 07 85 bd 9c f2 a3 bd d7 0a bc bd f5 3f 2b b8
       -0.06495488 -0.080052584 -0.09181755 -4.082914e-05
000050 86 87 6c bd f1 d9 ea bd 4b 92 fc bc 3e 64 23 3d
       -0.057746433 -0.1146735 -0.030831477 0.03989052
000060 9a e0 60 3d 3c 2a 88 3d ad 7b 02 3d 09 d4 d0 3c
       0.054901697 0.066486806 0.031856228 0.025491731
000070 91 3d cd bd d0 72 02 bd fd 3e 0a 3d 2a 93 99 bd
       -0.100215085 -0.031847775 0.033751477 -0.074987724
000080 d4 6e e3 bd 2e 9c 0f 3d f7 42 af bd a3 c0 1f bd
       -0.11105123 0.035061054 -0.085576944 -0.039002072
000090 13 b3 bc 3a 1b 91 9f 3d 51 be 33 3c 4f e5 fc bd
       0.001439663 0.077913485 0.010970668 -0.12348425
0000a0 a2 b9 b3 bd 72 96 dd 3c b4 a9 d9 3c 82 66 cd bd
       -0.08775641 0.027049277 0.026570179 -0.100293174
0000b0 a4 af 15 be c3 11 fd bc 82 01 5f bd dd 8f a3 3c
       -0.14617783 -0.030892259 -0.054444797 0.01996606
0000c0 97 b6 03 be a6 13 23 bd cc b3 ec bb 3b 74 04 3d
       -0.12862621 -0.03981366 -0.007223582 0.03233741
0000d0 42 89 b8 bd 40 0d 2e bd 20 5b 61 3d 62 c1 e0 bd
       -0.09010555 -0.042493105 0.055018544 -0.10974385
0000e0 ab 84 c7 3c 1a dc 13 be 4a 74 3e 3d 48 47 d2 bd
       0.024355253 -0.14439431 0.04649762 -0.10267502
0000f0 bd 78 62 bd 42 84 0f bd d6 0b d8 bd 09 8a 85 bd
       -0.055290926 -0.03503824 -0.105491325 -0.06520469
000100 18 01 d2 bd 53 cc ab bd d4 cc 46 bd e2 92 3b 3c
       -0.10254115 -0.08388581 -0.048535183 0.011448594
000110 99 5a bb 3c 59 82 6a bb 8f 6d 46 3c 17 a7 32 3d
       0.022870349 -0.003578326 0.012111082 0.04361638
000120 26 b2 38 3d f6 7f 6d bd cd ef 3b 3d bb eb 14 bd
       0.04509177 -0.05798336 0.04588299 -0.036357623
000130 50 65 d4 bd c7 57 d4 3b 1b 7f df bd 1d b2 ba bd
       -0.10370886 0.0064801904 -0.10912915 -0.09116004
000140 60 e9 c4 bd ab 95 9c bd 75 03 46 bd fc 9c 3b bd
       -0.09614825 -0.076457344 -0.04834314 -0.04580401
000150 13 98 86 bb 41 0f 69 bd 83 04 78 bd 59 f7 16 bd
       -0.004107484 -0.056899313 -0.060551178 -0.036856983
000160 d0 73 96 bd cc 9b 20 bd 02 09 34 bd 4f 36 80 3d
       -0.07346308 -0.03921108 -0.043953903 0.062603585
000170 89 10 7e 3c 98 a0 90 bd c1 12 f9 bd df c6 08 be
       0.015506872 -0.07061881 -0.1216178 -0.13357113
000180 8b c9 1c be 7b b3 92 3d d3 b4 a8 bd b1 f3 05 be
       -0.15311258 0.071631394 -0.082376145 -0.13081242
000190 69 5e 3d 3d 1f 30 be bd 26 34 09 3e 2d ed 36 3d
       0.046232615 -0.09286522 0.133988 0.044659782
0001a0 40 78 e9 bb 28 98 88 bd 38 62 06 3d 08 43 58 3a
       -0.0071249306 -0.066696465 0.032808512 0.00082497345
0001b0 1e 08 9f bc 65 4e 7c 3c e7 c7 39 bd e5 e5 93 3d
       -0.01941305 0.01539955 -0.045356657 0.07221583
0001c0 47 e0 94 bc 75 1f 08 bd dd 63 27 3d 81 46 f9 3c
       -0.01817335 -0.033233125 0.04086672 0.030429127
0001d0 97 35 82 3d d3 e2 68 bd 86 57 5e bc 7a 8e e2 3d
       0.06357878 -0.05685694 -0.013570672 0.110623315
0001e0 30 31 0b bc e4 61 c1 3b 08 b2 94 bd 40 34 e2 3d
       -0.008495614 0.005901562 -0.07260519 0.11045122
0001f0 96 ff 28 bd a1 90 34 3d 59 b0 1f 3d bb 51 22 bd
       -0.04125937 0.04408324 0.038986538 -0.039628725
000200 bb c0 cf bc 78 9b 65 3d e2 07 e7 bc 36 fb b6 bb
       -0.025360456 0.05605647 -0.028202001 -0.005584146
000210 9e 14 20 bd 53 07 df bd 96 77 5a 3d 39 19 8a 3d
       -0.039082162 -0.10890069 0.053336702 0.06743092
000220 5b 37 17 3d a8 b8 21 bd 6d 55 1c be c3 32 8a bd
       0.036918025 -0.039482743 -0.15266962 -0.06747963
000230 c9 8c 89 bd 79 bb 4e bb 19 cf e8 3c fd 38 69 bd
       -0.06716306 -0.0031544848 0.028419064 -0.056939114
000240 d8 90 a1 3c 2b ea 10 3d 0a 76 82 bd 5e c4 89 3d
       0.019722387 0.03537957 -0.063701704 0.06726907
000250 f7 f4 c7 bd 81 47 8d bd 67 00 3d 3d 36 ba a7 bc
       -0.0976352 -0.06898404 0.04614296 -0.020474534
000260 b6 3e f6 bc 32 4c 0a 3d 1c 94 aa 3d 55 7a 4f bd
       -0.0300592 0.03376407 0.08329031 -0.050653774
000270 81 5a 7e bd 44 61 9c bc 94 30 8d 3d 98 4f 42 3d
       -0.06209803 -0.019089349 0.06894031 0.047439188
000280 ea 05 4c bb 0f d7 bc 3c e6 cb b2 3d f4 34 f8 bd
       -0.0031131455 0.023051767 0.08730297 -0.12119475
000290 55 5c b8 bc f0 37 dc 3c 77 80 e3 3d ff 78 86 bd
       -0.022504965 0.026882142 0.11108487 -0.06566047
0002a0 2d b6 94 3c fd 92 4e 3d 10 de 92 bc 54 8d 75 3d
       0.018153274 0.050433148 -0.017928153 0.059949234
0002b0 86 3f 6f 3d 15 eb aa 3d ad c1 b0 3c 58 df 96 3d
       0.05841019 0.083456196 0.021576727 0.07366818
0002c0 57 ef 0a 3d b6 54 2a bd 7e 22 9d 3d 95 94 a0 3d
       0.03391966 -0.041584693 0.076725945 0.0784084
0002d0 d7 17 db bd b9 82 fd 3c bd 85 0c bd 0e bb da 3d
       -0.106979065 0.030946122 -0.03430723 0.10680209
0002e0 eb dc ce bc 36 08 15 3d 13 0a 8e bd 97 42 b7 bd
       -0.025251826 0.036384784 -0.06935515 -0.08948248
0002f0 05 29 de 3d f7 b1 82 bd 08 15 08 be a4 f4 95 bd
       0.108476676 -0.063816 -0.13289273 -0.07322052
000300 56 6b cc bb 58 2c 9e 3d 1f 53 a6 bd d2 79 db bd
       -0.0062383814 0.07723302 -0.08121323 -0.10716595
000310 14 22 f9 b9 9e d8 a7 3c d5 58 01 3c ee dd da 3b
       -0.0004751837 0.020489033 0.007894714 0.006679288
000320 48 a9 9f bd 5c 7d a3 3d 00 4a 09 3e ff 1a bc 3d
       -0.0779596 0.07982895 0.13407135 0.091848366
000330 41 b8 dc 3c dc 11 20 bd 21 e3 72 3d 30 f9 03 3d
       0.026943328 -0.039079532 0.05929864 0.032220066
000340 a6 f4 84 bd 4f d4 1d 3d 2b 6d b4 3c d0 b2 d6 bd
       -0.064919755 0.03853255 0.022024712 -0.104833245
000350 6d 34 0b be ca af b1 bc 7f 7b ce 3d 43 56 5b 3d
       -0.13594218 -0.021690268 0.10082149 0.053549062
000360 4b c6 ba bc 07 23 d3 3d 6e 25 b7 3d 6d 59 4c bc
       -0.022799632 0.10309415 0.08942686 -0.012472493
000370 44 5a 8a bd ac 5c 38 3d 09 83 d2 3c 58 10 95 3d
       -0.06755498 0.045010254 0.025697248 0.07278508
000380 d5 99 8f bd 6d 78 a3 bc eb ed ff 3c 98 ab 76 3d
       -0.07011763 -0.019954884 0.031241378 0.06022224
000390 7d ba 01 3d d9 96 a2 3d 18 f7 9f 3d 77 6f 12 be
       0.03167199 0.07938928 0.07810801 -0.14300333
0003a0 43 4c 9c bc 29 3a 48 3d 34 10 2e 3b e8 2c 72 3d
       -0.019079333 0.04888359 0.002655995 0.059124857
0003b0 a9 ee ef bb fc 42 92 3b 50 96 00 be 4a 85 6e bd
       -0.0073221517 0.0044635516 -0.1255734 -0.058232583
0003c0 0e dd a3 3d b7 14 9d bd 8a 95 06 bd e8 da 9d bd
       0.08001147 -0.07669967 -0.032857455 -0.07707769
0003d0 ac 69 6f 3c b2 99 09 bc a9 94 9b bd c3 85 22 3d
       0.0146125965 -0.00839846 -0.07596714 0.039678346
0003e0 2f bb ff 3c 65 47 22 bd 04 11 6a 3d 78 0e a1 3d
       0.031217186 -0.03961887 0.057145134 0.07864088
0003f0 82 be 3a bd 48 6a 3a 38 30 8d 0b bd bb ae 91 bd
       -0.04559184 4.4444838e-05 -0.034070194 -0.07113405

fc2.bias f4 [75]
000000 ab 6d 43 3e 70 8d 49 3d 66 10 65 3a 93 f5 4c bc
       0.19084804 0.04920715 0.00087381003 -0.012509721
000010 b7 fa 38 3c ff d8 f5 3d 3d 4b e4 3d 20 56 fd bd
       0.011290244 0.12004279 0.11147163 -0.12369943
000020 8c 82 6c 3e 27 2f 66 bd cb 86 3f bd 60 ae 33 3d
       0.23096675 -0.05619731 -0.046759408 0.04386747
000030 55 43 c6 3d a2 f7 c5 3d dd d1 ea 3c 55 80 2b 3d
       0.09680811 0.09666373 0.028664524 0.041870434
000040 c8 f3 df 3c a5 f2 1c 3e af d4 bd bc 1e 0e f3 b9
       0.027337924 0.15326937 -0.023172705 -0.0004635909
000050 ff 2e 30 3d f8 a4 25 3e 55 fc d3 bd 5e 21 84 bd
       0.04301357 0.16176212 -0.10350863 -0.06451677
000060 b6 89 4f 3c c2 b2 a3 bb fa ba d8 bd d5 54 22 bd
       0.01266711 -0.004995675 -0.10582538 -0.039631683
000070 d0 17 06 be f5 e4 84 bd 38 dd a2 bd 5a a6 3f 3e
       -0.13095021 -0.064889826 -0.079523504 0.18715802
000080 e4 52 1e 3e 68 f6 f0 3d c4 32 3a bd 96 c0 d8 bd
       0.15461308 0.11765748 -0.04545857 -0.10583608
000090 70 29 e6 bc 69 b2 97 3c bb 1c ae 3e f9 e9 b8 3c
       -0.02809593 0.01851769 0.34006295 0.022572504
0000a0 70 78 af bd a4 c7 15 3c 20 7b c5 3d 97 b7 69 3d
       -0.085678935 0.009141836 0.09642625 0.05705985
0000b0 f3 94 74 3e f5 38 8e bd c6 da 45 3e 68 f2 08 3d
       0.23884945 -0.069444574 0.19321737 0.0334343
0000c0 e2 9c b3 bd 2e 33 b5 bc 31 f7 29 bd 0e bd a9 bd
       -0.087701574 -0.022119131 -0.041495506 -0.082880124
0000d0 7b 70 d0 bd dc 9f 4a 3c 66 61 cb 3d 8a c7 b4 bd
       -0.10177704 0.012367215 0.09930687 -0.088271216
0000e0 d6 68 c6 3d 39 ca b5 bc cf 71 be 3d 8e 7b 7a 3d
       0.096879646 -0.022191154 0.09299051 0.061152987
0000f0 6c df 9e 3d ae 66 58 bd 09 da 79 bd 8f 02 a0 3d
       0.07757458 -0.052832298 -0.06099895 0.07812988
000100 a2 3d dc 3d 50 38 e9 bc 30 c7 b2 bd b0 00 97 bd
       0.10753943 -0.028469235 -0.08729398 -0.07373178
000110 d8 37 b3 bc 69 50 0a bb 15 99 24 3e ee db 87 bd
       -0.021877214 -0.0021105057 0.16074021 -0.06633745
000120 d7 17 cf bb f3 81 b7 3d 67 9d 11 bd
       -0.0063199806 0.08960333 -0.0355505

fc3.weight f4 [50, 75]
000000 11 6e 2f bd 58 57 58 bd 49 f3 72 3b 27 9b ce 3d
       -0.042829577 -0.052817672 0.0037071279 0.10088187
000010 d5 4d 8b 3b c6 64 8c bd 2e 70 79 bd 93 37 c9 bd
       0.0042512217 -0.068551585 -0.060898 -0.09825053
000020 a1 90 8f 3d 89 29 50 bd 30 65 ec bd 83 a2 b9 bc
       0.07010008 -0.05082086 -0.115427375 -0.0226605
000030 78 63 9f 3d 00 6f c6 3d 9c 8c ce 3c a9 fc 7d bd
       0.07782644 0.0968914 0.025213532 -0.062008534
000040 ab 97 9c bd 71 d9 99 bd 97 1c 31 3d 61 a9 9b 3d
       -0.07646116 -0.07512177 0.043240156 0.07600666
000050 db 54 e4 bd 07 a3 2b 3e 29 d1 e6 bd 51 58 01 be
       -0.111489974 0.16761409 -0.11270363 -0.12631346
000060 20 8f fb 3c c0 58 00 be 9e ef 09 3d c7 f2 0f 3c
       0.030707896 -0.12533855 0.033675782 0.00878591
000070 f6 8a 6a be 86 ab 8f 3d 31 68 32 3d 08 90 16 be
       -0.22904572 0.070151374 0.043556396 -0.14703381
000080 ec 16 79 3d bd a9 1b bd 14 89 d3 3c 4c 39 4a bc
       0.060812876 -0.038003672 0.0258222 -0.012342762
000090 b2 91 15 3d 0a 35 a9 bd e3 40 a4 bd 17 51 d3 bd
       0.0365159 -0.082620695 -0.08020189 -0.10318201
0000a0 fe b8 86 3d d9 91 e2 3d 53 bc e9 bb f6 77 f8 bd
       0.06578253 0.110629745 -0.0071330457 -0.12132256
0000b0 33 3c 00 bd 1d d8 44 bd 2d b3 a1 bc 9e 7c c4 bd
       -0.03130741 -0.048057664 -0.019738758 -0.09594081
0000c0 45 2a 40 be d4 cc f4 3c 64 10 66 3d 1c 93 d1 3b
       -0.18766125 0.029882826 0.056167975 0.0063957106
0000d0 93 a3 0d 3d c4 55 9d 3c f2 ee e9 bd 96 cb 2f 3d
       0.034579825 0.019205935 -0.11422528 0.042918764
0000e0 02 ce a4 bd f0 5e 15 3e f3 4f 7f 3c b1 86 1d 3d
       -0.08047105 0.14586997 0.015583026 0.03845853
0000f0 f6 73 47 bc 4f a0 59 bd 26 d1 52 bd e7 ac e4 bd
       -0.012173643 -0.053131398 -0.05146899 -0.11165791
000100 b3 26 33 bd 4f 60 d3 bb db 94 ba 3d 18 9b 16 bc
       -0.04373808 -0.00645069 0.09110423 -0.009192251
000110 d0 80 72 3d 6a 07 b7 bd 18 08 0d bd f3 28 08 3e
       0.059204876 -0.08936961 -0.034431547 0.13296871
000120 f4 6b 66 3d 7b d4 92 3d 6d 30 28 bd 86 a7 ec 3c
       0.056255296 0.07169434 -0.041061807 0.028888475
000130 d8 8f 47 bb ee 0e 98 bb 55 40 0c 3c 8c c5 83 3d
       -0.0030450728 -0.0046404516 0.00856026 0.064341635
000140 b7 04 81 3d de 36 48 bd 05 37 ea bc b9 e3 98 bc
       0.062997274 -0.04888045 -0.028590688 -0.018663274
000150 b1 6d b3 3d 5f 16 26 bd 79 b5 85 bd 08 f4 58 3d
       0.08761156 -0.04054868 -0.06528754 0.0529671
000160 00 c9 05 3d 6f 47 ae bd 1d 42 5c 3d d4 8c 30 bd
       0.03266239 -0.085097186 0.053773988 -0.043103054
000170 94 68 da bc f3 8a cb 3d 7c ec f7 3c ac f2 27 3d
       -0.026661195 0.09938612 0.030264132 0.041002914
000180 22 23 75 bd 56 5c 09 bd 66 39 49 bc e5 f8 3c bd
       -0.05984796 -0.033535324 -0.012281751 -0.0461358
000190 9f 22 e3 3d 9d 33 3e bc 5f e7 62 3d b2 a2 a2 bd
       0.11090588 -0.011608985 0.055396434 -0.07941188
0001a0 e5 0f 96 3d 69 98 52 3d f5 5d 79 bd 5e 2c 27 bd
       0.073272504 0.05141488 -0.06088062 -0.040813796
0001b0 59 eb 9b 39 0e 83 43 3d d5 dd 16 3d 07 74 0f 3c
       0.00029739251 0.047732405 0.03683265 0.00875569
0001c0 9c 1a 36 bc d0 6f ed 3c 98 dc b5 3d e2 6e 55 3d
       -0.011114743 0.02898398 0.088799655 0.0521077
0001d0 10 48 c2 3d 08 2e 03 bc dd 1a c6 bc 86 e0 37 bd
       0.09486401 -0.00800658 -0.024182731 -0.044891857
0001e0 c5 16 b6 3c 8e 7b 94 3d dc d8 98 bd 4f 75 ad 3d
       0.022227654 0.07250129 -0.07463238 0.084696405
0001f0 db ce ea bd bc 64 34 bd 0c 17 9e bd 86 be 76 3d
       -0.11465236 -0.04404138 -0.077192396 0.06024029
000200 d8 77 d6 3c d3 6a b4 3c a5 66 8e 3c da 32 10 bd
       0.026180193 0.022023594 0.01738293 -0.035204746
000210 55 df bf bd 30 fd 7b bd 7a 09 85 3d ed 55 77 bd
       -0.09368769 -0.061520755 0.06495948 -0.06038468
000220 42 39 ff 3b 64 83 8b 3d da 58 b2 bd 80 bd 1e bd
       0.007788808 0.0681217 -0.08708353 -0.03875494
000230 d1 35 d6 bd f7 a6 cb bc ac c8 af bd e4 a9 85 3d
       -0.104594834 -0.024859888 -0.08583197 0.06526545
000240 d4 1b 45 3d cc b4 e3 bd 19 f2 81 bd ba 02 60 3c
       0.048122242 -0.11118469 -0.063450046 0.013672525
000250 85 b7 c1 3c 95 bb 82 3d dd 85 08 3e aa 76 c7 3d
       0.02364708 0.06383435 0.13332315 0.0973943
000260 fd 6f f5 3d db 56 e3 3c 67 d9 d7 3d 37 7a 5c 3d
       0.11984251 0.027751377 0.10539513 0.05382749
000270 13 0f 0d be 7c 00 98 3c 32 5e 06 3d 6b 09 1c 3e
       -0.13775282 0.018554918 0.032804675 0.15237968
000280 6d c3 a8 3c 14 b4 0e 3d cc ab b8 bd 9d d8 93 3d
       0.020600999 0.034839705 -0.09017143 0.0721905
000290 3b a6 71 3d 0b fc 91 3d f2 79 b6 bc f5 6d 81 bd
       0.05899642 0.071281515 -0.022274945 -0.06319801
0002a0 8c 8e 8d 3d 0f 3c 14 bd 46 62 2a bd c2 73 7b 3c
       0.06911954 -0.03619009 -0.041597627 0.015347423
0002b0 58 13 7c bd 00 c2 04 bd 12 af 78 bb cb 3b 02 3e
       -0.061541885 -0.032411575 -0.0037946147 0.12718122
0002c0 09 14 6c 3d 32 39 25 3d 16 04 82 be 5b b6 e8 bd
       0.057636295 0.04033775 -0.25393742 -0.113629065
0002d0 a5 15 9e bd 83 a7 94 bd c7 70 41 3d 7d ea a1 bb
       -0.07718972 -0.07258513 0.047226693 -0.0049412833
0002e0 f8 1c 19 3d a1 ee 85 bc 3f 6e ae 3d e8 12 05 be
       0.037381142 -0.016349139 0.085171215 -0.12995493
0002f0 e0 0e 05 3e 0e b0 ac bd 50 6e d5 3d 4d 43 55 3d
       0.12993956 -0.08432017 0.10421431 0.052066136
000300 bb 5c d5 3c e1 44 8d bd 2d a0 1e 3d 87 44 7c bb
       0.026045194 -0.06897903 0.038726974 -0.0038492994
000310 24 8d 17 3d 81 af c6 bc c3 4c 77 bd 21 60 b9 bd
       0.036999837 -0.024253609 -0.06037594 -0.09051538
000320 f3 bf 63 3d 81 f8 15 bb af 97 2d 3d f4 f8 c6 bc
       0.05560298 -0.0022883716 0.042380985 -0.024288632
000330 d7 3b 7d 3d 5e 90 eb bd 52 55 5c bd 49 5b 19 bd
       0.061824646 -0.11502145 -0.053792305 -0.037440572
000340 9e 7b a5 3d 64 f5 39 bd 77 70 8e 3d 4c 87 36 3c
       0.08080219 -0.04540004 0.06955045 0.011140656
000350 c6 be dc bd f7 f2 e7 3d 40 2e 17 3e b4 a4 51 3d
       -0.10778575 0.11325639 0.14763737 0.051182464
000360 9e 38 8d 3c 45 41 98 3d 53 85 86 bb ee e5 22 3d
       0.017238911 0.07434324 -0.004105249 0.03977006
000370 a8 bd ba 3d 78 31 dd bc 87 bb f9 3d 67 23 10 bd
       0.09118205 -0.027001128 0.12193971 -0.035190012
000380 56 a9 9d 3c 79 e6 53 bb 40 6a fc 3a dc 21 42 3c
       0.019245785 -0.0032333417 0.0019257739 0.011848893
000390 75 50 ec bc 05 ad c3 3d c6 d6 b5 3c 3e a6 21 be
       -0.028846959 0.09554485 0.022197139 -0.15786073
0003a0 58 f9 6d 3d 87 56 ae 3c e9 59 af 3d 31 18 8a 3c
       0.05809912 0.021281494 0.08562071 0.016857238
0003b0 8f c2 28 bd ed dc 75 bc 95 aa b8 3d 38 c6 a2 3d
       -0.04120117 -0.015006286 0.09016911 0.079479635
0003c0 e3 49 82 3d 3a 97 16 3d 28 90 a7 bd d2 0c 40 3d
       0.06361749 0.036765315 -0.081817925 0.046887226
0003d0 5e cd 00 be c9 88 cd bd 4f d6 64 3d 10 6b 81 bd
       -0.12578341 -0.10035855 0.055868443 -0.06319249
0003e0 26 b8 8a 3d 8d f2 65 3d c3 61 9f 3d c4 27 76 bd
       0.06773405 0.056139518 0.077823184 -0.060096517
0003f0 b7 fb 81 bc fa 23 46 be 75 ac 95 3d c7 01 87 3d
       -0.015867097 -0.19349661 0.07308284 0.06592136

fc3.bias f4 [50]
000000 b2 72 14 bd 1a f2 f8 bd f1 2d 3e 3e 74 d7 cd bb
       -0.036242194 -0.12155552 0.18572213 -0.0062817875
000010 d9 e5 90 3d 2c fc 84 bd 6d 53 4f 3e e0 58 01 3d
       0.0707509 -0.064934105 0.20246668 0.0315789
000020 55 9a 9a bd 7c 47 69 bd 17 d8 e2 bd de 00 bd 3d
       -0.07548968 -0.05695294 -0.11076372 0.09228681
000030 ea 92 d8 3d 9f 23 f1 3b 26 42 cb 3d b2 ab 07 3e
       0.10574897 0.0073589827 0.09924726 0.1324909
000040 80 2d 08 3e f2 4f ac bd 0d 7d 33 3e 56 ee ac bd
       0.13298607 -0.08413686 0.17528172 -0.084438965
000050 47 38 e6 3e 40 9f c9 3d ea 6c f5 3a c9 fc ae 3c
       0.4496481 0.09844828 0.0018724476 0.021360772
000060 1c f2 1e 3e e9 59 a6 3d d7 0a 2a 3d 81 b5 2c 3e
       0.15522045 0.08122618 0.041514244 0.16866113
000070 3e 85 5c bc f2 b1 94 3c f1 9c 61 3e 60 7c be 3d
       -0.013459502 0.018151257 0.22032525 0.093010664
000080 5a c3 2e 3e 23 5e 62 3e a5 1a 65 bd bc 36 7d 3d
       0.17066708 0.22106223 -0.055933613 0.061819777
000090 02 da a9 bd bd 11 a2 3d 1b 6f 43 3e 1a e7 bc 3d
       -0.08293535 0.079135396 0.19085352 0.092237666
0000a0 f5 a4 0c 3c 35 3b 97 3d 90 fd f6 bc 5d e8 ea 3d
       0.008584251 0.0738434 -0.030150205 0.11470101
0000b0 3f 8f 5e 3e 97 f7 c5 bd b0 fe d6 bc f2 dc 24 3e
       0.21734332 -0.09666365 -0.026244491 0.16099909
0000c0 96 a0 cc 3e 85 43 84 bd
       0.39966267 -0.06458191

out.weight f4 [7, 50]
000000 01 61 aa 3d 11 3e df bd ed 28 0a be 06 fc 8a 3c
       0.08319283 -0.1090051 -0.13492174 0.016965877
000010 15 b5 7e bc c7 c5 a4 3d a7 e2 59 be af 1a 4d 3d
       -0.015546103 0.080455355 -0.21277867 0.050074276
000020 76 69 0f 3e 48 32 fc bc a1 6d c1 bd a4 bb 7c be
       0.14005074 -0.030785695 -0.09444738 -0.24680954
000030 8c b7 01 3e 95 9a a6 3c 21 dc 21 be 2a 8f df bb
       0.12667674 0.020337382 -0.15806629 -0.0068224864
000040 30 b8 84 bd 97 c4 ec 3b 54 32 9a be 40 ce 40 3b
       -0.064804435 0.007225584 -0.30116522 0.002941981
000050 fd 22 40 be 3a b2 66 3d f9 04 13 be 76 d2 50 be
       -0.18763347 0.056322314 -0.14357366 -0.20392784
000060 ce fb 7e 3d fa 4c 77 bb 9d df 98 3c 00 a4 22 be
       0.06225186 -0.003773509 0.018661315 -0.15882874
000070 bd 8a 81 bd 8c d6 7a 3d f0 0d 04 3c 19 db 92 3d
       -0.0632529 0.061239764 0.008059964 0.07170696
000080 97 35 de bc b7 99 5c be 62 6a fa 3d 5c 3f 73 bd
       -0.027125163 -0.21543013 0.12227322 -0.059386596
000090 a6 8d c8 bd 65 25 95 be 5c 61 00 be c2 8d be 3d
       -0.09792642 -0.29130092 -0.1253714 0.09304382
0000a0 1f 97 d3 bd 6f 7b 97 bd 18 cb 8c bd c2 cf 19 3d
       -0.103315584 -0.0739659 -0.068746746 0.03755165
0000b0 3f 18 f1 bd 5f 21 03 3e 9f 58 10 be 69 2f 91 bd
       -0.11772203 0.12805699 -0.14096306 -0.07089121
0000c0 74 4e ed be 10 3b e7 3c 79 dc 92 3e 6f 24 e7 bd
       -0.46348917 0.028226405 0.28683832 -0.11286246
0000d0 49 48 58 3e 72 f0 ba 3d b5 2c 25 3e 10 05 f7 3d
       0.21121325 0.091278926 0.16130336 0.120615125
0000e0 0f 65 ac bd 09 ca 0e 3e 15 d5 30 bd 6d 7e 64 bd
       -0.08417713 0.13944258 -0.04317196 -0.05578463
0000f0 b7 71 fd bd a1 9c 1f 3e b0 f6 03 3e a8 7c 0d 3e
       -0.12375205 0.15587093 0.12887073 0.13817084
000100 c3 c2 24 3d a2 0a 58 3e 6b b6 a0 bd 98 20 eb 3c
       0.0402248 0.21097806 -0.078472935 0.028702065
000110 e8 c7 da bd 33 e9 cb 3c d5 58 26 be 3b c6 ec 3d
       -0.1068266 0.024891471 -0.16244824 0.11561247
000120 11 e4 de bc 91 e8 79 3e 0e 42 e3 3d f1 e2 91 3d
       -0.02720836 0.24405123 0.11096583 0.07123364
000130 ce 4d 29 3e ab 5b 01 be 64 0b 1e be 88 68 f0 3c
       0.16533586 -0.12632625 -0.15434033 0.02934672
000140 d7 c6 45 3b aa b6 b5 3d e1 ee 2f 3e 9d 09 3b be
       0.0030178332 0.08872731 0.17180969 -0.18265386
000150 cc 67 0b be 02 54 31 3e 3d 16 e7 3d 8d ca 93 3d
       -0.13613814 0.17317203 0.112835385 0.07216368
000160 b2 52 3e 3e 0e cf a3 3e fe 72 b4 3d 18 b1 c4 3d
       0.18586233 0.31993908 0.088109955 0.096040905
000170 b2 ea 2b 3b 23 54 06 3e df 4f 2b be 83 18 f7 bd
       0.0026232419 0.13118033 -0.16729687 -0.12065222
000180 3a e1 d4 3d be 85 2a 3e f3 48 fd bd 1d 85 c4 bb
       0.10394521 0.16652581 -0.123674296 -0.0059973137
000190 55 14 86 3d 16 b1 e1 3d c7 e9 05 be 0f 4b 21 bd
       0.06546847 0.110201046 -0.1307746 -0.039378222
0001a0 4a f2 20 bb 38 a5 ad 3d 0a b0 87 be ab 27 96 3b
       -0.0024558478 0.084787786 -0.26501495 0.0045823655
0001b0 70 e7 b8 3d c0 0d de bd 2d 08 84 bd 6d 57 de bd
       0.09028518 -0.10842466 -0.06446872 -0.10856519
0001c0 af 78 82 3d 97 09 23 bd 90 5d 7f be 11 1b 0c bd
       0.06370675 -0.039804067 -0.24938035 -0.0342055
0001d0 05 be c8 bd 70 e6 3c 3d ab ee 9e be 51 82 09 3e
       -0.09801868 0.0461182 -0.31041464 0.13428618
0001e0 7b bc af be 72 45 f6 bd 48 30 d1 bd ef 59 5e be
       -0.34323487 -0.120249644 -0.10214287 -0.21713994
0001f0 b6 f5 c6 3d 63 0d a8 bd e4 91 fb 3d c9 d6 2f bc
       0.097148344 -0.08205678 0.12283686 -0.010732361
000200 23 c3 0c 3e 5e 20 31 bd 5e 26 3c be bc 58 bb 3d
       0.13746314 -0.04324376 -0.18374011 0.09147784
000210 74 9b 5d 3d 3a 12 31 be 09 eb c6 3d a5 5b ae 3d
       0.05410333 -0.17292109 0.09712798 0.085135736
000220 d6 10 b8 bd 5f 67 77 be 35 2c 5f 3d 8b 07 19 3c
       -0.08987586 -0.24160527 0.05448552 0.009340177
000230 20 1d 32 3c ef 3d f6 3c 49 74 94 bc 24 ae 0b 3d
       0.010871202 0.03005883 -0.018121855 0.03410162
000240 c7 26 02 be 86 da 50 bd fa e0 fa 3d ec 63 6a be
       -0.12710105 -0.05098965 0.12249942 -0.2288968
000250 13 d9 ea be 57 88 00 3e 95 53 87 3d 74 4f 7f 3d
       -0.4586874 0.1255201 0.06607739 0.06233163
000260 c8 11 7c bb 95 0a ed 3c f4 38 5a 3d bf 9b 0a 3e
       -0.0038462747 0.02893571 0.05327697 0.13535975
000270 3b ca 05 be 97 dd 93 bb ff 15 86 bd ac aa e9 bd
       -0.13065426 -0.0045124996 -0.06547164 -0.11409506
000280 ba 96 24 bd ab e4 0c be 8b e1 0a 3c a0 d8 76 bc
       -0.040182807 -0.13759105 0.008476625 -0.015066296
000290 53 ac 89 be 72 14 81 bd 5b ca 01 be 56 80 07 3e
       -0.26889285 -0.06302728 -0.12674849 0.1323255
0002a0 c0 cd df bd 79 a3 1a bd 4f 58 6d be b3 48 c8 bd
       -0.109279156 -0.037753556 -0.23178218 -0.09779491
0002b0 fa 4f 58 bd 89 39 92 be b4 b4 00 3e 88 03 92 bd
       -0.052810647 -0.2855952 0.12568933 -0.0712958
0002c0 fd 58 4c 3d 40 92 fd bd 50 ea de bd 95 03 f6 3d
       0.049889553 -0.123814106 -0.10884535 0.12012402
0002d0 65 23 47 be e5 61 1a be 64 ac 08 be 0b 48 64 be
       -0.19447096 -0.15076406 -0.13347012 -0.22293107
0002e0 8c 27 17 3d 81 0d 83 bd 9c b0 a3 3b d5 e1 43 be
       0.03690295 -0.0639906 0.0049954187 -0.19129117
0002f0 62 4e 66 bd c0 82 f8 bd bd 6f 71 bd 1b aa 0d be
       -0.056227095 -0.121343136 -0.058944453 -0.13834421
000300 da 9f 53 bc f1 7b 72 bd 07 f1 92 be 19 c5 05 be
       -0.01291653 -0.05920023 -0.28699514 -0.13063468
000310 e0 22 f4 3c 2c 80 50 be 04 05 0d bf 71 9f 0d 3e
       0.029801786 -0.20361394 -0.5508578 0.13830353
000320 bb 3d 06 3e e0 85 05 be bd ff 8c bd bc 61 d8 3d
       0.13109486 -0.1303935 -0.06884716 0.10565516
000330 f6 0e b2 3d e4 20 b4 bd 92 81 0c bd 09 1b f1 bd
       0.0869426 -0.08795336 -0.034303255 -0.11772735
000340 b5 46 01 3e e0 ca e8 bb 00 d9 01 bb 67 a3 0c be
       0.12624629 -0.0071042627 -0.001981318 -0.13734208
000350 b8 5a ea bd 3d 8c e8 3d 9c 59 ee bd e3 a8 2e bd
       -0.114430845 0.11354873 -0.116381854 -0.04264153
000360 50 e1 3b bd ef 4a f1 bd 9c af 1e be 0e 8a bf 3d
       -0.04586917 -0.117818706 -0.15496677 0.09352504
000370 5c dd 8b be ab 3c ce bd 5c a4 5f bd 6e 84 62 be
       -0.2731732 -0.10070165 -0.054600105 -0.2212083
000380 cc fc b0 bc ae 2d cd 3d ce e0 eb bd 9e 3e 09 be
       -0.021604918 0.10018478 -0.115174875 -0.13402793
000390 00 18 69 3a 74 91 e6 bc b1 bb 80 bd a4 5d 98 bd
       0.0008891821 -0.02814553 -0.06285799 -0.074397355
0003a0 20 60 09 be 23 50 58 bd 28 7a f4 3c 0c d6 2a be
       -0.13415575 -0.0528108 0.029843405 -0.16683215
0003b0 80 07 8f 3d 69 74 78 bd cf 69 bf bd 82 c6 35 3b
       0.069838524 -0.060657892 -0.09346353 0.0027736728
0003c0 de 26 0a 3d ac bb df bd 38 79 ba bd b2 b2 73 bd
       0.033728473 -0.109244674 -0.09105152 -0.05949659
0003d0 5e 66 21 be d8 17 f1 bd 00 b5 85 3b 7f dc bf bd
       -0.15761706 -0.11772126 0.004080415 -0.09368228
0003e0 08 2d 98 be 86 a2 0c bd a8 ae 22 3d 66 a2 a1 bd
       -0.29721856 -0.034334682 0.039717346 -0.07892303
0003f0 b9 ea 33 be a8 23 6a 3d 4b c1 52 3c 3a a6 a7 3d
       -0.17570008 0.05716291 0.012863467 0.08186002

out.bias f4 [7]
000000 a0 80 be be 23 d8 a3 be a3 d9 9e be 5f e9 eb be
       -0.37207508 -0.32000837 -0.3102542 -0.46076486
000010 1e 90 f7 be ab 7c bb be 4a 91 be be
       -0.4835214 -0.36618552 -0.37220222
