models/288c6a459ff4e3807bac182a05168aa9.pt (torch_old, 55793 bytes, 8 tensors)

fc1.weight f4 [100, 20]
00000000: 3e82 55be 7247 22be f047 1d3e 7ea3 533e
00000010: d5c0 24be 004e c7bd c486 cfbd 5891 573d
00000020: dc8e a53d 495d 0e3e 8590 523e b076 a4bd
00000030: 7ede e8bd 8196 39be b29e 8cbd 8085 593e
00000040: 5296 8abd aa8a 083e 0080 f9b7 c8d2 9dbc
00000050: 0861 443e 1848 6f3d 6a00 81bd 3308 dbbd
00000060: 1a71 5d3e ec0d 45bd 20cf e4bb b8dc 2c3d
00000070: 0018 45bb 38a6 48be ecb1 1abe 860b 633e
00000080: 82dc e7bd 94c1 6cbd e7dd 1b3e 1ca2 9c3d
00000090: c0da d93c 6c0e 223e 9c3a 46bd dc48 0abe
000000a0: 0865 c13d 6a24 cbbd 608a adbb 9454 1bbd
000000b0: 4c3b 7dbd 50ff a5bd c27f b3bd 3268 8dbd
000000c0: 55e8 dfbd edea 59be c867 e83d 58fe 913d
000000d0: 5032 403d 8c2b c53d 5a2d 0f3e 00c2 063b
000000e0: da62 3dbe 005b 183d f8e6 993d b260 98bd
000000f0: dec5 b1bd 8a9c 403e 0004 f0bb 504a 863d
00000100: f9bd 013e 2693 29be 5628 023e dbf5 763d
00000110: 1e96 03be 1c8b ec3d badd 1fbe ecab a13c
00000120: 8b8e 2f3e fe48 14be 2dfb 0bbe 90eb 8c3d
00000130: b6e6 513e dde3 d2bd 28c9 183e cc46 04be
00000140: d221 513e 7445 373e ecbf a23d d24f 293e
00000150: 98fc 37bd c02e da3c 3026 a7bc 99ed 43be
00000160: 4ebe a0bd b5cc 313e 1517 0abe 8296 293e
00000170: e6e1 603e 1b4f 123e ea17 38be 5800 3bbd
00000180: 8a71 19be 6037 a93d e071 393c 618b edbd
00000190: d088 213d 4c5f b53d fa92 5fbe 18dc 3cbe
000001a0: 63e2 c33d 5ec5 303d 81ca 66bd 21ca f13d
000001b0: 2853 7d3d 8c60 303e 868c 5ebe c5f1 3f3e
000001c0: aff9 9a3c d864 39bd 99f9 b0bd e835 23be
000001d0: 08ff 423d e005 68bc bdf4 34be 00b2 373e
000001e0: 0245 b7bd 18cf 783d 1830 eb3d c41b 90bd
000001f0: 72ab ebbd 7ac6 80bd 6097 59bc 3182 463e
00000200: a87f 513d 07c4 4c3e f653 89bd 8476 29bd
00000210: 3000 33bc f807 423d 5c72 b6bd 7cd0 e33d
00000220: aaa7 253e e881 22be be7c 5e3e 20cf dc3b
00000230: 62a0 90bd 1cb1 443e 6e76 0dbe 8069 c7bc
00000240: 7f81 19be 82bb 663d 1f25 3ebd a1b1 143e
00000250: e975 0dbd 6869 16be 2171 163c a08d 0cbe
00000260: 3481 553e 4311 0bbd 30b4 043e b43c 533e
00000270: 685f 143d 484f bfbd d051 f03c 60c3 5f3c
00000280: 068e 0bbe 7757 5ebe b2aa afbd 023e ddbd
00000290: 7002 ba3d 78b6 c13b e164 6d3d 009b 243e
000002a0: 91af 473e 3a95 3c3e cb5c 613e e5c9 4abe
000002b0: 48ad 0cbe 34f2 9cbd 80ed 5a3e 500e 773c
000002c0: 0065 75bb fe5a 013e b48b 94bd f892 5fbe
000002d0: a1e1 4cbe ac07 38be 30fa ca3d 2079 833d
000002e0: 6691 ecbd 6663 a5bd 42cf b8bd 5372 593e
000002f0: 406f 85bd 4377 48be 0294 34be 0ad7 3f3d
00000300: 3404 36be 7cd0 2d3d 8cb0 54be 2fe5 5abe
00000310: 88d7 803d 447f 633e 5cc3 78bd 1495 a0bd
00000320: b6b8 afbd 201b 053c dcb9 cd3d f846 9e3d
00000330: f21e 2dbe 3330 1a3e d7df 44bd ed66 1bbe
00000340: 7e95 77bc 4b6d 433d 244a 303e f178 2bbe
00000350: a850 9bbd cbfb 293e b5f4 85bd 28fa 09bd
00000360: 1c91 c9bd 00e3 523d 905e 123e de84 b8bd
00000370: 50ae 433e 60fc edbb 1c4a 393e 62ca 19be
00000380: f0aa d53d 2866 28bd 84d0 b13d 9881 97bd
00000390: 1233 1fbe 68a4 1f3d 1c12 be3d 8071 15be
000003a0: 6449 4d3e ecd6 88bd 95c0 f5bd 04fa 0dbe
000003b0: 0043 9abd c032 81bb fc6b 16be 92b0 413e
000003c0: b44e 443e 402a db3c 78ee 8d3d 8e68 abbd
000003d0: 1936 42be b6ae 03be 12b5 33be 27a1 5bbe
000003e0: ec0a dc3d dca0 07be 8a16 533e 3438 62bd
000003f0: 174d c93d 646c 4dbe 2861 833c aa8f 48be
-0.20850465 -0.15847567 0.15359473 0.20667836 -0.16089185 -0.09731674 -0.101331264 0.052628845
0.08083889 0.13902773 0.20562942 -0.0803045 -0.11370562 -0.18123819 -0.06866206 0.21242332
-0.067669526 0.13334146 -2.9742718e-05 -0.019265547 0.1917764 0.058418363 -0.06298907 -0.10694923
0.21625176 -0.04810898 -0.006982699 0.04220268 -0.003007412 -0.19594657 -0.15106934 0.22172365
-0.113213554 -0.057801798 0.15221368 0.076481074 0.026593566 0.15825814 -0.048395738 -0.13504356
0.09443098 -0.09919055 -0.0052960366 -0.037922457 -0.061824128 -0.081053376 -0.08764602 -0.06904639
-0.10932986 -0.21281023 0.1134792 0.0712859 0.04692298 0.096274465 0.13982144 0.002056241
-0.1849474 0.03719616 0.07514757 -0.07440318 -0.08680318 0.18809715 -0.0073246956 0.06557143
0.12670125 -0.16560039 0.127107 0.06029306 -0.12850234 0.115499705 -0.15611926 0.019735299
0.1714422 -0.1448097 -0.13670035 0.068808675 0.20498165 -0.10297368 0.14920485 -0.12917632
0.20423058 0.17897588 0.079467624 0.16534355 -0.044918627 0.02663362 -0.020403951 -0.19133605
-0.07848798 0.17363246 -0.13485368 0.1656132 0.21961173 0.14287989 -0.17977872 -0.045654625
-0.14984718 0.08262515 0.011318654 -0.1159885 0.039437115 0.08856067 -0.21833411 -0.18443334
0.09564664 0.043156974 -0.056345467 0.11806131 0.061846882 0.1722433 -0.21733293 0.18744572
0.018917887 -0.045262188 -0.08641357 -0.15938532 0.047606498 -0.014161557 -0.17671485 0.17938995
-0.08948709 0.060744375 0.114837825 -0.07036546 -0.1150731 -0.062878564 -0.0132807195 0.19385602
0.051147133 0.19996653 -0.067054674 -0.04137279 -0.010925338 0.04737088 -0.08908531 0.111237496
0.1617724 -0.15869868 0.21727273 0.0067385584 -0.070618406 0.19208187 -0.13814709 -0.024342299
-0.14990805 0.056331165 -0.04642212 0.14520885 -0.034536276 -0.14688647 0.0091822455 -0.137259
0.20850068 -0.03395201 0.12959361 0.20628625 0.0362238 -0.093412936 0.029335886 0.013657421
-0.13628396 -0.21713053 -0.085774794 -0.10802843 0.09082496 0.0059116445 0.057957534 0.16074753
0.19500567 0.184163 0.22008054 -0.19803579 -0.13737977 -0.07663384 0.21379662 0.015079096
-0.0037444234 0.12632367 -0.07253209 -0.21833408 -0.20007946 -0.17971677 0.09911001 0.06419587
-0.1155117 -0.08075599 -0.09023906 0.21235017 -0.0651536 -0.19576745 -0.17634585 0.046835937
-0.17775041 0.042435154 -0.20770472 -0.21376489 0.06291109 0.22216517 -0.060733184 -0.078409344
-0.08580153 0.008124143 0.100452155 0.0772838 -0.16906336 0.15057449 -0.048065033 -0.15175982
-0.015111325 0.04771165 0.17215782 -0.16745354 -0.07583743 0.16599958 -0.06540815 -0.033685833
-0.098421305 0.051486015 0.14293885 -0.090097174 0.19109464 -0.0072627515 0.18094677 -0.15018609
0.10432994 -0.04111305 0.08682349 -0.07397765 -0.15546826 0.03897515 0.09280798 -0.14594078
0.20047528 -0.06681618 -0.11999623 -0.13864905 -0.075323105 -0.0039428174 -0.1468963 0.18915012
0.19170648 0.026753545 0.0693025 -0.083695516 -0.18965949 -0.12859616 -0.17549542 -0.21448193
0.10744271 -0.13244957 0.20614067 -0.05522938 0.09829157 -0.20060879 0.016037539 -0.19586053

fc1.bias f4 [100]
00000000: c91d 09be 335d 8ebd 303a 25be e68e b83d
00000010: 4ab0 14be eab9 d63d 1757 4cbd dfbf 563d
00000020: c10b 853d 786c ebbc 0109 1f3e e9a8 32be
00000030: 6675 84bc b072 8a3d 52e4 4abc f7a8 513d
00000040: a0d3 00be 7a6d 353e 3e13 ccbd e33f 213e
00000050: 383f ef3d 1b99 943d 507a 55be 44c3 033e
00000060: 3197 f2bd 0297 d1bd c21b 4c3d a1a8 b73b
00000070: 28f0 f6bc db7b 0e3e d93e 33be c3b3 93bd
00000080: 9009 303d 8d58 313e 7448 0e3e 852a 53be
00000090: b1a6 27be 4b45 5e3e 50c3 febd 2773 ebbd
000000a0: b14d 973b eccd 0e3e 2172 463d c934 3cbe
000000b0: 8bf8 8f3d a0c5 5abd b47b 2dbe 0dde 35be
000000c0: 4b63 5dbe cf0a abbd b7da c73c b1cc 34be
000000d0: 0f0b 383d eaa5 e43d bcbb 62be afec a13d
000000e0: a50a 3dbe 7b2a 06bc afb9 c43d 0be3 32be
000000f0: 485f 34be 4459 13bd a2e6 353e f15d 363e
00000100: bd21 4bbd e721 acbd 399b cfbd 2fe1 003e
00000110: 7490 52be 5e55 2cbe d104 303c 8ea1 a1bc
00000120: ab54 643e c8de c43c 91e1 353d 4985 563e
00000130: 5194 163e 79ba 273e 1dc3 e7bd 30a3 09be
00000140: 6758 debd 637e 4a3e 46ba 16be 961b 3b3e
00000150: 1e81 933d d469 02be 4aac 583e ec20 babd
00000160: 6bfb 4abe c6aa 2d3d 2ff5 b23d 635b 3dbe
00000170: 3978 2b3e e6e0 e33d 3509 5e3e c47e e83d
00000180: e8c7 4c3e 83b8 13bd a6c3 0f3e 948a 13bd
-0.13390268 -0.0695137 -0.16135478 0.09011631 -0.14520374 0.10484679 -0.049887743 0.052429076
0.064963825 -0.028738245 0.15530778 -0.17447247 -0.016169261 0.06760156 -0.012383537 0.051186528
-0.12580729 0.17717543 -0.09964608 0.15747027 0.1168198 0.07255765 -0.2084744 0.12867457
-0.11845244 -0.102338806 0.04983116 0.005604819 -0.030143812 0.13914435 -0.17504443 -0.07212021
0.04297787 0.17318936 0.13894826 -0.20621689 -0.16372181 0.2170612 -0.12439597 -0.11496573
0.004617416 0.1394574 0.048448686 -0.18379511 0.07029828 -0.053411126 -0.1694172 -0.17760487
-0.21619909 -0.08351671 0.024396284 -0.17656209 0.04493242 0.11164458 -0.22141927 0.07906472
-0.18461092 -0.008188839 0.09605729 -0.17469423 -0.17614472 -0.035973802 0.1776376 0.17809273
-0.049592722 -0.08404904 -0.10137028 0.125859 -0.20562917 -0.1682944 0.010743336 -0.019730356
0.22297923 0.024032012 0.04440457 0.20949282 0.14705016 0.16379727 -0.11316512 -0.13441157
-0.10856705 0.19774775 -0.14719495 0.18272242 0.072023615 -0.12735683 0.21159473 -0.090883106
-0.19822471 0.04239919 0.08738171 -0.18491893 0.1674508 0.1112688 0.216832 0.113523036
0.19998133 -0.036064636 0.14039478 -0.03602083

fc2.weight f4 [75, 100]
00000000: 23c6 123d c5eb fabc 4631 473d 26e9 54bd
00000010: 9045 44bd cca3 b6bd 02eb 963d ad7b 42bd
00000020: 8b91 553d 811e 59bb 3262 aa3d 0263 1d3d
00000030: ad43 91bb 262e ab3d acbb 0bbd b4b8 873d
00000040: d3a0 963c e30c bdbd c46a 143d b14f 9fba
00000050: d883 2c3d a85a 6b3d 5bd0 afbd 2eca 113d
00000060: 9bf3 b9bd 179c c43d 832e a0bd 66bc 21bd
00000070: ad6a 303d df94 ce3c 4062 b73c 1c47 363c
00000080: aae2 f2bc a6bc 09bd 0fd3 b93d 1059 37bc
00000090: 6098 2dbb 8ab8 c2bd 7b61 3e3c 7d5e 85bd
000000a0: 8bb6 ebbc 87db cb3d d723 533c d858 1e3d
000000b0: 4e92 523c 5bef b9bd d001 d9bb 3850 f13c
000000c0: f14a a93d a6f0 3f3d ade7 35bd 0843 b53c
000000d0: fe99 c9bd 2732 2c3d 9631 03bd 1b64 473d
000000e0: 27f5 673d 4a7e 363d e910 e93c 41a3 903d
000000f0: 2950 073d aa7b 143d 2439 833d 025f 73bd
00000100: 7eb6 34bd 3e51 3a3c 4a2b 79bc 6f4c bbbd
00000110: 19c1 b9bc 545d d03c 5225 9c3c b591 923d
00000120: e106 abbd d629 393d 786d 4bbd 2091 de3c
00000130: bade 953d 4cbd 643d c666 cd3c 7341 4bbd
00000140: be27 993d da8e 23bc 6251 b53d dceb c3bc
00000150: 0921 823d 9d0e 92bd 5ebc 983d 175f 53bd
00000160: c4b4 d63c a4f3 efbc 09df 8c3d bae3 113d
00000170: 9dca 06bd af21 bb3d 3847 b4bd bcd6 f13c
00000180: 854d 26bd f3d6 a23d c6b2 a53d dc04 453d
00000190: ad0b ca3d f384 adbb c5c7 8a3d 386a 723d
000001a0: 9956 e8bc 4d80 9dbb f7af b6ba aaff ad3c
000001b0: 4085 2bbc ec09 b63c 8be3 863d f266 9cbd
000001c0: bd64 b63d f0cf b73d f91c 8cbd e648 88bd
000001d0: e70d 8ebd 8d4d a6bd f8c4 aabc bacd 813d
000001e0: 7081 92bd bcc4 9b3d c73e 77bd b4b9 84bd
000001f0: cea5 423d 529e 7c3d ca63 cbbc 4383 633d
00000200: 6349 c1bd 5bd4 b73c 5274 d5bc 6331 8c3d
00000210: 34fd c0bc 5d48 f237 ea80 45bd 2e39 8fbd
00000220: 07a6 c63d 438b 803b 9644 57bd 2469 cf3c
00000230: a860 6cbd bb9d a63d 26f8 8d3d 68a2 213c
00000240: 25c4 bcbd 491a ba3d b0b9 723c e86b 33bc
00000250: bfff a03d edce 2fbd 806e 6d3d d088 73bd
00000260: 7727 42bd 33d3 56bd 02e1 143d c02a 903c
00000270: 18d5 963c db54 8b3d abfd 50bd b05a 65bd
00000280: 18d8 c1bd d23a 88bd 4ed4 c2bd ca87 f8bc
00000290: 21c7 e63c 6b54 973d e93d 833d abf3 c9bd
000002a0: e97d bf3d 7462 efbc 6767 fbbc 970e 9e3c
000002b0: 99c8 a53d bf3b 00bd 5e9e 14bd 29c5 873d
000002c0: 3aba cd3d 100a 0cbc 282e a7bc 525e b83d
000002d0: 3b9d b6bd 2659 f73c 4066 9c3d a523 d53c
000002e0: fa09 f53c e0d8 f0bb b72a 733d 84d9 5dbd
000002f0: 480c a43c c658 7e3d 25b4 0fbc b720 893d
00000300: 4db3 d2bc 47b7 c03d e091 2bbd 501b 323d
00000310: 9b21 a5bd 4bd5 8d3d bb36 823d 63c2 e73a
00000320: a953 813c 8c47 383d a83f 97bd ee9e 583d
00000330: 2db6 013d 6c4f 91bd 1ee2 0f3d ef24 1bbd
00000340: df64 9dbb 8ae7 893d 2527 b83c c4dc cf3c
00000350: b715 8cbd 251b d3bc 8f3b 673d 409e 983d
00000360: dfe2 443d cab8 52bd 24cd f23c 5573 9cbb
00000370: 846b 233d b55f 45bc ca62 9bbd de3e b3bd
00000380: 3e50 473d be4a 81bd 7364 bf3d 9442 1a3d
00000390: 9823 8ebb 172a aebd f55b 64bc 27cb 49bd
000003a0: 2d42 c8bd 5918 7fbb 1de6 ab3d 9dad c5bd
000003b0: 0d2a 2fbd 7655 c7bc 3284 4f3d 583e c0bd
000003c0: dfbd a7bd cae4 a53d 084c 5b3c 5ca6 823d
000003d0: f715 c93c 36d0 5b3c 563f 9dbd ba73 8d3d
000003e0: 0cd5 bebc 61cc 953d 2dde 2e3d a144 be3d
000003f0: 501b 8cbd b395 9d3d 4032 cabd 171c 8bbd
0.03583349 -0.030630002 0.048630975 -0.05198016 -0.047917902 -0.089179605 0.07369043 -0.047481228
0.052140754 -0.0033129754 0.083195105 0.0384245 -0.0044331164 0.083584115 -0.034114525 0.06627026
0.018387234 -0.092309736 0.036234632 -0.0012154487 0.042117923 0.057459503 -0.085846625 0.035593204
-0.09079667 0.09600084 -0.078213714 -0.03948631 0.043070484 0.025217472 0.022385716 0.011125352
-0.029649097 -0.033627175 0.09073459 -0.011190668 -0.0026488528 -0.09507854 0.011619921 -0.06512163
-0.028773567 0.09953981 0.012886963 0.038658947 0.012852265 -0.090788566 -0.0066225305 0.029457197
0.08266247 0.04686036 -0.044410396 0.02212669 -0.09843825 0.042040017 -0.03202971 0.048679452
0.05663028 0.044554032 0.028450446 0.07062388 0.03303543 0.036250748 0.06407383 -0.05941678
-0.04411935 0.011371909 -0.015208075 -0.09145438 -0.022675084 0.025435127 0.019060764 0.07156698
-0.083509214 0.045205913 -0.049664944 0.02716881 0.07317872 0.05584459 0.02507342 -0.049622964
0.07478283 -0.009982789 0.08853413 -0.023916177 0.06353957 -0.071316935 0.07457803 -0.051604357
0.026209243 -0.029290982 0.06878478 0.035617568 -0.03290807 0.09137284 -0.088026464 0.029521339
-0.040601272 0.079511546 0.08090739 0.048100337 0.09865508 -0.00529539 0.06776384 0.05918333
-0.028361605 -0.0048065544 -0.001393794 0.021240074 -0.010468781 0.022221528 0.06586369 -0.07636823
0.08905933 0.08975208 -0.068414636 -0.06654529 -0.069362454 -0.081202604 -0.020845875 0.06338067
-0.071535945 0.076058835 -0.060362604 -0.064807326 0.047521405 0.061674424 -0.024827857 0.055545103
-0.094378255 0.022440126 -0.026056442 0.06845357 -0.023558237 2.8882345e-05 -0.048218645 -0.06993328
0.09699636 0.0039228513 -0.052555643 0.02531869 -0.057709366 0.081355534 0.06932096 0.009865381
-0.09217099 0.09087045 0.014814779 -0.01095102 0.0786128 -0.04292195 0.05796671 -0.059456646
-0.047400918 -0.05244751 0.036347397 0.01759851 0.018412158 0.06803294 -0.051023167 -0.05599469
-0.09465045 -0.06651844 -0.0951315 -0.030338187 0.028171124 0.07389148 0.06408293 -0.09860929
0.09350187 -0.02922175 -0.030688955 0.019294066 0.080949016 -0.03130698 -0.036283843 0.06629402
0.100452855 -0.008547321 -0.020407751 0.09002365 -0.08916708 0.030193876 0.0763669 0.026017973
0.029911984 -0.0073500723 0.059366908 -0.054162517 0.020025387 0.06209638 -0.008770977 0.06695693
-0.025720263 0.094099574 -0.041887164 0.04348308 -0.0806305 0.06925448 0.06358095 0.0017681833
0.015786963 0.044990107 -0.07385188 0.052885942 0.031667877 -0.07095227 0.03512775 -0.03787702
-0.0048032845 0.06733616 0.022479603 0.025373824 -0.06840079 -0.02576978 0.056453284 0.07452059
0.048067924 -0.05144576 0.029638834 -0.004774491 0.039897457 -0.012046744 -0.07587202 -0.08752225
0.04866051 -0.06313084 0.09345331 0.03766115 -0.004337739 -0.08504122 -0.01393794 -0.049266007
-0.09778247 -0.0038924424 0.083935 -0.09652255 -0.042764712 -0.024332743 0.05066318 -0.09386891
-0.08190512 0.08100279 0.0133848265 0.06379387 0.024546606 0.013416341 -0.07678096 0.06906839
-0.023294948 0.07314373 0.042692352 0.09290434 -0.06841147 0.076945685 -0.09872866 -0.06792467

fc2.bias f4 [75]
00000000: 60bb babc 05e7 88bc 6265 02ba 47ca 62bd
00000010: acaf 973d 24b9 983d 7852 c5bc 36ad 98bd
00000020: c7e4 24bd 159a 983c 2966 363d dc02 f53b
00000030: 5e28 b83b e241 003d afe8 2abd 274f a33d
00000040: d76b 84bd cfa5 4fbd 8e68 743d 8d8c 843b
00000050: 1f8e e5bc 7914 c1ba e19c a13d 4b02 ae3d
00000060: 4de4 c5bd 8e6b a6bd 30e8 a03d 3de2 c6bd
00000070: 26a6 b6bd 8a1f 2dbd 7595 6c3d e8f3 1b3c
00000080: 0870 2a3d 02b6 82bd 52c4 173d 4adc 1ebd
00000090: 1601 8abd 394c f3bc 485f b4bc 708b 3cbc
000000a0: d87c 443d f46a 1a3c c1eb 003d dc90 06bd
000000b0: f6d0 c33d 3125 1f3d efe1 7b3c 3ca2 6d3d
000000c0: 6f06 84bd dd91 24bd 64d9 053d 128b 19bd
000000d0: a3b6 2fbd c8ec eebc b919 32bc dc3c 733d
000000e0: bc7b 1bbd 957a 23bc 59e7 a0bd b68e 3d3d
000000f0: a1f3 5f3d dc66 4d3d 622d 8ebd 8883 fabc
00000100: ea1e 8abd 19ca 88bc 53a1 e43b 5505 b1bd
00000110: bcfd 9b3c 556e f03c 0ba8 ad3c 9212 0a3b
00000120: 1550 8c3d 5967 3d3d a764 afbd
-0.022794425 -0.016711721 -0.00049742137 -0.055368688 0.074065536 0.07457188 -0.024087176 -0.07454912
-0.04025724 0.01862816 0.04453102 0.0074771475 0.0056200465 0.03131283 -0.04172581 0.079740815
-0.06465881 -0.050695237 0.059670024 0.0040450753 -0.02802187 -0.0014730833 0.078912504 0.08496531
-0.096626855 -0.08125983 0.07856786 -0.0971112 -0.08918409 -0.042266406 0.05775972 0.009518601
0.041610748 -0.063823715 0.03705246 -0.038784303 -0.067384884 -0.029699432 -0.02201809 -0.011507854
0.047970623 0.009424914 0.031474832 -0.032852992 0.095613405 0.038853828 0.015373691 0.058016047
-0.064465396 -0.04017817 0.032678023 -0.037486143 -0.042898785 -0.02916564 -0.010870391 0.059384212
-0.0379598 -0.009977956 -0.07856626 0.046278678 0.054675702 0.050146922 -0.0694225 -0.030580297
-0.06744178 -0.01669793 0.006977239 -0.08643595 0.019041888 0.029349485 0.021198293 0.0021068198
0.06851212 0.046241138 -0.0856412

fc3.weight f4 [50, 75]
00000000: d2e5 563d 36fc d53c 0139 61bd a6a2 883d
00000010: 3ecf 3cbc c375 a93d 8a76 4abd 1858 3bbd
00000020: c293 6fbd d849 9d3c 3cd3 d2bd 6b2e dd3d
00000030: 09f3 dc3d 3264 12bc 7024 13bd ee7c 2abd
00000040: 0f0e b53d ecc0 513d d80f 8c3c 8705 dd3d
00000050: b7b8 963d bb06 233c 06da 2a3b 2864 97bd
00000060: 0ca2 a13d 64d4 0c3d b02c 3fbd 5e26 3c3d
00000070: 53b3 e4bd c6de 99bd e89f 9ebc 5089 883d
00000080: 37a2 8cbc 1727 72bd d3e0 22bd d660 bd3d
00000090: 065d 14bd 0054 c3bb c03c 363d 3a67 b63d
000000a0: 6377 20bd 78f9 993d 695c af3d e4ab 0f3d
000000b0: 10c7 3e3d 056e b6bc e7ed dc3c 75b2 1cbb
000000c0: 94ba 6c3d 643e c53d 0695 4f3d c423 383c
000000d0: a46c b4bc d010 013d 01f9 90bd d89f 96bd
000000e0: 9975 36bc 8b1d 133b d7bb 2e3c a95f c73c
000000f0: 0a28 13bd 244f 7cbd b225 91bd e8f5 843d
00000100: 131f 9cbd 4900 acbd d6d2 8b3c aca3 453d
00000110: f702 f939 e8f8 a33d 0ea1 2dbc 0cb3 dfbd
00000120: 3bda 39bd f95c af3d b608 b4bd f47e b33d
00000130: a8e9 443d 1c85 c7bd 883f 9b3c cd89 cebd
00000140: b6cb 9d3d 607f b5bd 4e4a 9bbd 7493 e83d
00000150: 604c b63b c20e a83d ae93 28bd db32 dfbd
00000160: 64ab d5bd f0e9 243d 5c04 063d 46c9 c93d
00000170: 62e5 e7bd 5035 8dbd 9950 5bbd c82f 363d
00000180: cc63 d2bc 6e0e 92bd 644d 8abc 25c5 7bbd
00000190: 2088 afbb 0030 383d 2253 9d3d d107 b8bd
000001a0: f6a1 9abd 64d5 e33d 6cb3 bb3d c89f 553d
000001b0: 428a 34bd 0647 bcbd 0615 ec3d e8e3 16bd
000001c0: 683d 863d 7517 babd 15a3 97bd fac4 b1bd
000001d0: b849 7b3d d456 953d 49dd 9fbd 60c3 113d
000001e0: ef69 c8bd bcec 553d 202a 44bb 8ceb 773d
000001f0: b8d6 673d efdb debd 9643 e83d e02a c43d
00000200: 520e bcbd eea8 11bd 708d 5b3d 88f7 6d3d
00000210: 4c6b e6bc f84a ebbd 3cb6 903d 8ec6 d53d
00000220: f81a 413d 1c4b b4bd d085 d03c 80d7 91ba
00000230: 44cf 0ebd f525 7bbd 80d6 5b3a e238 d9bd
00000240: 38eb 073d e489 5abd 83c4 92bd 36c9 e4bd
00000250: 70be dabd acbc 5f3d 6afb a03d 2c5d e0bc
00000260: 44dc 563d 30ab fe3c b8bd bf3d a138 a0bd
00000270: 7ca1 94bc 9482 c4bc 3489 67bd 2045 b03d
00000280: 843d a7bd 4877 2dbd dc27 c53d f797 acbd
00000290: 2037 01bb fab8 a33d 1445 e63d 7095 c8bb
000002a0: aed6 973d 0659 8abd 5e82 a7bd 98f3 c3bc
000002b0: aacd c53d fae4 e13d b021 293d f97a b9bd
000002c0: a2f5 c93d 4042 96bc 0ca0 483d 18ad f93c
000002d0: 9010 13bc 50c7 45bc 0064 eb3c 1026 dd3b
000002e0: 1073 95bb ac0a 83bc b7ee eabd 2070 2f3b
000002f0: e2d9 833d 0c32 3bbd aadc 9b3d ff7b c4bd
00000300: cc0f f7bc 202e ae3d b057 bcbd 1c4f 9cbc
00000310: 1404 cebd 0eca 0ebd aeeb 77bd aebd c13d
00000320: c0ca 8fbc 7028 db3d a5bc e4bd b363 a8bd
00000330: 587f aebc c9ee 76bd 39a0 7cbd 14d0 a33d
00000340: 96d1 c5bd 0488 31bd f457 703d 0ade 36bd
00000350: bc7e 483d 141f a4bc b085 efbb aeb6 d23d
00000360: 462a dc3d 5e5e c23d ac87 89bd 90aa 363d
00000370: f89c ba3c 3937 e3bd 2ccd e33d f598 ccbd
00000380: 6859 173d d849 84bd 462d 0dbd 2f4e c13d
00000390: 360d 54bd e0ab e0bd ab37 a33d a031 633d
000003a0: b0e2 fa3c 726d 3e3d 4363 2cbc bb84 efbd
000003b0: 07d8 973c 79e3 debd 63a0 8d3d 4a7e b43d
000003c0: 88a3 c4bd 6d67 9ebc 2cb6 983d 34c1 9f3d
000003d0: f436 cabd 7242 c5bd 5f9a 81bd 449f 863d
000003e0: 1245 a7bd 6c40 0a3d d805 bcbd db7f 4cbc
000003f0: a910 99bc d8d6 153d 2171 b7bd 81d8 f73c
0.052465267 0.02612124 -0.054986004 0.06671648 -0.01152402 0.082744144 -0.049429454 -0.04573831
-0.058490522 0.01920025 -0.10294196 0.10799869 0.10788543 -0.008935021 -0.03592342 -0.04162305
0.08840572 0.051209375 0.017097399 0.1079207 0.0735945 0.009950335 0.0026069894 -0.0739215
0.07892236 0.03438224 -0.046673477 0.045935027 -0.11167016 -0.07513194 -0.019363359 0.06666815
-0.017167194 -0.05911931 -0.03976519 0.092469856 -0.036221527 -0.0059609413 0.04449153 0.08906408
-0.039176356 0.075182855 0.08562548 0.035076037 0.04657656 -0.022269258 0.02696891 -0.002391008
0.057795122 0.09631041 0.05067923 0.011238996 -0.02202446 0.031510174 -0.07078744 -0.073547065
-0.011136436 0.002244803 0.010664902 0.024337607 -0.035926856 -0.061598912 -0.07087268 0.064922154
-0.076231144 -0.08398492 0.017068308 0.048251793 0.0004749519 0.080064595 -0.01059748 -0.10922822
-0.045374136 0.08562655 -0.08790724 0.08764449 0.048074394 -0.097421855 0.018951192 -0.10084877
0.077048704 -0.088621855 -0.07582532 0.113562495 0.005563304 0.0820594 -0.041156463 -0.10898372
-0.10433081 0.040262163 0.032719 0.09852843 -0.11323048 -0.06894934 -0.05354366 0.04447916
-0.025682352 -0.071316585 -0.016882606 -0.06146731 -0.0053568035 0.04496765 0.07681872 -0.08985866
-0.07550423 0.111246854 0.091650814 0.052154332 -0.044077165 -0.09193234 0.115274474 -0.036838442
0.06554681 -0.09086505 -0.07404152 -0.086801484 0.0613496 0.07291952 -0.07805879 0.035586715
-0.0978583 0.05222772 -0.0029932335 0.06052737 0.056601256 -0.10881793 0.11341016 0.0957849
-0.09182419 -0.035561495 0.053601682 0.058097392 -0.028127335 -0.114889085 0.070660084 0.10438262
0.04714486 -0.088033885 0.025454432 -0.0011126846 -0.034865633 -0.061315496 0.000838615 -0.10606553
0.033183306 -0.05335416 -0.07166388 -0.111711904 -0.10680854 0.05462329 0.078604534 -0.027388178
0.052456155 0.031087488 0.09362358 -0.07823301 -0.018143408 -0.023988046 -0.05652733 0.086069345
-0.0816603 -0.042350084 0.09626743 -0.084274225 -0.0019716695 0.07994266 0.11243644 -0.00612133
0.07413994 -0.06755261 -0.081791624 -0.023919865 0.09658368 0.11030002 0.041291893 -0.09056658
0.09861304 -0.018342137 0.048980758 0.030478045 -0.008976117 -0.012071446 0.028734207 0.006748922
-0.0045608357 -0.0159963 -0.114713125 0.0026769713 0.06438042 -0.045702025 0.07610448 -0.09593963
-0.0301589 0.085048914 -0.091964126 -0.019080691 -0.100593716 -0.034860663 -0.060527496 0.09460007
-0.017552733 0.10701072 -0.111687936 -0.08222141 -0.021300957 -0.060286317 -0.061676238 0.07998672
-0.09659116 -0.043342605 0.05867763 -0.044645347 0.04894899 -0.02003435 -0.007309638 0.1028875
0.107502505 0.09490655 -0.067153305 0.044596255 0.022779927 -0.11094517 0.11123118 -0.09990112
0.0369505 -0.06459397 -0.034467004 0.094387405 -0.05177041 -0.109702826 0.07969602 0.055467248
0.030625671 0.046491094 -0.010521713 -0.11695238 0.018535627 -0.10883231 0.06915357 0.0881315
-0.096015036 -0.019336427 0.074566215 0.078005224 -0.09873763 -0.09631814 -0.06328272 0.06573346
-0.08167471 0.033752844 -0.09180802 -0.012481655 -0.018684702 0.036581844 -0.089571245 0.030254604

fc3.bias f4 [50]
00000000: 574d a53d f0ad e9bd e8df c9bd 0109 c23d
00000010: d036 abbd f609 74bd e23d 7dbd 0f32 8c3d
00000020: 54f2 ad3d c256 92bd 34e0 2cbd b685 99bb
00000030: dc7a 05bd 07cf 0cbc 0e78 913d bcf9 17bd
00000040: 6773 c8bd 6c29 d33c 72ab abbd 08a6 8b3d
00000050: 2204 fcbc 6a3f 8bbd 542b 723d c72c 943b
00000060: a60a 6ebd 462d d53d f692 bf3d 73ec 993d
00000070: 3591 163d 3518 6c3d 9e17 c13c 78d2 d13d
00000080: 44a5 133c bfb6 13bc 2ae4 843d 71b0 5f3d
00000090: 53cc d33d 827b c33c 034b e53d 083d ecbc
000000a0: c6fc b1bd 4ef7 dcbd c67d 57bd e54e 9fbc
000000b0: a2b6 923d 9629 c8ba e9cd 263c df2d ecbd
000000c0: 9ba5 343d 78a5 c53c
0.08071392 -0.11410129 -0.0985716 0.094743736 -0.08360064 -0.059579812 -0.061826594 0.068454854
0.08493486 -0.07145454 -0.042206004 -0.004685129 -0.03258787 -0.008594281 0.07102977 -0.0371034
-0.09787636 0.025776587 -0.0838231 0.06818777 -0.03076369 -0.06799205 0.059123352 0.0045219394
-0.058115624 0.10409026 0.093542024 0.07515802 0.036759574 0.057640273 0.023570832 0.10245222
0.00901157 -0.009015738 0.06488831 0.054611627 0.10341706 0.023862604 0.11195948 -0.028837696
-0.08690791 -0.10789357 -0.05261018 -0.0194468 0.07163741 -0.0015271183 0.010180929 -0.11532187
0.044103246 0.024126753

out.weight f4 [3, 50]
00000000: bea8 c93c fe12 b0bd b5bc 99bd 30ce 94bd
00000010: 0af5 29bd 78be 963d 2a74 16bd 0a01 eb3d
00000020: 73b9 f0bc ba8f 22bd 607f 2a3c e7ac 99bd
00000030: e421 e4bc b7d3 973d a4f7 81bd 950a 07be
00000040: b02d bc3c 2104 dd3d 44be 723d 3e13 853d
00000050: 3057 18bc 406c 69bd dcf0 7e3d 37e2 64bd
00000060: 9b00 fa3d 9d8c e2bc c061 943d 8215 89bc
00000070: f4ba dc3c d04f 133d a669 e93d e27b 513c
00000080: 6a79 ae3c 8a31 8c3c 3b85 433d d4c0 c43d
00000090: fef9 f5bd 9a1f 8e3d f5f0 53bc 0fe7 f4bd
000000a0: 019c 04be 7017 bc3c 9e5b 873d 6f4d fcbd
000000b0: dc41 dfbd 0a9d 993d 6d59 d93c d1fd 06be
000000c0: e84e 73bc e0ed a83d b50b 11be 4bc1 103e
000000d0: 00e6 2abb 2f35 10be 80bc 3cbd 00cf a6bd
000000e0: 84c6 b5bd f075 f4bc df31 09be e281 f63d
000000f0: 6cad 3abd e888 60bc a48b 033e 013f ee3d
00000100: 5072 d33d 2d6b cbbc 6878 b63c a8f3 88bd
00000110: 4c5d 3fbd 8614 0a3e 8bf0 163d 400d 10bd
00000120: e1de a33d e6b6 9dbd 4436 093e 3fa5 ddbd
00000130: b599 943c 8604 023e 1749 c9ba 6b0e d1bd
00000140: 7b45 e2bd 7764 4f3d fd98 00bd 56ee e8bd
00000150: 46aa dfbd a68f bcbd e736 03be 5940 0cbe
00000160: 8d83 c13d 15eb 033e 1c15 063d d026 873d
00000170: 7bbb 0c3e e647 153e e376 093e a517 20bd
00000180: 8e54 8bbc b609 be3d 6f62 ad3a e0bc 1b3c
00000190: 20b6 44bc 985f 433d 06ff e43d 4c44 a03d
000001a0: 74dc 0a3d 3921 fdbd 7851 b8bd 86dd ddbd
000001b0: a893 443d 1a12 b7bd 0008 c23b 9663 ccbd
000001c0: d623 b3bd fd2d 10be 4539 f5bd d046 1a3c
000001d0: c025 973b 23b6 debd 4315 103e 8057 313c
000001e0: 16f0 c93d 6036 a2bc a860 88bc 20d5 f8bc
000001f0: 02a4 36bd 2bd8 02be 26c6 fc3d 2a5b 02be
00000200: 64aa 453d c411 8a3d dc9e c6bd fe8c ed3d
00000210: 8e0e 35bd 40d0 c93d ccee c23d 7917 083e
00000220: 7c0b 6f3d 90a0 503d 88c5 b43d 93f5 0a3e
00000230: e23c 963d 009c 2fbc 8af0 16bd 8297 de3d
00000240: 14e7 2bbd 3ed3 e0bd a014 e2bc 1a41 11bd
00000250: da37 bbbd 0063 9ebd
0.024616595 -0.085973725 -0.07506696 -0.0726589 -0.041493453 0.07360548 -0.036731876 0.114748076
-0.029385304 -0.03968785 0.010406345 -0.07503682 -0.027848192 0.07413428 -0.06346062 -0.1318763
0.022971004 0.10791803 0.059263483 0.06497811 -0.009298131 -0.056988 0.06224142 -0.055879798
0.12207147 -0.02765494 0.07245207 -0.016733889 0.026944615 0.035964787 0.11397104 0.012785884
0.02129813 0.017113466 0.04773448 0.096070915 -0.12010573 0.06939621 -0.012935867 -0.119581334
-0.12950136 0.022960395 0.066092715 -0.12319457 -0.109012336 0.07500656 0.0265319 -0.13182761
-0.014850356 0.08248496 -0.14164622 0.14136235 -0.0026077032 -0.14082788 -0.046078205 -0.08144951
-0.088757545 -0.029841393 -0.1339793 0.12036492 -0.045575544 -0.013704516 0.12846237 0.11633111
0.10324538 -0.024831379 0.022274211 -0.06687099 -0.046719834 0.13484392 0.036850493 -0.035168886
0.08001495 -0.07700901 0.13399607 -0.10822534 0.0181397 0.12697038 -0.0015356865 -0.10207828
-0.110484086 0.05063292 -0.0313959 -0.11373584 -0.10921149 -0.09207086 -0.12813912 -0.13696422
0.094489194 0.12882645 0.032734975 0.065992 0.13743393 0.14578208 0.13424258 -0.03908505
-0.017008092 0.09279196 0.0013228188 0.0095054805 -0.012006313 0.047698587 0.11181454 0.078255266
0.033901647 -0.12359852 -0.08999914 -0.10833268 0.04799238 -0.089389995 0.005921364 -0.09979932
-0.087470695 -0.14080043 -0.11973814 0.009416297 0.0046126544 -0.108745836 0.1407061 0.010824084
0.09860246 -0.019801319 -0.016647652 -0.030375063 -0.044590004 -0.12777774 0.12342481 -0.12730089
0.0482582 0.0674167 -0.09698269 0.11599158 -0.044203334 0.09854174 0.09518203 0.13290204
0.05836056 0.050934374 0.088267386 0.13570242 0.07335831 -0.010718346 -0.03685049 0.108687416
-0.04196842 -0.10977791 -0.027597725 -0.035462476 -0.09141512 -0.077337265

out.bias f4 [3]
00000000: a8fc a9bd b8c2 a3bc 3cb3 c5bd
-0.083001435 -0.01999031 -0.09653327
