models/288c6a459ff4e3807bac182a05168aa9.pt (torch_old, 55793 bytes, 8 tensors)

fc1.weight f4 [100, 20]
0	0xbe55823e	-0.20850465
1	0xbe224772	-0.15847567
2	0x3e1d47f0	0.15359473
3	0x3e53a37e	0.20667836
4	0xbe24c0d5	-0.16089185
5	0xbdc74e00	-0.09731674
6	0xbdcf86c4	-0.101331264
7	0x3d579158	0.052628845
8	0x3da58edc	0.08083889
9	0x3e0bf7b9	0.13668717
10	0x3e527999	0.20554198
11	0xbda476b0	-0.0803045
12	0xbde8de7e	-0.11370562
13	0xbe399681	-0.18123819
14	0xbd8c9eb2	-0.06866206
15	0x3e598580	0.21242332
16	0xbd8a9652	-0.067669526
17	0x3e088aaa	0.13334146
18	0xb7f98000	-2.9742718e-05
19	0xbc9dd2c8	-0.019265547
20	0x3e446108	0.1917764
21	0x3d6f4818	0.058418363
22	0xbd81006a	-0.06298907
23	0xbddb0833	-0.10694923
24	0x3e60a49e	0.21937796
25	0xbd450dec	-0.04810898
26	0xbbe4cf20	-0.006982699
27	0x3d2cdcb8	0.04220268
28	0xbb451800	-0.003007412
29	0xbe48a638	-0.19594657
30	0xbe1ab1ec	-0.15106934
31	0x3e628e56	0.2212461
32	0xbde7dc82	-0.113213554
33	0xbd6cc194	-0.057801798
34	0x3e1bdde7	0.15221368
35	0x3d9ca21c	0.076481074
36	0x3cd9dac0	0.026593566
37	0x3e220e6c	0.15825814
38	0xbd463a9c	-0.048395738
39	0xbe0a48dc	-0.13504356
40	0x3dc16508	0.09443098
41	0xbdcb246a	-0.09919055
42	0xbbad8a60	-0.0052960366
43	0xbd1b5494	-0.037922457
44	0xbd7d3b4c	-0.061824128
45	0xbda5ff50	-0.081053376
46	0xbdb37fc2	-0.08764602
47	0xbd8d6832	-0.06904639
48	0xbddfe855	-0.10932986
49	0xbe59eaed	-0.21281023
50	0x3de867c8	0.1134792
51	0x3d91fe58	0.0712859
52	0x3d403250	0.04692298
53	0x3dc52b8c	0.096274465
54	0x3e0f2d5a	0.13982144
55	0x3b06c200	0.002056241
56	0xbe3d62da	-0.1849474
57	0x3d185b00	0.03719616
58	0x3d99e6f8	0.07514757
59	0xbd9860b2	-0.07440318
60	0xbdb1c5de	-0.08680318
61	0x3e409c8a	0.18809715
62	0xbbf00400	-0.0073246956
63	0x3d864a50	0.06557143
64	0x3e0568e1	0.1302829
65	0xbe299326	-0.16560039
66	0x3e01c18f	0.12671493
67	0x3d75ece2	0.060040362
68	0xbe03961e	-0.12850234
69	0x3de6e227	0.11273604
70	0xbe1fddba	-0.15611926
71	0x3c9f61ab	0.019455751
72	0x3e2f70d1	0.1713288
73	0xbe1448fe	-0.1448097
74	0xbe0bfb2d	-0.13670035
75	0x3d8ceb90	0.068808675
76	0x3e51e6b6	0.20498165
77	0xbdd2e3dd	-0.10297368
78	0x3e18c928	0.14920485
79	0xbe0446cc	-0.12917632
80	0x3e5121d2	0.20423058
81	0x3e374574	0.17897588
82	0x3da2bfec	0.079467624
83	0x3e294fd2	0.16534355
84	0xbd37fc98	-0.044918627
85	0x3cda2ec0	0.02663362
86	0xbca72630	-0.020403951
87	0xbe43ed99	-0.19133605
88	0xbda0be4e	-0.07848798
89	0x3e2fff28	0.17187178
90	0xbe0a1715	-0.13485368
91	0x3e294ea8	0.16533911
92	0x3e60cd1e	0.21953246
93	0x3e124f1b	0.14287989
94	0xbe3817ea	-0.17977872
95	0xbd3b0058	-0.045654625
96	0xbe19718a	-0.14984718
97	0x3da93760	0.08262515
98	0x3c3971e0	0.011318654
99	0xbded8b61	-0.1159885
100	0x3d2188d0	0.039437115
101	0x3db55f4c	0.08856067
102	0xbe5f92fa	-0.21833411
103	0xbe3cdc18	-0.18443334
104	0x3dc30968	0.095232785
105	0x3d2fd9f7	0.042932477
106	0xbd66dff0	-0.056365907
107	0x3df1e60c	0.11811456
108	0x3d7ce5ca	0.06174258
109	0x3e2f78bc	0.171359
110	0xbe5e8c86	-0.21733293
111	0x3e3fea7f	0.18741797
112	0x3c9b16aa	0.018931706
113	0xbd3964d8	-0.045262188
114	0xbdb0f999	-0.08641357
115	0xbe2335e8	-0.15938532
116	0x3d42ff08	0.047606498
117	0xbc6805e0	-0.014161557
118	0xbe34f4bd	-0.17671485
119	0x3e37b200	0.17938995
120	0xbdb74502	-0.08948709
121	0x3d78cf18	0.060744375
122	0x3deb3018	0.114837825
123	0xbd901bc4	-0.07036546
124	0xbdebab72	-0.1150731
125	0xbd80c67a	-0.062878564
126	0xbc599760	-0.0132807195
127	0x3e468771	0.19387604
128	0x3d535d0d	0.051602412
129	0x3e4de8d3	0.20108347
130	0xbd8953f6	-0.067054674
131	0xbd297684	-0.04137279
132	0xbc330030	-0.010925338
133	0x3d4207f8	0.04737088
134	0xbdb6725c	-0.08908531
135	0x3de3d07c	0.111237496
136	0x3e25a7aa	0.1617724
137	0xbe2281e8	-0.15869868
138	0x3e5e7cbe	0.21727273
139	0x3bdccf20	0.0067385584
140	0xbd90a062	-0.070618406
141	0x3e44b11c	0.19208187
142	0xbe0d766e	-0.13814709
143	0xbcc76980	-0.024342299
144	0xbe19817f	-0.14990805
145	0x3d67cd50	0.056592286
146	0xbd3e4e23	-0.046461236
147	0x3e146060	0.14489889
148	0xbd0e92a5	-0.03480782
149	0xbe166968	-0.14688647
150	0x3c14243f	0.009041845
151	0xbe0c8da0	-0.137259
152	0x3e5587d8	0.20852602
153	0xbd0b1143	-0.03395201
154	0x3e04b430	0.12959361
155	0x3e533cb4	0.20628625
156	0x3d145f68	0.0362238
157	0xbdbf4f48	-0.093412936
158	0x3cf051d0	0.029335886
159	0x3c5fc360	0.013657421
160	0xbe0b8e06	-0.13628396
161	0xbe5e5777	-0.21713053
162	0xbdafaab2	-0.085774794
163	0xbddd3e02	-0.10802843
164	0x3db300d7	0.087403946
165	0x3b7bca7a	0.0038420246
166	0x3d6e920d	0.058244754
167	0x3e253cb7	0.16136442
168	0x3e490e4a	0.19634357
169	0x3e3e3d4b	0.18578069
170	0x3e6210bb	0.22076695
171	0xbe4ac9e5	-0.19803579
172	0xbe0cad48	-0.13737977
173	0xbd9cf234	-0.07663384
174	0x3e5aed80	0.21379662
175	0x3c770e50	0.015079096
176	0xbb756500	-0.0037444234
177	0x3e015afe	0.12632367
178	0xbd948bb4	-0.07253209
179	0xbe5f92f8	-0.21833408
180	0xbe4ce1a1	-0.20007946
181	0xbe3807ac	-0.17971677
182	0x3dcafa30	0.09911001
183	0x3d837920	0.06419587
184	0xbdec9166	-0.1155117
185	0xbda56366	-0.08075599
186	0xbdb8cf42	-0.09023906
187	0x3e598724	0.21242958
188	0xbd856f40	-0.0651536
189	0xbe487743	-0.19576745
190	0xbe349402	-0.17634585
191	0x3d3fe8cb	0.046852868
192	0xbe360434	-0.17775041
193	0x3d2dd07c	0.042435154
194	0xbe54b08c	-0.20770472
195	0xbe5ae52f	-0.21376489
196	0x3d80d788	0.06291109
197	0x3e637f44	0.22216517
198	0xbd78c35c	-0.060733184
199	0xbda09514	-0.078409344
200	0xbdafb8b6	-0.08580153
201	0x3c051b20	0.008124143
202	0x3dcdb9dc	0.100452155
203	0x3d9e46f8	0.0772838
204	0xbe2d1ef2	-0.16906336
205	0x3e18a155	0.14905293
206	0xbd4434b2	-0.047901817
207	0xbe1ad340	-0.15119648
208	0xbc4914e8	-0.012273051
209	0x3d4b02d2	0.049563237
210	0x3e314959	0.17313136
211	0xbe2b78f1	-0.16745354
212	0xbd9b1e16	-0.07574098
213	0x3e29fbcb	0.16599958
214	0xbd85f4b5	-0.06540815
215	0xbd09fa28	-0.033685833
216	0xbdc9911c	-0.098421305
217	0x3d52e300	0.051486015
218	0x3e125e90	0.14293885
219	0xbdb884de	-0.090097174
220	0x3e43ae50	0.19109464
221	0xbbedfc60	-0.0072627515
222	0x3e394a1c	0.18094677
223	0xbe19ca62	-0.15018609
224	0x3dd5aaf0	0.10432994
225	0xbd286628	-0.04111305
226	0x3db1d084	0.08682349
227	0xbd978198	-0.07397765
228	0xbe1f3312	-0.15546826
229	0x3d1fa468	0.03897515
230	0x3dbe121c	0.09280798
231	0xbe157180	-0.14594078
232	0x3e4d3bbf	0.20042323
233	0xbd88d6ec	-0.06681618
234	0xbdf5c095	-0.11999623
235	0xbe0dfa04	-0.13864905
236	0xbd9a4300	-0.075323105
237	0xbb8132c0	-0.0039428174
238	0xbe166bfc	-0.1468963
239	0x3e41b092	0.18915012
240	0x3e444eb4	0.19170648
241	0x3cdb2a40	0.026753545
242	0x3d8dee78	0.0693025
243	0xbdab688e	-0.083695516
244	0xbe423619	-0.18965949
245	0xbe03aeb6	-0.12859616
246	0xbe33b512	-0.17549542
247	0xbe5ba127	-0.21448193
248	0x3dda62ec	0.10663399
249	0xbe07a0dc	-0.13244957
250	0x3e52f13e	0.20599839
251	0xbd623834	-0.05522938
252	0x3dc8f596	0.09812467
253	0xbe4d6c64	-0.20060879
254	0x3c836128	0.016037539
255	0xbe488faa	-0.19586053

fc1.bias f4 [100]
0	0xbe0b9a5c	-0.13633102
1	0xbd88f0a9	-0.06686527
2	0xbe253a30	-0.16135478
3	0x3db81bee	0.08989702
4	0xbe16da9a	-0.14731827
5	0x3dd36ed0	0.1032387
6	0xbd45d1b6	-0.0482957
7	0x3d54ce6c	0.05195467
8	0x3d831cc5	0.06401972
9	0xbceaa29e	-0.028641995
10	0x3e241e84	0.16027266
11	0xbe32b68e	-0.17452452
12	0xbc8d9e19	-0.0172873
13	0x3d8e7ecc	0.06957778
14	0xbc54afe2	-0.012981387
15	0x3d550a4a	0.052011766
16	0xbe007a05	-0.12546547
17	0x3e36db6f	0.17857145
18	0xbdcb0b0a	-0.09914215
19	0x3e224d5d	0.15849824
20	0x3df29b9f	0.118460886
21	0x3d8e76ed	0.06956277
22	0xbe557a50	-0.2084744
23	0x3e03adc0	0.12859249
24	0xbdf300be	-0.11865376
25	0xbdcf917c	-0.10135171
26	0x3d49b245	0.049242277
27	0x3b3d658f	0.0028899645
28	0xbd06a16e	-0.032868795
29	0x3e0f7cf4	0.1401251
30	0xbe3458a2	-0.17611936
31	0xbd93ee57	-0.07223194
32	0x3d30d270	0.04316944
33	0x3e32ce6e	0.17461559
34	0x3e0df893	0.13864355
35	0xbe531cfb	-0.20616524
36	0xbe273a60	-0.16330862
37	0x3e5dd6de	0.21663997
38	0xbe00b29e	-0.12568137
39	0xbdeb7327	-0.11496573
40	0x3b8ec557	0.004357021
41	0x3e109e61	0.14122917
42	0x3d4b6001	0.049652103
43	0xbe3ccda5	-0.18437822
44	0x3d991978	0.07475561
45	0xbd5c3d0a	-0.05376915
46	0xbe2d7bb4	-0.1694172
47	0xbe35f928	-0.17770827
48	0xbe5d634b	-0.21619909
49	0xbdaca1a6	-0.084292695
50	0x3cf93845	0.03042234
51	0xbe34ccb1	-0.17656209
52	0x3d3d2946	0.04618194
53	0x3de7f695	0.11326329
54	0xbe62bbbc	-0.22141927
55	0x3da5471c	0.08070204
56	0xbe3bcdef	-0.18340276
57	0xbc0675bf	-0.008206784
58	0x3dbf7ae4	0.093496114
59	0xbe32e30b	-0.17469423
60	0xbe34838c	-0.17628306
61	0xbd0beeba	-0.034163214
62	0x3e37548d	0.17903347
63	0x3e3777b4	0.17916757
64	0xbd52d914	-0.051476553
65	0xbdad33c4	-0.08457139
66	0xbdcee8d7	-0.101030044
67	0x3e0019fc	0.12509912
68	0xbe525642	-0.20540717
69	0xbe2d157c	-0.16902727
70	0x3c3d75a3	0.011563691
71	0xbc8cb092	-0.017174039
72	0x3e64cdbe	0.2234411
73	0x3cc4cf42	0.02402461
74	0x3d38d46f	0.045124467
75	0x3e5a14ed	0.21297045
76	0x3e1638f5	0.14670165
77	0x3e272515	0.1632274
78	0xbde81b6d	-0.11333356
79	0xbe0cdcc1	-0.13756086
80	0xbddfcc3d	-0.10927627
81	0x3e4b43f3	0.1985014
82	0xbe16dca3	-0.14732604
83	0x3e3aa67e	0.18227574
84	0x3d952a18	0.07283419
85	0xbe0269d4	-0.12735683
86	0x3e5aede8	0.21379817
87	0xbdc0edd5	-0.09420363
88	0xbe4afb6b	-0.19822471
89	0x3d2ea435	0.04263707
90	0x3db6df84	0.08929351
91	0xbe3c9a63	-0.18418269
92	0x3e2a4f84	0.16631895
93	0x3de288e6	0.110612676
94	0x3e5d9f96	0.21642908
95	0x3deb8f76	0.115019724
96	0x3e4c74c1	0.19966413
97	0xbd0df839	-0.03466055
98	0x3e124839	0.14285363
99	0xbd0ea115	-0.03482159

fc2.weight f4 [75, 100]
0	0x3d13931a	0.03602896
1	0xbcfe14ac	-0.031015716
2	0x3d473146	0.048630975
3	0xbd503d7c	-0.050839886
4	0xbd43554e	-0.047688775
5	0xbdb2ae7d	-0.08724687
6	0x3d994fe7	0.07485943
7	0xbd43f652	-0.04784233
8	0x3d632d31	0.05546302
9	0xbb576637	-0.0032867321
10	0x3dadba8d	0.08482847
11	0x3d1d6302	0.0384245
12	0xbb60762d	-0.0034250126
13	0x3daf279c	0.08552477
14	0xbd0cbda8	-0.034360558
15	0x3d8b1b3b	0.06792303
16	0x3c9ca31e	0.01912075
17	0xbdb6539e	-0.089026675
18	0x3d1380d4	0.036011532
19	0xba704425	-0.0009165428
20	0x3d2b6a73	0.041849565
21	0x3d6856c6	0.05672338
22	0xbdafd05b	-0.085846625
23	0x3d1d5c76	0.038418256
24	0xbdb874d6	-0.0900666
25	0x3dc5e96d	0.09663663
26	0xbd9efb6a	-0.07762797
27	0xbd1f0f68	-0.038833052
28	0x3d2f30fd	0.04277133
29	0x3ce76e55	0.028250853
30	0x3cb7ad23	0.022421425
31	0x3c36471c	0.011125352
32	0xbcf55435	-0.02994738
33	0xbd09d1f5	-0.033647496
34	0x3dc0a7ce	0.09407006
35	0xbc375910	-0.011190668
36	0xbb2d9860	-0.0026488528
37	0xbdc2bee4	-0.09509066
38	0x3c45cd2a	0.012072841
39	0xbd855e7d	-0.06512163
40	0xbcea967b	-0.028636208
41	0x3dcc0f27	0.099638276
42	0x3c5bef39	0.013423734
43	0x3d1eb14e	0.03874331
44	0x3c4a5921	0.012350352
45	0xbdba2f9a	-0.090911105
46	0xbbd901d0	-0.0066225305
47	0x3cf05257	0.029336138
48	0x3da94af1	0.08266247
49	0x3d42e0ae	0.047577552
50	0xbd2d240e	-0.042270713
51	0x3cb54308	0.02212669
52	0xbdcb543e	-0.09928177
53	0x3d372a9b	0.044718366
54	0xbd033196	-0.03202971
55	0x3d462ccd	0.04838257
56	0x3d67db57	0.056605663
57	0x3d37f2f6	0.04490944
58	0x3ce8f24c	0.028435849
59	0x3d90a341	0.07062388
60	0x3d075a1b	0.033044916
61	0x3d155859	0.036461208
62	0x3d845b6b	0.06462749
63	0xbd702609	-0.058630023
64	0xbd35ab3e	-0.044352762
65	0x3c3ba4e0	0.0114528835
66	0xbc730ca9	-0.014834561
67	0xbdbdae37	-0.092617445
68	0xbcb97e5d	-0.022643263
69	0x3cd05d54	0.025435127
70	0x3ca14b70	0.019689292
71	0x3d91960a	0.07108696
72	0xbda5b30a	-0.080907896
73	0x3d3e3d96	0.04644545
74	0xbd4ca5b6	-0.04996272
75	0x3ce69805	0.02814866
76	0x3d9a12a6	0.07523088
77	0x3d7297a5	0.05922665
78	0x3cce6c7f	0.02519822
79	0xbd49d692	-0.049276896
80	0x3d997f0d	0.07494936
81	0xbbf4d1fe	-0.007471322
82	0x3db57bcd	0.08861504
83	0xbcc3da34	-0.023907758
84	0x3d866c7e	0.06563662
85	0xbd920e9d	-0.071316935
86	0x3d9cc6ea	0.07655127
87	0xbd4ec8a0	-0.0504843
88	0x3cd6b4c4	0.026209243
89	0xbcdc13b0	-0.026864856
90	0x3d93c402	0.0721512
91	0x3d122475	0.0356793
92	0xbce43079	-0.027855145
93	0x3db9e1ea	0.09076293
94	0xbdb06bb8	-0.08614296
95	0x3cf825dd	0.030291492
96	0xbd28427c	-0.04107903
97	0x3da1dae7	0.079030804
98	0x3daf8ae6	0.08571415
99	0x3d46b332	0.048510738
100	0x3dca3206	0.098728225
101	0xbbb26524	-0.005444186
102	0x3d8ac7c5	0.06776384
103	0x3d714067	0.05889931
104	0xbce83eb8	-0.02835022
105	0xbb95e590	-0.004574485
106	0xbab601f5	-0.0013886081
107	0x3caed9bd	0.02134406
108	0xbc210141	-0.009826959
109	0x3cb620c9	0.02223243
110	0x3d884426	0.06653623
111	0xbd9c66f2	-0.07636823
112	0x3db73769	0.089461155
113	0x3db77672	0.089581385
114	0xbd8bcd98	-0.06826323
115	0xbd873414	-0.0660173
116	0xbd8e0895	-0.06935231
117	0xbda48fdb	-0.08035251
118	0xbcab7eb7	-0.020934446
119	0x3d81a723	0.06330707
120	0xbd926b96	-0.07149427
121	0x3d9b9130	0.07596052
122	0xbd773ec7	-0.060362604
123	0xbd8373dc	-0.06418583
124	0x3d42a5ce	0.047521405
125	0x3d7d9b09	0.06191543
126	0xbcc99a51	-0.024609717
127	0x3d647ff8	0.055786103
128	0xbdc16edf	-0.09444975
129	0x3cbc1362	0.022958461
130	0xbcd5552c	-0.02604159
131	0x3d8c3163	0.06845357
132	0xbcc1f59b	-0.023676684
133	0xb96dd2b3	-0.00022680573
134	0xbd427187	-0.04747155
135	0xbd8f392e	-0.06993328
136	0x3dc6a607	0.09699636
137	0x3b82c1a0	0.003990367
138	0xbd569060	-0.05238378
139	0x3ccf6924	0.02531869
140	0xbd6c24b5	-0.057652194
141	0x3da736b6	0.08164732
142	0x3d8e6c19	0.06954212
143	0x3c21a268	0.009865381
144	0xbdbcd0be	-0.09219502
145	0x3dba300c	0.090911955
146	0x3c72b9b0	0.014814779
147	0xbc336be8	-0.01095102
148	0x3da0ffbf	0.0786128
149	0xbd2fe772	-0.042945333
150	0x3d6e03e5	0.058109183
151	0xbd7388d0	-0.059456646
152	0xbd427064	-0.047470465
153	0xbd55427c	-0.052065358
154	0x3d14e102	0.036347397
155	0x3c92c2f6	0.01791523
156	0x3c96d518	0.018412158
157	0x3d8ba2d2	0.06818165
158	0xbd502b3d	-0.050822485
159	0xbd655ab0	-0.05599469
160	0xbdc1d64c	-0.09464702
161	0xbd880e31	-0.06643332
162	0xbdc249d2	-0.09486736
163	0xbcf832a2	-0.030297581
164	0x3ce5f99f	0.02807313
165	0x3d97677d	0.07392786
166	0x3d83883a	0.064224675
167	0xbdca10a8	-0.09866458
168	0x3dbf84c2	0.093514934
169	0xbcef6274	-0.02922175
170	0xbcf9ce5b	-0.030493906
171	0x3c9c898f	0.019108562
172	0x3da78cc0	0.08181143
173	0xbd00680a	-0.03134922
174	0xbd1325ec	-0.035924837
175	0x3d8926f2	0.06696881
176	0x3dcf7533	0.10129776
177	0xbc05b28f	-0.0081602475
178	0xbca72e28	-0.020407751
179	0x3db87d32	0.09008254
180	0xbdb68287	-0.08911615
181	0x3cfc6e60	0.03081435
182	0x3d9c7644	0.07639745
183	0x3cd55123	0.026039666
184	0x3cf5ee00	0.030020714
185	0xbbf0d8e0	-0.0073500723
186	0x3d78c535	0.060734946
187	0xbd5cbe48	-0.053892404
188	0x3ca40c48	0.020025387
189	0x3d7efa6b	0.062250536
190	0xbc012de9	-0.007884481
191	0x3d8920b7	0.06695693
192	0xbccb71c2	-0.024834517
193	0x3dc0f622	0.09421946
194	0xbd2a9a2f	-0.041650947
195	0x3d342d49	0.0439885
196	0xbda529b8	-0.08064598
197	0x3d8d6348	0.06903702
198	0x3d842b4e	0.06453572
199	0x3b1031e4	0.0022002393
200	0x3c8153a9	0.015786963
201	0x3d3843e1	0.04498661
202	0xbd973fa8	-0.07385188
203	0x3d574937	0.052560057
204	0x3d01b5b4	0.031667426
205	0xbd917850	-0.07103026
206	0x3d0fe21e	0.03512775
207	0xbd1b2e11	-0.03788573
208	0xbba36577	-0.004986461
209	0x3d89e755	0.06733576
210	0x3cb6d1ff	0.02231693
211	0x3ccfdcc4	0.025373824
212	0xbd8c15b7	-0.06840079
213	0xbcd576e1	-0.026057662
214	0x3d673b8f	0.056453284
215	0x3d98476f	0.074355
216	0x3d44e1f5	0.048067052
217	0xbd52bec9	-0.05145148
218	0x3cf2cd24	0.029638834
219	0xbb9c8308	-0.0047763623
220	0x3d22fbeb	0.03979103
221	0xbc4566ce	-0.012048436
222	0xbd9b62ca	-0.07587202
223	0xbdb38c95	-0.08767048
224	0x3d46f755	0.048575718
225	0xbd814abe	-0.06313084
226	0x3dbf4c34	0.093407065
227	0x3d1a1528	0.037617832
228	0xbb8eada3	-0.004354195
229	0xbdae2a17	-0.08504122
230	0xbc645e67	-0.013938523
231	0xbd49cb27	-0.049266007
232	0xbdc8422d	-0.09778247
233	0xbb87c7ad	-0.0041436763
234	0x3dab5d2a	0.08367379
235	0xbdc5ad9d	-0.09652255
236	0xbd2f2a0d	-0.042764712
237	0xbcca4dac	-0.02469524
238	0x3d4f8432	0.05066318
239	0xbdc03e58	-0.09386891
240	0xbda7bf00	-0.08190727
241	0x3da4d536	0.08048479
242	0x3c5b1b13	0.013373154
243	0x3d82a65c	0.06379387
244	0x3cc6a059	0.024246382
245	0x3c5bc95d	0.013414708
246	0xbd9d3f56	-0.07678096
247	0x3d8d73ba	0.06906839
248	0xbcbed50c	-0.023294948
249	0x3d95cc61	0.07314373
250	0x3d2eda19	0.042688463
251	0x3dbe44a1	0.09290434
252	0xbd8c8210	-0.06860745
253	0x3d9cac99	0.07650108
254	0xbdca3240	-0.09872866
255	0xbd8ba3a2	-0.0681832

fc2.bias f4 [75]
0	0xbc5fa3af	-0.013649865
1	0xbc6bf123	-0.014400753
2	0xbb03d3e6	-0.0020115315
3	0xbd62ca47	-0.055368688
4	0x3d97dbb1	0.0741495
5	0x3d96c4f3	0.07361784
6	0xbcc224a3	-0.02369911
7	0xbd98ad36	-0.07454912
8	0xbd266ee5	-0.0406331
9	0x3c9a00cb	0.018799206
10	0x3d30f881	0.04320574
11	0x3be4b991	0.006980129
12	0x3b415dd1	0.0029505382
13	0x3cfe42c6	0.0310377
14	0xbd2a91f9	-0.041643117
15	0x3da52de0	0.080653906
16	0xbd880f7b	-0.06643578
17	0xbd5826e6	-0.05277147
18	0x3d748829	0.059700165
19	0x3b8e7f4e	0.004348672
20	0xbcc283ea	-0.023744542
21	0xbaa1b31f	-0.0012336707
22	0x3da3771c	0.07981703
23	0x3dab3d76	0.08361332
24	0xbdc5e44d	-0.096626855
25	0xbda66b8e	-0.08125983
26	0x3da4bcbb	0.0804381
27	0xbdc6e23d	-0.0971112
28	0xbdb8006b	-0.08984455
29	0xbd2d1f8a	-0.042266406
30	0x3d6cc899	0.057808492
31	0x3c1bf3e8	0.009518601
32	0x3d274a09	0.04084209
33	0xbd80169d	-0.06254313
34	0x3d17c452	0.03705246
35	0xbd1edc4a	-0.038784303
36	0xbd8af28f	-0.06784546
37	0xbcf93caa	-0.030424435
38	0xbcb45f48	-0.02201809
39	0xbc3c8b70	-0.011507854
40	0x3d46aa3f	0.048502203
41	0x3bdc1197	0.006715964
42	0x3d0cf508	0.034413368
43	0xbd0690dc	-0.032852992
44	0x3dc120cc	0.09430084
45	0x3d1e6503	0.03867055
46	0x3c830c0d	0.015996957
47	0x3d608802	0.054817207
48	0xbd83c5a0	-0.06434178
49	0xbd26e23d	-0.0407431
50	0x3d0a3a69	0.03374711
51	0xbd1b2fd4	-0.03788741
52	0xbd3a2386	-0.045444034
53	0xbceeecc8	-0.02916564
54	0xbc3325f6	-0.010934344
55	0x3d733cdc	0.059384212
56	0xbd1348c8	-0.03595808
57	0xbbf582b6	-0.0074923886
58	0xbd9e8c4f	-0.077416055
59	0x3d3c28b3	0.04593725
60	0x3d5c6120	0.053803563
61	0x3d4acc4b	0.049511235
62	0xbd8e2d62	-0.0694225
63	0xbcfa8388	-0.030580297
64	0xbd580f22	-0.052748807
65	0xbc882094	-0.016617097
66	0x3bed617e	0.007244288
67	0xbdb75b8b	-0.08953007
68	0x3c9f1232	0.019417856
69	0x3cf17544	0.029474862
70	0x3cac591d	0.021038586
71	0x3b8af1eb	0.0042402647
72	0x3d8c12d0	0.06839526
73	0x3d3c8155	0.046021778
74	0xbdac6e5a	-0.084194854

fc3.weight f4 [50, 75]
0	0x3d62cdcd	0.05537205
1	0x3cdf15f0	0.02723214
2	0xbd60efce	-0.054916196
3	0x3d88a2a6	0.06671648
4	0xbc4d1d86	-0.012519246
5	0x3daa33d7	0.08310669
6	0xbd48b93e	-0.049004786
7	0xbd3b5818	-0.04573831
8	0xbd6d690e	-0.057961516
9	0x3c9d6502	0.019213203
10	0xbdd934ff	-0.10605811
11	0x3dde3a9e	0.10851024
12	0x3ddd81c6	0.10815768
13	0xbc0f6fa8	-0.008754648
14	0xbd143ead	-0.036192585
15	0xbd2d8859	-0.04236636
16	0x3db63009	0.08895881
17	0x3d5479bf	0.05187392
18	0x3c8e6fc4	0.017387278
19	0x3dd869eb	0.10567077
20	0x3d9a0ff0	0.07522571
21	0x3c3138f0	0.010816798
22	0xb9c29eb0	-0.00037120795
23	0xbd9acb4c	-0.07558307
24	0x3da1a20c	0.07892236
25	0x3d0cd464	0.03438224
26	0xbd390e44	-0.04517962
27	0x3d3c265e	0.045935027
28	0xbde83a0e	-0.11339198
29	0xbd99dec6	-0.07513194
30	0xbca25a6b	-0.019818505
31	0x3d888950	0.06666815
32	0xbc65bb8e	-0.014021767
33	0xbd6f607b	-0.05844162
34	0xbd22e0d3	-0.03976519
35	0x3dbd60d6	0.092469856
36	0xbd1457d3	-0.03621657
37	0xbbbd278e	-0.0057725376
38	0x3d363cc0	0.04449153
39	0x3db6673a	0.08906408
40	0xbd3623fe	-0.04446792
41	0x3d9a12c2	0.07523109
42	0x3db2b4f1	0.08725918
43	0x3d0fabe4	0.035076037
44	0x3d3835f2	0.04497332
45	0xbca4d005	-0.020118723
46	0x3cd631a9	0.026146727
47	0xba732b76	-0.00092761905
48	0x3d6ebbd7	0.058284607
49	0x3dc5b809	0.096542425
50	0x3d53a08d	0.051666785
51	0x3c348e1c	0.01102021
52	0xbcb69cea	-0.02229162
53	0x3d0110d0	0.031510174
54	0xbd8cd6ed	-0.06876931
55	0xbd969fd8	-0.073547065
56	0xbc2f38e7	-0.010694719
57	0x3b69563d	0.003560438
58	0x3c49b22b	0.012310545
59	0x3ccf3aa8	0.025296524
60	0xbd0f003a	-0.034912325
61	0xbd7aa17c	-0.06118916
62	0xbd9125b2	-0.07087268
63	0x3d84f5e8	0.064922154
64	0xbda1fc8e	-0.07909499
65	0xbdabd5e8	-0.08390409
66	0x3c8d7d10	0.017271549
67	0x3d45df9c	0.048308954
68	0xbab5eea5	-0.0013880326
69	0x3da3ff08	0.08007628
70	0xbc075d1a	-0.008261943
71	0xbddd8154	-0.10815683
72	0xbd400fb2	-0.04688997
73	0x3db2affe	0.08724974
74	0xbdb05d1c	-0.08611509
75	0x3db37ef4	0.08764449
76	0x3d44e9a8	0.048074394
77	0xbdc7851c	-0.097421855
78	0x3c9b3f88	0.018951192
79	0xbdce89cd	-0.10084877
80	0x3d9dcbb6	0.077048704
81	0xbdb57f60	-0.088621855
82	0xbd9b4a4e	-0.07582532
83	0x3de89374	0.113562495
84	0x3bb64c60	0.005563304
85	0x3da80ec2	0.0820594
86	0xbd2893ae	-0.041156463
87	0xbddf32db	-0.10898372
88	0xbdd5ab64	-0.10433081
89	0x3d24e9f0	0.040262163
90	0x3d06045c	0.032719
91	0x3dc9c946	0.09852843
92	0xbde7e562	-0.11323048
93	0xbd8d3550	-0.06894934
94	0xbd5b5099	-0.05354366
95	0x3d362fc8	0.04447916
96	0xbcd263cc	-0.025682352
97	0xbd920e6e	-0.071316585
98	0xbc8a4d64	-0.016882606
99	0xbd7bc525	-0.06146731
100	0xbbaf8820	-0.0053568035
101	0x3d383000	0.04496765
102	0x3d9d5322	0.07681872
103	0xbdb807d1	-0.08985866
104	0xbd9aa1f6	-0.07550423
105	0x3de3d564	0.111246854
106	0x3dbbb36c	0.091650814
107	0x3d559fc8	0.052154332
108	0xbd348a42	-0.044077165
109	0xbdbc4706	-0.09193234
110	0x3dec1506	0.115274474
111	0xbd16e3e8	-0.036838442
112	0x3d863d68	0.06554681
113	0xbdba1775	-0.09086505
114	0xbd97a315	-0.07404152
115	0xbdb1c4fa	-0.086801484
116	0x3d7b49b8	0.0613496
117	0x3d9556d4	0.07291952
118	0xbd9fdd49	-0.07805879
119	0x3d11c360	0.035586715
120	0xbdc869ef	-0.0978583
121	0x3d55ecbc	0.05222772
122	0xbb442a20	-0.0029932335
123	0x3d77eb8c	0.06052737
124	0x3d67d6b8	0.056601256
125	0xbddedbef	-0.10881793
126	0x3de84396	0.11341016
127	0x3dc42ae0	0.0957849
128	0xbdbc0e52	-0.09182419
129	0xbd11a8ee	-0.035561495
130	0x3d5b8d70	0.053601682
131	0x3d6df788	0.058097392
132	0xbce66b4c	-0.028127335
133	0xbdeb4af8	-0.114889085
134	0x3d90b63c	0.070660084
135	0x3dd5c68e	0.10438262
136	0x3d411af8	0.04714486
137	0xbdb44b1c	-0.088033885
138	0x3cd085d0	0.025454432
139	0xba91d780	-0.0011126846
140	0xbd0ecf44	-0.034865633
141	0xbd7b25f5	-0.061315496
142	0x3a5bd680	0.000838615
143	0xbdd938e2	-0.10606553
144	0x3d07eb38	0.033183306
145	0xbd5a89e4	-0.05335416
146	0xbd92c483	-0.07166388
147	0xbde4c936	-0.111711904
148	0xbddabe70	-0.10680854
149	0x3d5fbcac	0.05462329
150	0x3da0fb6a	0.078604534
151	0xbce05d2c	-0.027388178
152	0x3d56dc44	0.052456155
153	0x3cfeab30	0.031087488
154	0x3dbfbdb8	0.09362358
155	0xbda038a1	-0.07823301
156	0xbc94a17c	-0.018143408
157	0xbcc48294	-0.023988046
158	0xbd678934	-0.05652733
159	0x3db04520	0.086069345
160	0xbda73d84	-0.0816603
161	0xbd2d7748	-0.042350084
162	0x3dc527dc	0.09626743
163	0xbdac97f7	-0.084274225
164	0xbb013720	-0.0019716695
165	0x3da3b8fa	0.07994266
166	0x3de64514	0.11243644
167	0xbbc89570	-0.00612133
168	0x3d97d6ae	0.07413994
169	0xbd8a5906	-0.06755261
170	0xbda7825e	-0.081791624
171	0xbcc3f398	-0.023919865
172	0x3dc5cdaa	0.09658368
173	0x3de1e4fa	0.11030002
174	0x3d2921b0	0.041291893
175	0xbdb97af9	-0.09056658
176	0x3dc9f5a2	0.09861304
177	0xbc964240	-0.018342137
178	0x3d48a00c	0.048980758
179	0x3cf9ad18	0.030478045
180	0xbc131090	-0.008976117
181	0xbc45c750	-0.012071446
182	0x3ceb6400	0.028734207
183	0x3bdd2610	0.006748922
184	0xbb957310	-0.0045608357
185	0xbc830aac	-0.0159963
186	0xbdeaeeb7	-0.114713125
187	0x3b2f7020	0.0026769713
188	0x3d83d9e2	0.06438042
189	0xbd3b320c	-0.045702025
190	0x3d9bdcaa	0.07610448
191	0xbdc47bff	-0.09593963
192	0xbcf70fcc	-0.0301589
193	0x3dae2e20	0.085048914
194	0xbdbc57b0	-0.091964126
195	0xbc9c4f1c	-0.019080691
196	0xbdce0414	-0.100593716
197	0xbd0eca0e	-0.034860663
198	0xbd77ebae	-0.060527496
199	0x3dc1bdae	0.09460007
200	0xbc8fcac0	-0.017552733
201	0x3ddb2870	0.10701072
202	0xbde4bca5	-0.111687936
203	0xbda863b3	-0.08222141
204	0xbcae7f58	-0.021300957
205	0xbd76eec9	-0.060286317
206	0xbd7ca039	-0.061676238
207	0x3da3d014	0.07998672
208	0xbdc5d196	-0.09659116
209	0xbd318804	-0.043342605
210	0x3d7057f4	0.05867763
211	0xbd36de0a	-0.044645347
212	0x3d487ebc	0.04894899
213	0xbca41f14	-0.02003435
214	0xbbef85b0	-0.007309638
215	0x3dd2b6ae	0.1028875
216	0x3ddc2a46	0.107502505
217	0x3dc25e5e	0.09490655
218	0xbd8987ac	-0.067153305
219	0x3d36aa90	0.044596255
220	0x3cba9cf8	0.022779927
221	0xbde33739	-0.11094517
222	0x3de3cd2c	0.11123118
223	0xbdcc98f5	-0.09990112
224	0x3d175968	0.0369505
225	0xbd7cba35	-0.06170102
226	0xbd08a5a0	-0.033361077
227	0x3dc17295	0.09445683
228	0xbd540d36	-0.05177041
229	0xbde2b387	-0.110693984
230	0x3da3f5d1	0.0800587
231	0x3d64ecc4	0.05588986
232	0x3cfae2b0	0.030625671
233	0x3d40961e	0.047018163
234	0xbc2c2d3e	-0.010508833
235	0xbdf5ddeb	-0.12005218
236	0x3c9c009e	0.019043263
237	0xbdde55a1	-0.10856176
238	0x3d8dfe62	0.06933285
239	0x3db3f1a3	0.08786323
240	0xbdc627c2	-0.09675552
241	0xbc99e401	-0.018785479
242	0x3d9a10c7	0.07522731
243	0x3da0579b	0.078292094
244	0xbdceccaa	-0.1009763
245	0xbdc1ef69	-0.09469492
246	0xbd7facb3	-0.06242056
247	0x3d808eaa	0.06277211
248	0xbdaaa75f	-0.08332705
249	0x3d0a406c	0.033752844
250	0xbdbc05d8	-0.09180802
251	0xbc342a82	-0.010996463
252	0xbc9910a9	-0.018684702
253	0x3d0ed377	0.034869637
254	0xbdb77121	-0.089571245
255	0x3cf4227c	0.0298016

fc3.bias f4 [50]
0	0x3da2b013	0.0794374
1	0xbde9adf0	-0.11410129
2	0xbdc9dfe8	-0.0985716
3	0x3dbf7098	0.093476474
4	0xbdab36d0	-0.08360064
5	0xbd7409f6	-0.059579812
6	0xbd7d3de2	-0.061826594
7	0x3d8ba941	0.06819392
8	0x3dab7849	0.08372552
9	0xbd9256c2	-0.07145454
10	0xbd2ce034	-0.042206004
11	0xbb964239	-0.004585531
12	0xbd0b96a2	-0.0340792
13	0xbbcb1057	-0.006197016
14	0x3d935645	0.07194189
15	0xbd201397	-0.039081182
16	0xbdc87367	-0.09787636
17	0x3cba0fcc	0.02271261
18	0xbdabab72	-0.0838231
19	0x3d8e173d	0.06938026
20	0xbcfb6004	-0.030685432
21	0xbd8b3f6a	-0.06799205
22	0x3d751ff8	0.05984494
23	0x3c24a490	0.010049
24	0xbd838c0a	-0.06423195
25	0x3dd33671	0.10313118
26	0x3dbfe345	0.0936952
27	0x3d9c3a8d	0.07628355
28	0x3d191733	0.03737564
29	0x3d686db3	0.056745242
30	0x3cb8ef2a	0.02257498
31	0x3dd2b444	0.10288289
32	0x3c48351f	0.012219696
33	0xbc063390	-0.008191004
34	0x3d95aff9	0.07308955
35	0x3d5c5163	0.053788554
36	0x3dd17536	0.10227434
37	0x3cb98fdf	0.02265161
38	0x3de6fdaa	0.11278851
39	0xbcec3d08	-0.028837696
40	0xbdb1fcc6	-0.08690791
41	0xbddcf74e	-0.10789357
42	0xbd577dc6	-0.05261018
43	0xbc948b08	-0.018132702
44	0x3d9528b7	0.07283156
45	0xbaf6e851	-0.0018837546
46	0x3c1873af	0.009304925
47	0xbdec2ddf	-0.11532187
48	0x3d34c666	0.04413452
49	0x3cc5a578	0.024126753

out.weight f4 [3, 50]
0	0x3cc9a8be	0.024616595
1	0xbdb012fe	-0.085973725
2	0xbd99bcb5	-0.07506696
3	0xbd94ce30	-0.0726589
4	0xbd29f50a	-0.041493453
5	0x3d96be78	0.07360548
6	0xbd16742a	-0.036731876
7	0x3deb010a	0.114748076
8	0xbcf0b973	-0.029385304
9	0xbd228fba	-0.03968785
10	0x3c2a7f60	0.010406345
11	0xbd99ace7	-0.07503682
12	0xbce421e4	-0.027848192
13	0x3d97d3b7	0.07413428
14	0xbd81f7a4	-0.06346062
15	0xbe070a95	-0.1318763
16	0x3cbc2db0	0.022971004
17	0x3ddd0421	0.10791803
18	0x3d72be44	0.059263483
19	0x3d85133e	0.06497811
20	0xbc185730	-0.009298131
21	0xbd696c40	-0.056988
22	0x3d7ef0dc	0.06224142
23	0xbd64e237	-0.055879798
24	0x3dfa009b	0.12207147
25	0xbce28c9d	-0.02765494
26	0x3d9461c0	0.07245207
27	0xbc891582	-0.016733889
28	0x3cdcbaf4	0.026944615
29	0x3d134fd0	0.035964787
30	0x3de969a6	0.11397104
31	0x3c517be2	0.012785884
32	0x3cae796a	0.02129813
33	0x3c8c318a	0.017113466
34	0x3d43853b	0.04773448
35	0x3dc4c0d4	0.096070915
36	0xbdf5f9fe	-0.12010573
37	0x3d8e1f9a	0.06939621
38	0xbc53f0f5	-0.012935867
39	0xbdf4e70f	-0.119581334
40	0xbe049c01	-0.12950136
41	0x3cbc1770	0.022960395
42	0x3d875b9e	0.066092715
43	0xbdfc4d6f	-0.12319457
44	0xbddf41dc	-0.109012336
45	0x3d999d0a	0.07500656
46	0x3cd9596d	0.0265319
47	0xbe06fdd1	-0.13182761
48	0xbc734ee8	-0.014850356
49	0x3da8ede0	0.08248496
50	0xbe17e0b5	-0.14831813
51	0x3e10c14b	0.14136235
52	0xbb2ae600	-0.0026077032
53	0xbe189f68	-0.14904559
54	0xbd3cbc80	-0.046078205
55	0xbda6cf00	-0.08144951
56	0xbdb5c684	-0.088757545
57	0xbcc9301f	-0.024559079
58	0xbe103304	-0.14081961
59	0x3df681e2	0.12036492
60	0xbd3aad6c	-0.045575544
61	0xbc61e94c	-0.0137885325
62	0x3e038af7	0.1284598
63	0x3ded2c2c	0.11580691
64	0x3dda2bcd	0.106528856
65	0xbccb0b12	-0.024785552
66	0x3cb67868	0.022274211
67	0xbd920136	-0.07129137
68	0xbd3f5d4c	-0.046719834
69	0x3e0fc446	0.14039716
70	0x3d1cb3d2	0.038257428
71	0xbd100d40	-0.035168886
72	0x3db602a3	0.08887222
73	0xbdaac298	-0.08337897
74	0x3e0917fc	0.13388056
75	0xbddbab72	-0.1072606
76	0x3ca523af	0.020158617
77	0x3e08e69c	0.1336922
78	0xbc53fb56	-0.012938341
79	0xbdc75182	-0.09732343
80	0xbdedfd87	-0.11620622
81	0x3d42aef4	0.04753013
82	0xbd063163	-0.032761943
83	0xbde92aad	-0.11385093
84	0xbdf019bb	-0.11723658
85	0xbdbe87c6	-0.093032405
86	0xbe037a84	-0.12839705
87	0xbe0b9fed	-0.13635226
88	0x3dc7a47b	0.09748169
89	0x3e03eb15	0.12882645
90	0x3d06151c	0.032734975
91	0x3d8726d0	0.065992
92	0x3e0cbb7b	0.13743393
93	0x3e2252b8	0.15851867
94	0x3e0f9e83	0.14025311
95	0xbd2e9799	-0.042625044
96	0xbcb20f09	-0.021735685
97	0x3dbe09b6	0.09279196
98	0xbb8643ca	-0.0040974366
99	0x3c1bbce0	0.0095054805
100	0xbc44b620	-0.012006313
101	0x3d435f98	0.047698587
102	0x3de4ff06	0.11181454
103	0x3da0444c	0.078255266
104	0x3d0adc74	0.033901647
105	0xbdfd2139	-0.12359852
106	0xbdb85178	-0.08999914
107	0xbddddd86	-0.10833268
108	0x3d4493a8	0.04799238
109	0xbdb7121a	-0.089389995
110	0x3bc20800	0.005921364
111	0xbdcc6396	-0.09979932
112	0xbdb323d6	-0.087470695
113	0xbe102dfd	-0.14080043
114	0xbdf53945	-0.11973814
115	0x3c1a46d0	0.009416297
116	0x3b9725c0	0.0046126544
117	0xbddeb623	-0.108745836
118	0x3e101543	0.1407061
119	0x3c315780	0.010824084
120	0x3dc9f016	0.09860246
121	0xbca23660	-0.019801319
122	0xbc8860a8	-0.016647652
123	0xbcf8d520	-0.030375063
124	0xbd36a402	-0.044590004
125	0xbe02d82b	-0.12777774
126	0x3dfcc626	0.12342481
127	0xbe025b2a	-0.12730089
128	0x3d45aa64	0.0482582
129	0x3d8a11c4	0.0674167
130	0xbdc69edc	-0.09698269
131	0x3ded8cfe	0.11599158
132	0xbd350e8e	-0.044203334
133	0x3dc9d040	0.09854174
134	0x3dc2eecc	0.09518203
135	0x3e081779	0.13290204
136	0x3d6f0b7c	0.05836056
137	0x3d50a090	0.050934374
138	0x3db4c588	0.088267386
139	0x3e0af593	0.13570242
140	0x3d963ce2	0.07335831
141	0xbc2f9c00	-0.010718346
142	0xbd16f08a	-0.03685049
143	0x3dde9782	0.108687416
144	0xbd2be714	-0.04196842
145	0xbde0d33e	-0.10977791
146	0xbce214a0	-0.027597725
147	0xbd11411a	-0.035462476
148	0xbdbb37da	-0.09141512
149	0xbd9e6300	-0.077337265

out.bias f4 [3]
0	0xbda9fca8	-0.083001435
1	0xbc36d49c	-0.011159088
2	0xbdc5b33c	-0.09653327
