models/29c25c4fc7d4539733f909dfd8b7b809.pt (torch_old, 624 bytes, 2 tensors)

out.weight f4 [3, 5]
-0.41112745 -0.3950954 -0.3090795 -0.09029451 0.30239093 0.093686864 0.05185734 0.5990732
-0.3310298 0.27172238 0.17747384 -0.18518227 0.36863446 0.42099398 0.22251582
00000000: 4c7f d2be f249 cabe ab3f 9ebe 54ec b8bd
00000010: fcd2 9a3e e6de bf3d 5d68 543d dc5c 193f
00000020: bd7c a9be 321f 8b3e b4bb 353e 6ca0 3dbe
00000030: a8bd bc3e 868c d73e 30db 633e

out.bias f4 [3]
-0.08249742 0.97926897 -0.36007345
00000000: 68f4 a8bd 5fb1 7a3f 8c5b b8be
