models/2ed13d680189502557f81cfa8c7ee812.pt (torch_old, 63801 bytes, 8 tensors)

fc1.weight f4 [100, 39]
000000 74 9c e2 bd 0f a1 df bc 1b 98 31 3d 9b 8a c4 bd
       -0.11064997 -0.027298478 0.04335795 -0.095967494
000010 85 3c 29 3e ea 10 21 be 58 3e 37 bd f2 0e 9d 3c
       0.16526993 -0.15729108 -0.04473719 0.019172166
000020 e2 f4 02 3d ba 1a f0 3d fa 44 0e be 7d ea 06 be
       0.03197182 0.11723848 -0.138935 -0.13175388
000030 2e fc 96 3d ac 2c 42 3d 18 60 6e bc 66 3e 23 3e
       0.07372318 0.047405884 -0.014549278 0.15941772
000040 08 95 84 3c 34 01 73 bd 4e ad f2 bd cc 4c c1 3d
       0.016184345 -0.05932732 -0.118494615 0.09438476
000050 8d ac 6d 3d d9 f6 83 3b 8d 58 8a 3d 3f c4 f7 3d
       0.058025885 0.0040272293 0.06755171 0.12097978
000060 48 77 96 bd 3a c9 f2 3d 62 df a2 bd 83 59 fb bd
       -0.0734697 0.11854787 -0.07952763 -0.122729324
000070 93 7a 42 3e 30 98 ea 3d a1 f4 33 3e 00 92 99 ba
       0.18992071 0.11454809 0.17573787 -0.0011716485
000080 fc c0 5f 3d 01 2f 1b 3e 7e 75 24 3e bc 56 21 be
       0.054627404 0.1515465 0.16060445 -0.15755743
000090 44 62 d6 bd b9 38 2b be 56 b6 ad 3d d0 ad 02 bc
       -0.104679614 -0.16720857 0.084820434 -0.00797601
0000a0 50 da bb bd 34 7f fd bd cc 11 f4 3d 09 1d b4 3d
       -0.09172499 -0.12377778 0.11917457 0.087946005
0000b0 d0 a7 ab bc 28 4a b1 3c 4d 4b 5a 3b 53 0c 89 3c
       -0.020954043 0.021641806 0.0033309043 0.01672951
0000c0 e2 0a 2e 3e a8 3c 84 3d 2d 81 15 3e 21 1e 8d bd
       0.16996339 0.06456882 0.14600058 -0.06890512
0000d0 0e b7 00 3d f8 2d aa 3c 94 75 ae 3d 78 f9 0a bd
       0.031424575 0.020773873 0.0851852 -0.03392932
0000e0 01 75 8d bc 50 00 eb bc 3a b9 16 3e 45 4a b3 3d
       -0.017267706 -0.028686672 0.14719096 0.087544
0000f0 b1 99 fc bd 85 aa d3 bd b2 93 ea bd 42 6f b0 bd
       -0.12334002 -0.103352584 -0.11453952 -0.08614971
000100 78 2b 83 3d 4c 95 69 3d b9 3a 02 3e b7 ce 48 3d
       0.064047754 0.057027146 0.12717713 0.049025264
000110 f9 6f 1d be 0c 98 0e bc 18 87 0a bd 90 2b cf 3c
       -0.15374745 -0.008703243 -0.03382024 0.025289327
000120 8c 4f 00 3e 21 10 82 bc bc e2 d7 3d bf d7 41 bd
       0.12530345 -0.015876831 0.10541293 -0.047324892
000130 3c b8 1e be 4c 3d 80 3d 4b db 16 be ae 8b c4 bd
       -0.15499967 0.062616915 -0.14732091 -0.09596954
000140 54 d7 dc 3d 64 5c f8 3d 5a 5d 10 be 4a e2 06 3e
       0.10783258 0.12126997 -0.14098111 0.1317226
000150 00 e2 bb bd ec 03 88 3d 19 bb 1d be bc 0e d9 bd
       -0.091739655 0.06641373 -0.15403403 -0.105985135
000160 45 73 98 3d 97 0a 3b bd 28 8b af 3c c2 da bc 3d
       0.07443861 -0.045664396 0.02142866 0.09221412
000170 9a 01 5b bd 44 d2 f6 bc 4e 0a 82 3d 09 51 3a bd
       -0.053468324 -0.03012956 0.06349622 -0.045487437
000180 f0 8f 26 3c 5c cc 6a 3d 53 04 81 bd f8 a9 39 3d
       0.010166153 0.0573238 -0.06299653 0.04532811
000190 6c 89 01 bd 1c 9d 62 3d 99 c1 8d bc 5e 4a f9 3c
       -0.031625196 0.055325612 -0.017304229 0.030430969
0001a0 2b db 1a 3e b0 21 96 3d 0f fd 9e bd 2f ce c3 bd
       0.15122668 0.07330644 -0.07763111 -0.09560811
0001b0 e4 bc ae 3c 94 fb dc 3d 86 07 30 bd 9f 46 23 3d
       0.021330304 0.10790172 -0.042975925 0.03986227
0001c0 2d 3b ca bd 6a 44 e2 3d 94 53 1f 3e 1e 82 c8 bd
       -0.09874568 0.11048205 0.15559226 -0.09790443
0001d0 bc e2 9a bd 65 0a 2c bd f3 c3 6f 3d 70 45 b7 3b
       -0.075627774 -0.0420021 0.05853648 0.0055929944
0001e0 0a 49 d6 bd cc 87 63 3d 48 2c 08 3d b9 3a 0d be
       -0.1046315 0.055549428 0.033245355 -0.13791932
0001f0 e4 ec e2 bd 71 45 ef 3d 22 87 d5 bd 07 7b c4 bd
       -0.110803396 0.11683167 -0.10426165 -0.09593778
000200 d3 f9 07 3e 26 99 ae bd b1 f8 03 3d 57 4f 24 be
       0.13278894 -0.085253045 0.032219592 -0.16045891
000210 d1 1f e9 bc 70 e3 0a 3e 65 fb 12 be 9a f0 17 be
       -0.028457554 0.13563323 -0.14353712 -0.14837876
000220 21 20 9f bd 39 be 0a be d0 77 2e 3d da d1 66 3c
       -0.077698 -0.13549127 0.04259473 0.014088118
000230 f1 eb 30 3d 68 c4 22 bd 54 22 e1 3c 29 e8 15 3c
       0.04319376 -0.03973809 0.02748219 0.00914959
000240 0d 35 16 be 9e c9 e2 3d fe e4 4f bd 24 13 ea 3d
       -0.14668675 0.11073612 -0.050755493 0.11429432
000250 0c bd 7a 3d 84 b2 8e 3d bd 4f 9d 3d 39 60 84 ba
       0.061215445 0.06967643 0.076812245 -0.0010099477
000260 34 23 17 3e 23 ca c0 3d e8 71 fe bb 30 93 58 3d
       0.14759523 0.094135545 -0.0077650435 0.052874744
000270 d0 44 82 3c ee 8b 1c 3e d4 eb e0 bd 7e 2f dd bd
       0.015901953 0.15287754 -0.10982481 -0.10800074
000280 62 b1 01 3e 80 06 96 ba 40 a7 19 be aa 79 1c bb
       0.12665322 -0.0011446029 -0.15005207 -0.0023876228
000290 cd af bc bd 77 47 8c bd 93 c2 15 3d f1 86 8b 3c
       -0.09213219 -0.06849568 0.036562514 0.017032119
0002a0 75 88 b5 bd aa b2 ab bc f4 86 94 bd 0b 76 e6 bd
       -0.08863918 -0.020959217 -0.07252303 -0.11252984
0002b0 bc 7c fd bd ec f8 58 3d e0 67 b1 bb 29 b5 23 be
       -0.12377307 0.052971765 -0.005413994 -0.15987076
0002c0 b4 ba 12 3d 60 f3 98 bd 86 fb bb 3d 26 f8 d8 bd
       0.035822585 -0.07468295 0.09178834 -0.105942056
0002d0 0f 0b fb 3b ed 00 e1 3d 5d 56 2c be df 43 fc bd
       0.0076612304 0.10986505 -0.1682982 -0.12317633
0002e0 f9 ff 31 be 33 68 15 be a3 31 02 3e e0 47 90 3c
       -0.17382802 -0.1459053 0.12714247 0.017612398
0002f0 58 ab 70 3d 54 a4 86 3b b0 d4 07 3d 6a b9 b3 3d
       0.058757156 0.004108945 0.03316182 0.08775599
000300 ef 31 8c bd 29 30 ff bd 34 7a 44 3e 40 46 29 bd
       -0.068454616 -0.12460358 0.19187242 -0.04132676
000310 cb 72 bc bd ec 51 02 3e a0 2a d6 bb e1 81 a2 3c
       -0.092015825 0.12726563 -0.006535843 0.019837322
000320 64 d4 e1 3d 6a 93 fc bd 7e 09 8e bd 83 67 df bd
       0.110268384 -0.123328045 -0.06935404 -0.10908415
000330 ae 9b 49 3d 91 fb e9 bd a3 22 1d bc 82 a8 29 be
       0.049220733 -0.114249356 -0.009590778 -0.16568187
000340 16 1c 16 3c e2 a2 a4 bc 4e 7d 8d bc 90 54 ff 3d
       0.00916197 -0.0200972 -0.017271664 0.12467301
000350 8a b5 82 bc e0 52 14 bc 70 17 e0 3d 5d e6 d3 3d
       -0.015955705 -0.009052962 0.1094197 0.10346673
000360 31 52 06 3b 62 93 36 3d 6a 2d 7b 3d e0 95 df bb
       0.0020495767 0.04457415 0.061322607 -0.0068232864
000370 73 52 bd 3d a3 3a 41 be d0 75 db 3d 89 99 b0 3d
       0.092442416 -0.18870024 0.1071583 0.086230345
000380 95 22 01 be 28 a7 16 bd d2 ac 1f 3e c0 81 56 bb
       -0.12610848 -0.036780506 0.1559327 -0.0032731146
000390 5a f6 49 3d 07 7f 25 bd 4a 91 68 3d 7d 76 0c 3e
       0.049307205 -0.040404346 0.056779183 0.13717075
0003a0 f7 31 bc bc d2 80 e3 3d 46 02 be bc 29 0c 14 3e
       -0.022973044 0.11108555 -0.023194443 0.14457764
0003b0 d1 5a b2 bd c2 1f 90 bd fc 4d aa 3d a0 da 88 3c
       -0.08708728 -0.07037307 0.083156556 0.016705811
0003c0 28 8f ac bc b5 71 6f 3d 48 0b 52 bd 5e bc 0a be
       -0.021064356 0.05845805 -0.05128029 -0.13548419
0003d0 81 d1 ef 3d 01 8a 20 3e fa 0a 40 be 42 ff f8 3d
       0.117098816 0.15677644 -0.18754187 0.121580616
0003e0 46 58 93 3d fc 19 96 3d 20 c1 8a bd 42 09 7f bd
       0.07194571 0.07329175 -0.06775117 -0.06226469
0003f0 82 d9 0c 3e a0 10 d4 bb cf d8 3b 3b f0 43 db bd
       0.13754848 -0.0064717084 0.0028663164 -0.107063174

fc1.bias f4 [100]
000000 e0 9a 56 bd 7b ef e8 bd 2e a3 7c bd bc ed 94 3d
       -0.052393794 -0.11373802 -0.061679058 0.07271907
000010 54 d9 b0 bc 5d 99 a7 bc e7 03 0e 3e 38 e4 f1 3d
       -0.021588005 -0.020458871 0.13868676 0.118111074
000020 1f 04 09 be dc e5 34 3d cd 66 c9 bd 9a 9b a9 bb
       -0.13380478 0.044164523 -0.09834061 -0.00517602
000030 07 e3 d7 3d f0 cc e4 bd 32 5b ab 3d 90 02 be bd
       0.10541349 -0.11171901 0.083670035 -0.092778325
000040 22 2d 1b be fb 7f 63 bd 4c 5a 5d bd 7d 42 d1 bd
       -0.15153936 -0.055541974 -0.054041192 -0.1021776
000050 d6 01 23 be c1 87 5c 3d c8 aa 70 bd 5e 4c 07 bd
       -0.15918669 0.053840403 -0.05875662 -0.033031814
000060 61 08 e7 bd 1d 30 63 3d 4e 73 d5 3d 59 e2 d4 bd
       -0.11280895 0.055465806 0.10422383 -0.10394735
000070 4c e6 53 3b b9 90 71 3a a1 06 c8 ba 95 29 f3 bd
       0.0032333313 0.0009214986 -0.0015260765 -0.118731655
000080 a0 a4 00 3e c2 47 d0 bc 94 ec 94 3d bc 43 19 3e
       0.125628 -0.025424842 0.07271686 0.14967245
000090 a6 8b 87 3d 91 61 2f 3d 2c ce 37 bd 79 4e ec bd
       0.06618433 0.042817656 -0.044874355 -0.11538405
0000a0 7f cc 94 3d 5c 5b 12 be 03 19 19 3d 86 86 03 3e
       0.07265567 -0.14292663 0.03737737 0.12844285
0000b0 eb 87 ae bd 89 17 19 bd c0 df b2 3d db b0 07 be
       -0.08522018 -0.03737596 0.08734083 -0.13251059
0000c0 71 64 0b be ed 83 bf 3d d0 7c f6 bd f4 42 a5 3d
       -0.13612534 0.09351335 -0.12035525 0.08069411
0000d0 57 4c f7 bd f3 87 b1 bd 21 21 f0 3d e7 2b b8 3d
       -0.120751075 -0.086685084 0.11725069 0.08992749
0000e0 d5 09 dd 3d f3 62 c3 3d 9d a1 d4 3d 23 ad 89 3c
       0.10792891 0.095403574 0.10382388 0.01680619
0000f0 51 79 c3 bd 65 ba 9c 3d 89 6f 1e bc 4f 77 d8 3d
       -0.09544624 0.076527394 -0.009670147 0.10569631
000100 77 7a 0c be 1f ff cc 3d bf 37 5b bb 26 3d 6d 3d
       -0.13718592 0.10009598 -0.0033449975 0.057919644
000110 d4 d6 58 3d b8 91 24 3e e7 ed 77 3d 19 e9 ff 3c
       0.05293925 0.16071212 0.060529616 0.03123908
000120 f1 9f f1 3c fe e4 0c be ee 7c b7 bd 85 b0 f9 3d
       0.029495211 -0.13759229 -0.08959375 0.121918716
000130 1a 93 05 be 3e 02 9e 3d 26 ad 16 3d 5d f7 3d 3d
       -0.13044396 0.077152714 0.03678622 0.046378482
000140 5d 16 e2 3d 67 3e 18 bc 02 9c 62 3d 72 75 fb 3d
       0.11039422 -0.009292222 0.055324562 0.1227826
000150 cf fa df 3d d4 04 0c 3a b9 35 2c bb 29 bd 97 3d
       0.1093651 0.00053412956 -0.0026277138 0.07409126
000160 28 d6 bb 3d 33 2d a4 3d b3 b0 b8 3c 99 05 02 3e
       0.091717064 0.080164336 0.022545194 0.12697448
000170 c9 05 b4 ba 63 a0 0d 3e 8e 88 e5 3d ca f8 ea 3d
       -0.0013734634 0.13830714 0.11207686 0.11473234
000180 9a 76 0b be 8a c7 22 be 81 fc c8 bd 8c a6 bb 3d
       -0.13619462 -0.1589643 -0.09813786 0.09162626

fc2.weight f4 [75, 100]
000000 e2 28 6e bd 1f d1 9e bd 40 a4 8d bd 37 5f 06 bd
       -0.058144458 -0.077547304 -0.06916094 -0.032805648
000010 f8 39 0f bd 13 3a 70 3d a0 d7 d8 3c 0d 20 c9 3b
       -0.034967393 0.058649134 0.026470006 0.006137854
000020 06 9e ba bd aa 44 8d bc 2f 98 60 3d d3 73 48 3d
       -0.09112172 -0.017244656 0.054832634 0.048938584
000030 d2 85 ff 3c be 4c e6 3c 70 e3 72 bd 53 7a 5a bd
       0.03119174 0.028112765 -0.059298933 -0.053339314
000040 b2 b6 5c bc b4 92 1e 3d 07 eb 15 bd dc 97 7b bc
       -0.013471292 0.038714126 -0.036601093 -0.01535603
000050 74 fd 95 3d 19 d6 51 bd 59 50 b9 bd 91 70 bc bd
       0.07323733 -0.05122957 -0.09048528 -0.09201158
000060 fb c2 9b 3c c4 a2 bc 3c 81 dc b9 bd a4 12 9b bd
       0.019013872 0.023026831 -0.09075261 -0.07571915
000070 b8 68 31 bd 20 42 34 3d 23 dc c0 bd 3b 1c f6 3c
       -0.04331276 0.044008374 -0.09416988 0.030042758
000080 fe 9c 78 3d 36 a9 f1 bb 47 91 55 3c e8 0e 3d 3d
       0.060696594 -0.007374908 0.013035125 0.046156794
000090 26 2e 8f 3b 72 fc 16 bd b9 81 10 bd 04 d0 5c bd
       0.004369515 -0.036861844 -0.035279963 -0.053909317
0000a0 60 d3 c0 bd a3 2d ae 3d 20 ed a6 3c 96 f9 38 3d
       -0.094153166 0.08504798 0.020376742 0.0451599
0000b0 4d 93 7c 3c e9 be 12 bc 68 a7 93 3d 2f cb 12 3c
       0.015415979 -0.008956649 0.072096646 0.008959576
0000c0 33 30 a4 bd 30 b0 16 bd 8b 74 13 3d 93 a2 84 3d
       -0.08017006 -0.03678912 0.035999816 0.06476321
0000d0 01 55 c3 3d e5 af 37 bd 7a a0 94 bd 24 ef 6e bd
       0.095376976 -0.04484548 -0.07257171 -0.05833353
0000e0 fc b3 90 bd 3a 6c 61 bd 95 9f 4d 3c c7 11 71 bd
       -0.07065579 -0.055034854 0.012550254 -0.058854844
0000f0 18 31 19 3d 7f 31 8c 3d 34 e7 c2 3d 9b bc e3 bd
       0.037400335 0.06845378 0.09516755 -0.11119958
000100 13 7e 0f bd 76 13 98 bc 27 bd eb bc e4 4d 37 3b
       -0.035032343 -0.018563967 -0.028776718 0.002797001
000110 7b b3 09 bc be 6d c4 3c f2 22 c9 bd 48 0d 76 3d
       -0.008404608 0.02397811 -0.098211184 0.06007126
000120 42 e3 2d bd d8 c6 c4 3d 30 c8 b6 bc a9 89 1e bc
       -0.042453058 0.09608239 -0.022312254 -0.009676375
000130 49 c1 7d 3d b6 6f 7f bd 37 19 b6 3d a3 e8 75 bd
       0.06195191 -0.062362395 0.08891528 -0.060036313
000140 62 d2 a6 3c 90 a3 16 3d fe 9b b6 3b 19 d1 df bc
       0.02036399 0.03677708 0.005572795 -0.027321385
000150 3a 4d cc bd 0f 6d 70 3d 22 47 18 3d 58 19 90 3d
       -0.09975667 0.058697756 0.037177213 0.07036084
000160 46 f3 d4 3b 80 d4 ad 3c 3c d2 63 3d 02 b1 c0 3c
       0.006498727 0.021219492 0.055620417 0.023521904
000170 d1 88 96 3d 23 0d 3d bb bc 2a 73 bb 7b b6 c0 bc
       0.073503144 -0.0028846941 -0.003710433 -0.023524513
000180 82 04 93 3d a8 3d 37 bd 74 11 61 3d 3b 49 4d bd
       0.07178594 -0.044736534 0.054948285 -0.050118666
000190 63 58 3c bd ec c9 9b 3d 60 01 6c 3d ec 9b 18 bd
       -0.04598273 0.07606873 0.0576185 -0.037258074
0001a0 8c b9 e5 3d 6e d6 80 3d fa e7 da bc 16 22 cc 3c
       0.11217031 0.06290899 -0.026721943 0.024918597
0001b0 b1 f4 91 bd 1f c8 1d bc 54 9f 95 bc 92 67 0f bd
       -0.07126749 -0.009630232 -0.01826445 -0.03501088
0001c0 98 75 a2 3d 51 40 9d bd af c8 8b 3d 6e af db bd
       0.079325855 -0.07678283 0.06825387 -0.1072682
0001d0 e2 8f be bc a0 b2 02 bd 8b 13 83 bd b2 7b 38 bb
       -0.023261968 -0.03190863 -0.06400212 -0.00281499
0001e0 15 d9 00 bc 10 1e 4c bd 77 d8 42 bd 28 e7 85 bd
       -0.007864256 -0.049833357 -0.04756972 -0.0653823
0001f0 1c 86 66 3d cd 89 6f 3b 15 11 ca 3d b4 35 75 bd
       0.05628024 0.0036550642 0.098665394 -0.05986567
000200 99 bc 97 3d 82 48 f0 bd aa dc a3 bd 74 57 f2 3b
       0.07409019 -0.1173258 -0.08001073 0.007395679
000210 de 4a 04 bb 53 b8 55 bd 69 dd 4c bc 1a 8a 95 bd
       -0.0020186226 -0.05217774 -0.01250396 -0.073017314
000220 b1 6c 94 3d 5c e1 52 3c 3d c9 2c bd 7f d3 d6 bc
       0.07247294 0.012871113 -0.042184103 -0.026223896
000230 32 97 e4 bc 5c d5 24 3d 1c ea a4 3d b2 e7 ec 3d
       -0.027904127 0.040242538 0.08052465 0.1156763
000240 87 f9 9f bc e1 a5 0d bd 11 e5 b6 3c bb ca 2d bd
       -0.019528164 -0.034582023 0.022326024 -0.042429667
000250 c9 58 d6 bc 86 c0 78 3d 32 17 03 be 51 2d a7 3c
       -0.026165383 0.06073048 -0.12801817 0.02040735
000260 cc 09 86 bd 24 79 9d 3d 50 88 ae 3d e9 0c 30 bd
       -0.06544837 0.07689121 0.08522093 -0.042981062
000270 f5 4c 0b 3e 2a a7 71 3d 75 88 03 bd 62 8a 75 3d
       0.13603576 0.05899731 -0.032112557 0.059946425
000280 cf fd ae bd 4b 66 fc bc eb 90 ab 3d 2e d5 a1 3c
       -0.08544504 -0.030810496 0.0837725 0.019754972
000290 59 13 49 3c 22 ee 33 bc ec 0a db bd f2 dc c2 3b
       0.012272679 -0.010982068 -0.106954426 0.005946749
0002a0 91 d1 5b 3d 7d 8b d3 3d 6d c6 bf 3d d3 63 e6 3b
       0.053666655 0.1032934 0.093640186 0.007030943
0002b0 20 c2 8f bd 17 1f 9a 3d 78 bf 5f 3d ec 15 fb 3c
       -0.07019448 0.07525461 0.05462596 0.030650102
0002c0 1b 9f ba 3a a5 e8 3d 3d c6 54 28 bc f6 56 54 bc
       0.0014238091 0.046364445 -0.010274118 -0.012960186
0002d0 4e 5d af bd bb 1c eb bc 4c a7 da 3d a2 3a 90 3c
       -0.08562718 -0.028700223 0.106764406 0.017606083
0002e0 c9 18 93 3d b3 5e b9 3d 48 df cd 3d 14 ce f4 3d
       0.07182462 0.090512656 0.10052353 0.11953369
0002f0 53 b6 89 3d 46 4d 5d 3d aa 56 bb bc a6 25 8a bd
       0.06724229 0.05402877 -0.022868473 -0.06745462
000300 08 55 d5 3d 14 2e c7 bc f1 43 b0 bd aa e6 01 bd
       0.10416609 -0.024313964 -0.08606709 -0.03171412
000310 ed 49 cf bb cc e2 8a 3d 09 4a a7 3d 38 66 a4 bd
       -0.0063259513 0.06781539 0.08168418 -0.08027309
000320 c4 14 40 3d 94 23 7c 3d 4e 47 cf 3d 85 7a dd 3d
       0.046894804 0.061557367 0.10121022 0.10814384
000330 43 a5 f7 3c 39 54 74 bd a5 58 21 3d e9 46 c5 bd
       0.03023017 -0.059650633 0.03939118 -0.09632666
000340 e9 c2 9f bd c7 59 af bc 96 cf a9 3d af 37 ef bc
       -0.07800848 -0.021405114 0.08291547 -0.029201357
000350 5d 2a 7b 3d 3d 6b f0 bc 22 48 a8 3d 93 05 53 3d
       0.061319698 -0.02934801 0.08216883 0.051518988
000360 2b 22 74 bd 1d ed 83 bd b9 93 28 3d 7f 7a a1 bd
       -0.059602898 -0.0644171 0.041156504 -0.078846924
000370 d2 43 a8 bd f0 e1 7b bd 5e f1 c4 3d 69 d9 d1 bc
       -0.08216061 -0.061494768 0.0961635 -0.025616365
000380 3f 21 83 3c 20 6e 7e 3d 5d 63 ef 3d 69 6a 1e 3d
       0.016007064 0.062116742 0.11688874 0.0386757
000390 dd ba eb bc 87 da 57 3d 3a 97 7d 3d 95 9b 7c bc
       -0.028775627 0.05269864 0.0619118 -0.015417953
0003a0 56 b7 e0 ba 76 65 41 3d 0b 39 52 3d c8 eb 99 bd
       -0.0017144482 0.0472159 0.05132393 -0.07515675
0003b0 da a1 10 3d b6 10 98 bc 93 8b d9 3c b1 39 92 3d
       0.035310604 -0.018562656 0.026555812 0.0713991
0003c0 7e 21 8b 3d b2 8d 9e 3d 3c 42 d7 bd b7 35 f3 3c
       0.067934975 0.0774187 -0.1051068 0.0296887
0003d0 b0 a8 8e bb a8 f5 f6 3b b4 65 95 bd ea 26 b4 3d
       -0.004353605 0.0075366087 -0.07294789 0.08796485
0003e0 f0 8e 24 bd 68 5c 9e bd cc 93 3b 3d f8 46 61 3d
       -0.04017538 -0.07732469 0.045795247 0.05499932
0003f0 4a bd 6a bd b8 1f 97 3d a7 e2 03 3d df 1b 37 bd
       -0.057309426 0.07379097 0.032198574 -0.044704314

fc2.bias f4 [75]
000000 a2 d5 e1 bb 77 54 d8 3d 08 93 8f bd 17 cd 22 bd
       -0.006891922 0.105629854 -0.07010466 -0.03974637
000010 49 b5 e7 3c 57 8a 16 3d 9b 89 4a bd 45 af 34 3d
       0.028284686 0.036753025 -0.049447637 0.044112463
000020 7c 96 64 3d 3a ca b3 3d 80 0a f8 3d fb 52 b7 3d
       0.055807576 0.08778806 0.12111378 0.08951374
000030 2b 08 68 3b 20 75 f8 3d 8e 12 5c bd e5 9a 32 bd
       0.003540526 0.12131715 -0.053728633 -0.04360475
000040 71 e5 8b bb 8c 99 d1 3c 2d 7a 8d 3d dc 5d 41 3c
       -0.004269295 0.025585912 0.06908069 0.011802163
000050 bd 6a 9a bd 1d cb 45 bb 8c b7 77 bd 19 1f 75 3c
       -0.0753989 -0.003018088 -0.06047778 0.014961028
000060 ff 30 aa bc 03 ca 7b bc ec bb b4 bc ea b8 6e bd
       -0.020775316 -0.015367988 -0.022062264 -0.058281817
000070 de f9 4c bd fe 31 19 bc fa ba 04 bd f7 77 81 3d
       -0.05004298 -0.009350298 -0.032404877 0.063217096
000080 79 bd 90 bd 46 59 32 bd 2f 9f 8e bd 73 6e e8 3c
       -0.07067389 -0.04354217 -0.069639556 0.028372979
000090 b0 a7 43 bd 0e bf f9 bc 9e f4 d0 3c b7 2a b2 3d
       -0.04776734 -0.03048661 0.025507268 0.086995535
0000a0 ff 02 17 bd e2 f6 b5 3d 0e 47 ae 3d 59 2b d9 bc
       -0.03686809 0.0888498 0.08509646 -0.026509928
0000b0 a2 41 15 3d 30 41 7f 3d a4 b0 47 bc d2 8a 0d 3d
       0.036439545 0.062318027 -0.0121881105 0.034556217
0000c0 9c a2 15 3d 25 1f 2b 3d 0c dc 25 3d e7 47 d0 bc
       0.03653203 0.04177775 0.040493056 -0.02542491
0000d0 e9 ab 9c bc 83 a5 91 3d 20 31 cd 3c e6 d9 5f bd
       -0.019124942 0.07111647 0.025047839 -0.054651164
0000e0 c9 5e a8 3d 32 86 4e bd 31 d9 a5 3c 39 ac 5e 3d
       0.08221204 -0.050420947 0.020245166 0.054363463
0000f0 51 8d 96 3d 32 22 36 bd a9 2e 96 bd 4a d8 cf 3c
       0.07351173 -0.044466205 -0.073331185 0.02537169
000100 f8 f3 e3 3c 2c f5 d6 bd 32 9a 41 bc e7 f8 12 bc
       0.027826294 -0.104959816 -0.011816548 -0.008970476
000110 35 a9 a3 bd 65 cc 90 bd b2 2b 1c 3e f4 db 44 bd
       -0.07991258 -0.07070235 0.15251043 -0.048061326
000120 dd 02 29 3c f3 74 a5 b9 57 30 32 3e
       0.010315624 -0.00031558386 0.17401253

fc3.weight f4 [50, 75]
000000 d9 52 da 3c 2e b2 82 bd 08 4b 8b 3d 25 ee d2 3d
       0.026650833 -0.06381641 0.068014205 0.10299329
000010 5a 9f 9a 3c 02 57 bb bd a0 3f 7d 3d 20 a2 d8 3d
       0.018874813 -0.09147455 0.061828256 0.10577798
000020 e4 1f 5b bc 39 ee ec bb b3 d7 10 3d 5a 5d bc 3c
       -0.013374303 -0.007230547 0.035361957 0.022993732
000030 8c 7e f3 bc a4 cf aa bd 8e a7 d6 bd c6 85 87 3d
       -0.029723428 -0.083403856 -0.10481177 0.06617312
000040 ec 5c 8f bd 0e a0 ea 3c 0e 0d e7 bc 3d 53 c4 bd
       -0.07000145 0.028640773 -0.028204467 -0.09586189
000050 e2 83 f6 bc 60 15 95 3c f8 6f d0 3d a8 89 9e 3d
       -0.030092184 0.018198669 0.10177606 0.077410996
000060 33 af f8 3a e8 c5 85 bd af b1 83 bd 51 2a 51 3d
       0.0018973112 -0.06531888 -0.06430375 0.051065747
000070 97 3b 4c bd f7 64 8a bd db 8c 88 3d 56 75 66 bd
       -0.049861517 -0.06757539 0.06667491 -0.056264244
000080 a1 4d de 3d 0a 79 62 3d 74 33 9b 3b 08 0e db bd
       0.1085465 0.055291213 0.0047363583 -0.106960356
000090 7a fb 91 bb 4e bc ca bd be 8b 5d 3d d4 2a 0d 3c
       -0.004455027 -0.098991975 0.054088347 0.008616168
0000a0 33 49 2b bc 97 3e 9f bd 22 e0 86 3d 9a b9 bf bd
       -0.010454464 -0.0777561 0.06585719 -0.093615726
0000b0 cd 62 a4 3b 8f 02 e6 3a cf e6 28 bb 52 bb 88 bc
       0.005016661 0.001754837 -0.0025772338 -0.016690884
0000c0 46 ef 96 bd ea a6 c3 bd 6b b4 45 bd 22 0a c2 3d
       -0.073698565 -0.09553321 -0.048267763 0.09474589
0000d0 37 9c ca 3c 07 83 e4 bd 3a 7d a8 3d 72 95 10 bd
       0.024732692 -0.11157804 0.0822701 -0.035298772
0000e0 b3 cd 2e bd 03 0e 94 bd 9a 87 ef bc e9 cb dd bd
       -0.04267664 -0.07229235 -0.029239465 -0.108299084
0000f0 9c a5 46 3d 30 c9 0f bd 82 6c 0d 3d 36 48 4f 3c
       0.04849778 -0.035103977 0.03452731 0.012651494
000100 c8 ca 77 3d 1e d9 88 bb 0b 3c 99 bd cf 05 e8 bd
       0.06049612 -0.004176273 -0.074821554 -0.11329233
000110 01 1e 45 3d 65 c8 e5 bd e1 19 85 bd 8c 5c e3 3b
       0.048124317 -0.11219863 -0.06499077 0.0069385227
000120 13 b5 05 3d bc 09 6f 3b 86 ab 85 bd 95 ca 99 3d
       0.03264339 0.0036474308 -0.06526856 0.075093426
000130 2d 41 e5 bd 89 a6 49 bd f8 76 d4 3c 89 3e aa bd
       -0.11194072 -0.049231086 0.025935635 -0.08312709
000140 bb 24 e6 3d 3e c5 e8 bb 00 a4 4b bb b7 24 c1 3d
       0.112374745 -0.007103591 -0.0031073093 0.09430831
000150 29 f5 b6 3d b5 81 ce 3c 14 68 f6 bc 2d c5 d1 3b
       0.08933479 0.025208334 -0.030078925 0.006401679
000160 13 47 45 3c a2 bd 96 bd 40 f8 1c 3d e2 bd 9a 3c
       0.012040871 -0.07360388 0.038322687 0.018889371
000170 2b 88 7d 3d 7f 45 68 bd 2e e2 af 3d 82 c7 85 3d
       0.061897438 -0.0567069 0.08588062 0.06532194
000180 c5 ab e0 bc ed 6a 03 3c d0 06 92 3d 14 5b 5f bd
       -0.027425656 0.008021099 0.07130206 -0.05453022
000190 97 40 ac bd ff 51 8c 3d 5d e3 c9 bb 47 4f 5a bd
       -0.08410757 0.06851577 -0.006161137 -0.05329826
0001a0 54 09 40 3c 23 fd a4 bd 5d 26 d0 3d b9 8b c8 3d
       0.011720974 -0.080560945 0.10163567 0.09792275
0001b0 62 4a 62 3d 19 87 f4 3c 1a 22 d6 bc aa f8 85 3c
       0.05524672 0.029849576 -0.026139308 0.016353924
0001c0 37 f2 64 bd 69 b3 b6 bd 79 14 7f 3c a1 7f cc bd
       -0.055895057 -0.089209385 0.015568846 -0.09985281
0001d0 b4 ab 30 bd b2 f1 f8 bc b1 de df bd 74 87 1b bd
       -0.0431325 -0.030388687 -0.10931147 -0.037970975
0001e0 28 69 a5 bd d1 67 e7 bc 0c 77 c7 3d b8 49 cb bd
       -0.080766976 -0.028247746 0.09739503 -0.0992617
0001f0 77 e3 be 3d 54 5f aa 3d c9 5c 92 3c f2 1f 8b bd
       0.09320729 0.08318964 0.017866509 -0.067932025
000200 dd b5 93 bd 00 5a f9 bc a8 25 83 3d 44 02 05 3d
       -0.07212422 -0.030438423 0.06403667 0.032472864
000210 e6 75 d7 3d 0d 95 8b bc 59 01 81 bd 1e e1 b3 bd
       0.10520534 -0.017038846 -0.06299085 -0.08783172
000220 0d 1c 55 3b 08 85 42 3c 34 2d c2 bd be 31 8b 3d
       0.003251794 0.011872537 -0.09481278 0.06796597
000230 80 4d 96 ba 14 07 ff 3a be 80 ba 3d a2 39 7f bd
       -0.0011467189 0.0019457066 0.09106587 -0.062310822
000240 32 9d 45 3b 94 1c c8 bd e8 57 d6 bd 90 2b 24 bc
       0.003015351 -0.09771076 -0.104659855 -0.010020152
000250 62 fc cc 3c 4d ee 97 3d 1b b6 1e bd 4d 9a 70 3b
       0.02502269 0.07418499 -0.038747888 0.0036713064
000260 e3 41 53 3b 28 a4 2d 3d da 08 e5 3d 2b 33 7c 3d
       0.0032235316 0.04239288 0.11183329 0.061572235
000270 c9 07 ec bd ae 50 68 bd 36 ce dd bd 54 aa 47 3d
       -0.115249224 -0.056717567 -0.10830347 0.048746422
000280 8e ab ab bd a1 5d 84 3d 07 42 0b 3d 15 1b 14 bd
       -0.08382331 0.06463171 0.033998515 -0.03615864
000290 06 63 ce bc 8d 2a b5 bc 8b a9 d0 bd 6e 82 58 3d
       -0.025193702 -0.022115016 -0.10188588 0.052858762
0002a0 fa 72 7f 3d 2a fe 7a bd b2 9b c6 3c 25 94 b3 3c
       0.06236551 -0.061277546 0.024244163 0.021921227
0002b0 84 6c 0b 3d 2e 3a d2 3d ad 44 75 3b 47 92 89 3d
       0.034039035 0.10265003 0.0037424967 0.06717353
0002c0 ad f7 81 3d b9 c4 d8 bd d1 9c 3d 3c 2a 18 82 bc
       0.063460685 -0.10584397 0.0115730325 -0.015880663
0002d0 5d 10 e6 bc 4f d7 a9 bc 52 51 99 3b 0b 9b d1 3d
       -0.028083974 -0.02073255 0.0046788836 0.1023465
0002e0 46 7d 3f 3d 13 98 ea bd 38 f0 39 bc 78 50 a8 bd
       0.04675033 -0.11454787 -0.0113487765 -0.08218473
0002f0 34 79 a9 bc 4c 7b 51 3d 40 a7 7d bd 85 a6 8d bd
       -0.020687677 0.051142976 -0.06192708 -0.06916527
000300 02 ed a5 bd ad 7b c8 3d 35 24 b4 bd 7c 06 83 bd
       -0.08101846 0.09789214 -0.087959684 -0.06397721
000310 d3 c4 1b bd fb ae f5 3c 21 22 92 3b 03 8c a2 bc
       -0.038029503 0.029990664 0.004459635 -0.019842153
000320 1c d0 ce 3d 78 15 ab 3d 9c dd ae 3d ff 87 b6 3d
       0.100982875 0.08353704 0.085383624 0.08912658
000330 d1 d7 0f 3d 4c 57 30 3d a5 d7 ee 3d 16 d5 8b bd
       0.035117928 0.043052003 0.11662225 -0.06827752
000340 97 47 68 3d 30 0b c9 3d 8f 4e 4f 3d 27 18 e7 3d
       0.0567089 0.09816587 0.05061203 0.112839036
000350 cc 07 28 bb f2 2c aa bd 49 b9 9d bd 5b b3 d9 bd
       -0.0025639413 -0.08309354 -0.07701356 -0.106299125
000360 9e d2 79 bd b4 89 7c 3d a1 9b 95 3d 8c 4d 8d bc
       -0.060991876 0.06165476 0.073050745 -0.017248891
000370 e6 1e bf 3d d3 87 bb bd 8a 3e 92 3c 44 cd 05 bc
       0.09332065 -0.09156766 0.017852087 -0.008166615
000380 0e de 70 3d 10 e8 e5 3c 01 b5 c6 3d 96 a3 82 3d
       0.058805518 0.028064758 0.097024925 0.06378858
000390 c9 a9 66 3d f5 63 e7 bd ee 4b 81 3d 60 11 88 3d
       0.056314263 -0.11298362 0.063133106 0.06643939
0003a0 90 f6 e5 bd 63 f7 21 3d d9 3c b6 3c ca f7 67 bc
       -0.11228669 0.039542567 0.022245811 -0.014158199
0003b0 29 04 d4 bd 26 30 17 bd 07 12 21 3d be c7 c7 3b
       -0.10352356 -0.036911152 0.039323833 0.006096809
0003c0 7f 6e df 3c 12 69 19 bc aa f3 9f 3d 91 cc 7e 3d
       0.027274368 -0.00936343 0.07810147 0.06220681
0003d0 02 37 bf bd 8e 4d d9 bc 86 16 95 bd f8 42 bf 3c
       -0.09336664 -0.026526239 -0.07279687 0.023347363
0003e0 d2 0d 2e 3d 1c d4 33 3d 51 6b 33 3c 75 da 5d 3d
       0.04249365 0.043903455 0.010950879 0.054163415
0003f0 9a 4f 8a 3d bc f1 c7 bd 46 54 a8 bd 73 3b c9 bc
       0.06753464 -0.09762904 -0.08219199 -0.02456448

fc3.bias f4 [50]
000000 ad 10 f5 3a 8b a2 e3 bd b9 af 14 bd b5 00 b4 bd
       0.0018696986 -0.11114987 -0.036300395 -0.08789197
000010 75 36 01 3e 7f d5 98 bd ab 42 6e 3c b6 fc 10 bd
       0.1261843 -0.07462596 0.014542262 -0.035397254
000020 de 69 b6 3d b0 c9 06 3e 86 2e 9c 3d 55 a3 a6 bc
       0.08906911 0.13162875 0.07626061 -0.020341555
000030 5b 1a b6 3e 2d 89 de bc 5b cb 22 bd 6c e9 e1 3d
       0.35566983 -0.02716502 -0.039744716 0.1103085
000040 44 c5 13 3d ee d3 66 3b f5 e6 c7 bc 84 80 4c bd
       0.0360768 0.0035221535 -0.024402121 -0.04992725
000050 1c fb b1 3d 54 4c 44 3d b1 b4 a1 3d 40 6b 7b bd
       0.086904734 0.047924355 0.07895792 -0.06138158
000060 d8 29 02 be f3 72 91 bc c8 97 f9 bd 89 33 da bd
       -0.12711275 -0.017755007 -0.12187153 -0.10654361
000070 54 a3 7e 3c a3 8a e7 bd 14 d0 7c bc 55 6f b0 3e
       0.01554187 -0.1130574 -0.015430469 0.3445994
000080 bb 0d cd 3e f5 58 06 bd 89 4d 55 3e 35 3c 9b bd
       0.40049538 -0.03279968 0.20830359 -0.07579843
000090 19 b3 91 bb d6 6f 80 3c 03 2d 45 bc 7d 37 35 3e
       -0.004446399 0.015678328 -0.012034657 0.17696948
0000a0 b0 12 2c 3b a9 5b 8f bd 2a ea c8 bd 0c ed 64 bd
       0.0026256256 -0.06999905 -0.09810288 -0.055890128
0000b0 71 d7 5f 3b ff 19 cb 3c be 7d 22 3c 01 d6 a0 b9
       0.0034155513 0.02479267 0.009917675 -0.00030677023
0000c0 64 a4 8f 3b bb 93 7a bd
       0.0043836106 -0.061176043

out.weight f4 [5, 50]
000000 ea 92 06 be b8 fd a3 bd 9d 72 7e 3d 9a c1 55 bd
       -0.13141981 -0.080073774 0.062121022 -0.052186586
000010 81 9e f7 bd 58 a5 e8 3c 8e 1c 42 bd 24 32 1b be
       -0.12090779 0.028399155 -0.047390513 -0.15155846
000020 d7 34 84 3c 35 8c 7a bd b2 5b 3a be d4 97 64 bc
       0.016138477 -0.061168868 -0.18199041 -0.013952214
000030 58 a1 79 bd e2 98 5a bd ac 17 0f 3e 19 4c 10 be
       -0.060944885 -0.053368457 0.13973874 -0.14091529
000040 ff d3 36 3d b3 69 39 bd d2 e1 f3 3d 50 d4 d7 bc
       0.04463577 -0.04526682 0.11908306 -0.026346356
000050 7b c3 eb bd 22 62 83 3d 2b 19 45 3d 7c dc aa 3d
       -0.11511894 0.06415202 0.048119705 0.08342835
000060 c0 2c 9a bb 0c e6 ec bb d3 24 d3 bd 0e 94 61 bd
       -0.0047050416 -0.007229572 -0.10309758 -0.055072837
000070 a8 e0 ae b8 e4 b0 bb bd df 55 df 3c 46 39 89 bd
       -8.338812e-05 -0.091645986 0.027262626 -0.06700377
000080 84 ec 28 be 89 ad ab bd c7 c9 82 bd da ac fa bd
       -0.16496474 -0.083827086 -0.06386142 -0.1224
000090 bd 3d 3b bd a3 21 be bc 62 1b 9f bd 4e 50 2e be
       -0.045713175 -0.023209399 -0.07768895 -0.17022821
0000a0 0f 03 33 bd 03 fd b2 3d 5b 08 8c bd e0 50 e4 bb
       -0.04370409 0.087396644 -0.06837531 -0.006967649
0000b0 e2 31 58 bd 5b ea bf bd 0d 7e 15 3d e9 b7 fb bd
       -0.052781947 -0.09370872 0.036497165 -0.122909375
0000c0 98 b9 62 bd bc 13 db 3d d0 e6 6b 3c 28 a4 bd bd
       -0.055352777 0.106971234 0.014398292 -0.09259826
0000d0 e8 fd de 3d 92 06 d4 3c e9 b3 35 3e d0 0c 45 bc
       0.108882725 0.02588204 0.17744412 -0.0120269805
0000e0 8d 7f 02 3e 4e 8f 41 3e 3a 36 e4 3d 0d 2a 16 bd
       0.1274397 0.18902323 0.111431554 -0.036661197
0000f0 a5 c7 98 bd af f2 1f 3e 0d e5 d1 be 9f 22 1b 3e
       -0.07459954 0.1561992 -0.40995064 0.15149926
000100 59 b2 bb bd b1 0d 37 3d a5 c3 c3 3d 9a 51 91 bd
       -0.091648765 0.04469079 0.095588006 -0.070956424
000110 91 c9 88 3d c9 8c cd 3d b3 90 95 3c 4d da 6a 3e
       0.06679071 0.10036618 0.018257475 0.22934838
000120 53 f9 54 3e 5e e2 bc 3d d4 c2 21 bd b8 dd 3e 3e
       0.20798235 0.092228636 -0.039492443 0.18639266
000130 f1 ff 95 bd de 33 ca bd 08 30 61 3e 71 5b 89 bd
       -0.073242076 -0.09873174 0.21990979 -0.06706894
000140 d1 0d c3 bd 06 e9 db be 37 74 a9 be 2a 26 44 3e
       -0.0952412 -0.4295122 -0.33096477 0.19155183
000150 8c 33 89 be 42 7b 04 3d 33 30 39 3e 3a 7f 85 3d
       -0.2679714 0.03234411 0.18084793 0.06518407
000160 ad 50 2a 3e 86 57 3a be 21 b9 47 bb 48 2b 7a 3d
       0.16632338 -0.1819745 -0.0030475336 0.061076432
000170 ae 4b f5 3d 66 18 78 bd 26 e0 3b 3d 09 2f a9 3d
       0.119773254 -0.060570143 0.04586806 0.08260924
000180 ed 53 99 3d 3c 4e a2 3e b6 56 e3 3d 24 d4 d8 3c
       0.07486711 0.31700313 0.11100523 0.026468344
000190 c0 05 05 be 76 b2 5d bd 49 30 eb bd 14 d1 f7 3d
       -0.12990475 -0.05412527 -0.11483819 0.12100425
0001a0 5b fc 2d be 28 7c 73 bd 53 93 a4 bd bb d8 c0 3d
       -0.16990797 -0.059444577 -0.08035912 0.09416338
0001b0 74 2e 84 bd 57 87 c3 3b 59 b9 a7 bd cb 4e 9d 3d
       -0.06454173 0.0059670615 -0.08189649 0.07681044
0001c0 0d 6a 75 be 02 33 db 3d 55 74 ba 3d 5b a6 20 be
       -0.23966236 0.10703088 0.0910422 -0.1568846
0001d0 d1 63 c4 bc eb c6 61 bc 98 e6 c0 bd 53 cf 9f bc
       -0.023973377 -0.013780336 -0.09418982 -0.01950804
0001e0 18 c3 34 be 73 6f 0d be 3a 0d af 3d 89 08 b3 bb
       -0.17652547 -0.13812046 0.08547445 -0.005463664
0001f0 c1 ec 4a 3c e3 41 36 bd dd ac 2c bd 15 7d 5d bd
       0.012385548 -0.04449643 -0.042157043 -0.054074366
000200 9d d7 d3 3c c0 ca b1 bd a2 b8 7d 3d 3f e5 1a bd
       0.025859648 -0.086812496 0.061943658 -0.037816282
000210 68 05 ff bd 69 5f a8 3d be 84 b5 bc 92 3d c2 3d
       -0.12452203 0.08221323 -0.022158023 0.094844
000220 8e 9c 04 3e c9 f5 0d 3c af 3b 1b 3c 7c 8a d1 3d
       0.12950346 0.008664557 0.009474679 0.10231492
000230 73 83 f5 3c 42 2f 03 bd f0 fe 08 3e d9 9a fb 3d
       0.029969906 -0.03202749 0.13378501 0.12285394
000240 ba 75 82 3d e7 ea 85 3d f1 28 04 3d 91 57 d0 bc
       0.06370111 0.06538945 0.032265607 -0.02543238
000250 f8 86 f7 3d fb 26 01 3e 6f 0d 03 be 81 49 63 bd
       0.1208629 0.12612526 -0.12798093 -0.05549002
000260 90 7f 54 3d a4 7a 50 bd b7 38 93 bd 68 48 a4 3d
       0.051879466 -0.05089821 -0.07188552 0.08021623
000270 30 50 87 bd 08 77 0d be cb 1e 54 bd 91 05 c7 bc
       -0.066070914 -0.13814938 -0.05178718 -0.024294646
000280 32 da fc bd 0c d8 bf 3d 58 f5 08 be 95 b8 8d 3d
       -0.12346305 0.093673795 -0.13374841 0.06919972
000290 44 95 0a be 85 e5 12 3d 2c 2f 85 bd 3e fd d6 3d
       -0.13533503 0.035863418 -0.06503138 0.10497521
0002a0 06 6a 56 3d e3 76 10 bc 68 15 9c 3d 5e 3b 26 bd
       0.052347206 -0.008817407 0.076212704 -0.04058396
0002b0 4e 33 fe bd 87 75 01 3e 89 92 10 be 8d c1 42 bc
       -0.12412129 0.1264249 -0.14118399 -0.011886966
0002c0 1a 91 c4 3c 78 0a 5b bd 6e 31 e5 3d 34 cf 45 bd
       0.023994971 -0.05347678 0.111910686 -0.048293307
0002d0 a4 f3 ec 3d 1c df 3d bd 04 16 3d be 72 2d 0c be
       0.11569908 -0.04635535 -0.1846543 -0.13689211
0002e0 78 63 ab 3d 23 02 0e 3e 39 35 cf bb bc 63 b1 bc
       0.083685815 0.13868003 -0.0063234833 -0.021654002
0002f0 78 c5 21 be 80 58 b0 bd 34 91 c4 bd f4 3a 7f 3d
       -0.15797985 -0.0861063 -0.09598008 0.06231208
000300 a6 c3 fd 3d 82 0b c2 bd e0 49 0e be bf eb 7b bd
       0.123908326 -0.09474851 -0.13895369 -0.061504122
000310 a8 5b 0e be f3 76 bf bc 32 d4 1b 3d df 1a a5 bb
       -0.13902152 -0.02337215 0.038044162 -0.0050386037
000320 e4 e3 9e bc 0e 8a c5 bd e7 03 53 bd 8c 8e 5c 3d
       -0.019395776 -0.096454725 -0.051517393 0.05384688
000330 65 99 cb bc c8 70 f2 3c 38 83 f8 bd c9 a6 0a 3e
       -0.024853418 0.029594794 -0.12134403 0.13540186
000340 3f d4 2e bc d0 63 65 3d f5 4a 34 3d 6b 2a 16 be
       -0.010670721 0.05600339 0.044016797 -0.14664619
000350 1f e4 27 be 48 59 a9 3d c1 b2 08 3e 54 ae 02 bd
       -0.16395615 0.08268982 0.13349439 -0.031904534
000360 52 62 e8 bd e4 6e ef bc f0 34 ac bd 5f 94 aa bd
       -0.11346878 -0.029227681 -0.084085345 -0.08329081
000370 39 60 71 bd 2f a5 d6 bb 80 4d 3d 3c 48 cc f7 3c
       -0.058929656 -0.006550453 0.011554122 0.030248776
000380 cc 1b 81 3d 48 44 ff bd 82 4b f1 bd 5c 90 07 be
       0.0630413 -0.124641955 -0.1178198 -0.13238662
000390 64 ce e0 bc 54 cd 0f 3d fa f1 dc 3d 91 50 4a be
       -0.027442165 0.035107926 0.10788341 -0.19757296
0003a0 c7 9b 21 be c5 3b 0c 3e ec 6b 1c 3d b4 29 55 3d
       -0.1578208 0.13694675 0.03818886 0.052041724
0003b0 a5 78 96 bd 91 b1 2c bd 8e 6b 09 be 33 9c 82 3d
       -0.0734723 -0.042161528 -0.13419935 0.06377449
0003c0 50 0e c9 bd cc 06 b2 3d 08 07 b1 3c ba 7a 2b bd
       -0.09817183 0.08692703 0.021609798 -0.041865088
0003d0 1a 1e ef bd b6 a6 3b bd fa e7 a0 3d 2e 53 e8 bd
       -0.11675663 -0.045813285 0.07856746 -0.1134399
0003e0 01 0d d8 3d ea 56 82 bd
       0.10549355 -0.06364234

out.bias f4 [5]
000000 2c 01 8f be 38 9d 12 3e 2e 7b 87 be 7b 85 8c be
       -0.27930582 0.14317787 -0.26461166 -0.27445588
000010 00 2e 9d be
       -0.30699158
