models/3b6f6d2bfa39bf61ade30f9a2c4558fa.pt (torch_old, 55793 bytes, 8 tensors)

fc1.weight f4 [100, 20]
000000 f4 45 4a 3e d8 11 5d 3d 00 3a 77 bc 4c 01 19 3e
       0.19753247 0.053972095 -0.015089512 0.14941901
000010 41 85 b3 ba 12 cb 3d be 01 9c 51 3e cc 59 45 bd
       -0.0013696329 -0.18534496 0.20469667 -0.04818134
000020 79 07 17 be 73 c3 b2 3d e5 03 d7 bd e8 b2 2f 3e
       -0.14748944 0.08728685 -0.1049879 0.17158091
000030 c6 75 42 3e 3d 6f 48 3e 7f f7 02 3e 5b 16 0d bd
       0.1899024 0.19573684 0.12789725 -0.034445148
000040 04 41 76 3d 90 0d f1 3c b9 df 54 be 50 84 55 3d
       0.060120597 0.029425412 -0.20788468 0.052128136
000050 ae 2f 37 3e 50 04 b1 3d e0 58 cf 3d 74 1b 82 3d
       0.17889282 0.08643401 0.101243734 0.063528925
000060 c0 03 4a 3b 4b 30 21 3e ec 86 ae 3d d8 a8 16 bd
       0.003082499 0.15741079 0.08521828 -0.036782116
000070 96 db 1a 3e b4 ee 22 3e e0 85 43 3d fe 29 16 be
       0.15122828 0.1591137 0.047735095 -0.14664456
000080 74 9f 09 3e e0 3a 13 be c6 a3 00 3e ae 0a 89 bd
       0.13439733 -0.14377928 0.12562475 -0.0669149
000090 92 1e 93 bd a0 7f 8c 3d fe 5d 2c 3e fc 89 23 be
       -0.07183565 0.0686028 0.1683273 -0.15970606
0000a0 d8 a0 03 be 94 44 0e 3e f0 60 fe bc 82 fd b4 bd
       -0.12854326 0.13893348 -0.031052083 -0.08837415
0000b0 c6 b7 3c 3c d5 c1 91 3c a8 fa 2c be d8 69 4f bd
       0.011518424 0.017792622 -0.16892493 -0.05063805
0000c0 62 89 93 bd 84 c6 b6 bd 33 83 09 bd a6 74 5e be
       -0.07203938 -0.089245826 -0.033572387 -0.21724185
0000d0 1c e3 20 be 9e 0b 93 bd 18 fe 17 bd 30 5d 45 bd
       -0.15711635 -0.0717995 -0.037107557 -0.048184574
0000e0 d5 46 75 3e 5c 38 b4 3d 00 ea 40 be b8 87 3d 3d
       0.23952802 0.08799812 -0.18839264 0.04627201
0000f0 b4 2c 40 bd ac 57 1f bd 52 88 18 be 10 64 42 be
       -0.046917632 -0.03890197 -0.14895752 -0.18983483
000100 a5 90 01 3c 32 3f 2f be c9 b3 8d bd b2 9d 0e be
       0.007908021 -0.17113951 -0.06919057 -0.13927343
000110 88 cd 11 3d d5 de 53 be be ad 9f 3d f3 30 8d bb
       0.0355964 -0.20690472 0.077968106 -0.0043088137
000120 5d 42 31 be 57 c6 de bd d9 76 ee 3d 5c ca a6 bd
       -0.17310472 -0.10877674 0.11643762 -0.08144066
000130 72 54 38 3e 08 2b 62 3e f0 3f 42 bc 1e 63 51 be
       0.18000963 0.22086728 -0.011856064 -0.20447966
000140 8a 43 64 3e 2a c7 3d 3e 90 8a 54 be a0 74 ed bb
       0.22291389 0.18533006 -0.20755982 -0.007246569
000150 7b d2 8d 3d 2f 4d 05 bd 50 5f f5 bd c8 39 b9 bd
       0.069249116 -0.03254431 -0.1198107 -0.09044224
000160 0d 58 cb bc a5 c2 a6 3d bc 4b 3c 3e 27 24 dd bd
       -0.02482226 0.08142594 0.18388265 -0.10797911
000170 5d 5f 4e 3e 24 63 50 3e a7 e7 3a 3e 22 93 cf bc
       0.20153566 0.20350319 0.18252431 -0.025338713
000180 e5 8f b9 3d 68 10 97 bc 80 66 a1 bd d8 37 c8 3d
       0.09060649 -0.01844044 -0.078808784 0.09776276
000190 c8 ab 5f be 3a b8 a1 bd c0 c9 1a 3e 28 e6 16 3e
       -0.21842873 -0.078964666 0.15116024 0.14736235
0001a0 70 22 34 bd 42 63 0a be 94 15 c7 bc 03 49 19 bd
       -0.043978155 -0.13514426 -0.024302281 -0.037423145
0001b0 e9 5d 79 bd c0 91 44 3e 0c 7d 27 be bd ee 62 3e
       -0.060880575 0.19196224 -0.16356295 0.22161384
0001c0 40 bc 39 3e cc 91 f0 bd 46 06 35 3e a7 ae b5 3d
       0.18138218 -0.117465585 0.17678174 0.08871203
0001d0 af a0 7d 3b 40 3a 61 be e0 ae 63 3e 80 50 73 bd
       0.0038700511 -0.21994877 0.22234678 -0.059402943
0001e0 24 a4 3c 3e 00 95 4c 3e 58 d5 46 3d 32 e4 5e 3e
       0.1842199 0.19978714 0.048543304 0.21766737
0001f0 61 ec 52 3e 50 f3 00 bc 48 2d 87 bc 4e 0a 50 3e
       0.20597984 -0.00787051 -0.016501084 0.20316431
000200 88 0e 7f 3d 1c 70 51 be 3a ad 05 3e 72 00 be bd
       0.062269717 -0.20452923 0.13054362 -0.09277429
000210 f6 d8 84 bd 78 8f b3 3c b0 8a 3a 3e f0 f3 59 3c
       -0.064866945 0.021918997 0.18216968 0.013302788
000220 f2 52 5f be 8e f0 10 be 60 67 f0 3d 5e 54 46 3e
       -0.21808985 -0.14154264 0.11738467 0.19368121
000230 90 ad 2d 3e 0c 03 f4 3d 80 71 17 bb 96 9f 83 bd
       0.1696074 0.11914644 -0.0023108423 -0.06426923
000240 89 44 15 be 1d a6 9a 3b f6 7b 2f 3d 87 bf a8 3d
       -0.14576925 0.0047195093 0.042842828 0.08239656
000250 75 aa d3 3d 7d 63 33 3d 60 c9 19 be 47 40 28 3d
       0.103352465 0.04379605 -0.15018225 0.041076925
000260 04 02 b5 3d 01 7f 2a bd 0e fa fa bb 17 5f 0e be
       0.08838275 -0.041625027 -0.0076592034 -0.13903461
000270 62 53 59 be 9e dd 54 be 98 77 10 3d cc 18 0c bd
       -0.21223214 -0.20787665 0.035270303 -0.034203336
000280 44 ac 09 be 4e c4 4e be e0 fa 12 be 78 5d 74 3d
       -0.1344462 -0.20192072 -0.14353514 0.05965945
000290 19 d6 e6 bb fb f0 be bd 9e 02 f7 bd 81 a4 76 3d
       -0.0070445654 -0.09323307 -0.12061046 0.060215477
0002a0 6e a7 f6 3b 5c ab 33 be 79 c4 8f 3d 06 e3 84 3c
       0.0075272834 -0.17545837 0.07019896 0.016221534
0002b0 20 3c 24 bd 58 e3 bc bd 35 5a 55 3e 81 0a 31 be
       -0.040096402 -0.0922305 0.20835193 -0.17289163
0002c0 5d 73 83 3e d8 e8 7f 3d 42 40 13 3e c0 0f d3 3d
       0.25673953 0.062477916 0.14379981 0.103057384
0002d0 c8 19 64 be a8 98 a1 bc c8 5b 1a 3e 04 3b 1c 3e
       -0.2227546 -0.019726112 0.15074074 0.15256888
0002e0 5b fb 64 bd 1d c9 99 bd 38 7c 84 3d 0d 77 02 3e
       -0.055903774 -0.075090624 0.06469005 0.12740727
0002f0 3c 5a 30 be 22 b7 9a 3d ee 17 1b be 17 9b 2a bd
       -0.17221922 0.07554461 -0.15145847 -0.04165181
000300 18 1f 55 be 64 01 bd bd 5d fb fb 3d 55 c5 dd 3d
       -0.20812643 -0.09228781 0.12303803 0.10828654
000310 0e 49 27 be 8e 13 e6 bd c8 a2 0a bd 04 a7 2a 3e
       -0.16336462 -0.112341985 -0.033846647 0.16665274
000320 49 97 56 be ee 86 99 bd 09 6b 42 be 09 45 44 be
       -0.20956148 -0.07496439 -0.18986143 -0.1916696
000330 ab a6 3e 3e d2 7b 00 3e 58 46 a5 3d 90 84 23 bc
       0.18618266 0.12547234 0.08070058 -0.009980336
000340 20 65 85 bc 72 a1 ee bd 2e 9f b9 bd bb 29 5d 3e
       -0.016283572 -0.11651887 -0.09063564 0.2159795
000350 e8 b0 a3 3c bc 15 a5 3d 91 3f 62 3e af 12 64 be
       0.019981816 0.08060786 0.22094561 -0.22272752
000360 00 1d 1d bd 9e 5b b3 bd 6c 2e c8 3d d4 8c 8e 3d
       -0.038357735 -0.08757709 0.09774479 0.069604546
000370 48 0a 21 3e 62 90 e0 bd 50 07 1a be 60 a7 79 3d
       0.15726578 -0.10965039 -0.15041852 0.060950637
000380 17 94 51 3c 80 c2 0b 3e 30 d3 17 3e 0e f8 07 3e
       0.012791655 0.13648415 0.14826655 0.13278219
000390 5a d5 1e be 2d ce 04 be fe 4e bf bd 28 c1 11 bd
       -0.15511075 -0.12969275 -0.093412384 -0.0355846
0003a0 a6 6b dc bd b1 2c ab 3c ac 69 f6 bd 1a bc e2 3b
       -0.1076272 0.020895334 -0.12031874 0.006919396
0003b0 49 25 4e be 60 9d fe bb 52 51 62 3e 56 f0 61 be
       -0.2013141 -0.0077702254 0.22101334 -0.22064337
0003c0 c0 f8 87 3d 80 77 c1 3d 98 7c 8b bc 60 c0 ee 3c
       0.06639242 0.09446621 -0.017027184 0.029144466
0003d0 c4 51 af 3d d2 c6 15 3e 89 84 8f bc 45 e5 d3 bb
       0.085605174 0.14626625 -0.017519252 -0.00646654
0003e0 fb df d0 3d 67 86 61 be 91 3c 68 bc f3 31 48 3e
       0.10198971 -0.22023927 -0.014174596 0.19550304
0003f0 30 16 25 3e e6 21 a4 bc a9 3e 4e 3d e2 cb 80 3d
       0.16121745 -0.020035695 0.050352726 0.062888876

fc1.bias f4 [100]
000000 3a 19 4a 3e c1 e2 12 be 16 14 9a 3c 64 bd 6b 3d
       0.19736186 -0.14344312 0.018808406 0.057553664
000010 59 28 1e 3d d2 3d 2f 3e c7 8c 93 bd c1 a2 9a 3d
       0.038612697 0.17113426 -0.072045855 0.07550574
000020 d0 12 b2 3d 0b e1 1d 3e 0c 15 2b be b6 d8 72 bc
       0.086949944 0.15417878 -0.16707247 -0.014822176
000030 4e 9b 5e 3e bd e7 41 be 01 ca 8b bd d8 f8 8a 3d
       0.21738932 -0.18936057 -0.068256386 0.067857444
000040 28 1b 80 bd 15 8e 37 3e 96 fe 53 3e 7d 43 4f 3d
       -0.0625518 0.17925294 0.20702586 0.05060147
000050 01 b0 5f be 50 1e 51 bd f0 82 21 be c8 7f 0c 3e
       -0.21844484 -0.0510543 -0.15772605 0.1372062
000060 8c 4d 27 bd ee 6f 8a bd 3d f1 b6 3c a3 41 c1 3d
       -0.04084544 -0.0675963 0.022331828 0.09436347
000070 3c 9f 02 3e 2d b9 af 3c 5c 3a 3e 3e 07 11 7b 3d
       0.12756056 0.021450603 0.1857695 0.061295535
000080 7b e0 0a 3e 9d 45 14 be 7e 95 9f bd 6a 18 04 be
       0.13562195 -0.1447968 -0.07792185 -0.12899938
000090 b1 d0 12 3e c2 34 b3 3d 54 10 33 3e 8c ac cf 3d
       0.14337422 0.08750297 0.17486697 0.101403326
0000a0 9b 97 0b be 1e 7f 0f be 6d 38 5a be 04 7b fc bd
       -0.13632052 -0.14013335 -0.21310587 -0.12328151
0000b0 e3 7a 52 3e 61 32 f1 3d 54 f2 e9 bd c0 25 f4 3d
       0.2055469 0.11777187 -0.114231735 0.11921263
0000c0 20 7e ce bd 4b 05 de bd 39 66 e6 3d de 63 49 3d
       -0.1008265 -0.10840853 0.11249966 0.049167506
0000d0 48 61 3e 3d 7f 8d 15 3e c0 10 46 bd c2 b6 f2 3d
       0.046479493 0.14604758 -0.048355818 0.118512645
0000e0 c1 2f ac 3d 9f df 7e 3d bf cb 15 be 7d c4 1c be
       0.08407546 0.06222498 -0.14628504 -0.1530933
0000f0 6a 76 fb 3c ce a7 81 bd 20 76 dd 3c de 40 26 3d
       0.030696113 -0.06330834 0.027033865 0.040589206
000100 19 82 c2 bb 26 a6 f5 bd f6 df 62 3e 32 e2 c6 bd
       -0.005935919 -0.11994581 0.22155747 -0.09711112
000110 77 b4 ef bd e3 31 26 bd 7e 1e 28 be 97 52 06 be
       -0.11704343 -0.04057492 -0.16417882 -0.13117443
000120 e6 55 2f 3d b4 48 16 be 19 09 49 3d d7 22 11 3d
       0.04280653 -0.14676172 0.04908094 0.035433616
000130 d7 6d 2e 3e 1f b4 30 bd 3a f0 34 be 6c 0f 2e 3e
       0.17034088 -0.043140527 -0.17669764 0.1699807
000140 44 8b fc bd 2d ff 03 3e bb 9d de bd 62 68 b5 bd
       -0.1233125 0.1289031 -0.108699284 -0.088578
000150 de da 8f bc 48 94 f7 3b 44 34 20 3d 7a 2f 20 bd
       -0.017560419 0.0075555183 0.039112344 -0.039107777
000160 6d 39 58 3e 1e d5 84 3d 0a c5 c1 bd 2e a0 11 bc
       0.21115656 0.064859614 -0.0946141 -0.0088882875
000170 c0 80 f7 3d d2 0a 27 3e 82 0a 67 bc d5 22 2f 3e
       0.12085104 0.16312721 -0.014101626 0.17103131
000180 10 10 09 3e 6e 90 4c 3d 8f 58 30 3d 4e e5 47 be
       0.13385034 0.049942426 0.043053206 -0.19521067

fc2.weight f4 [75, 100]
000000 a0 39 c4 bc 67 49 34 bd 2d 7d 86 bd 83 95 49 3d
       -0.023953259 -0.044015314 -0.06566844 0.04921485
000010 05 b6 ab 3d 81 fd 01 bd 35 af 73 bc 46 39 ea bc
       0.08384327 -0.0317359 -0.014873316 -0.028591763
000020 8d ba 43 3d 02 6c bb 3d cd 8b 45 3d 3f e9 22 bc
       0.04778533 0.0915146 0.048229028 -0.0099433055
000030 1f 46 2f bd 01 8b 9b 3d c7 d8 06 3d ed 97 55 bd
       -0.042791482 0.07594872 0.03292158 -0.05214684
000040 70 78 55 3d 01 04 fd bc 54 40 54 bc d6 3e a7 3d
       0.05211681 -0.030885698 -0.01295479 0.08166282
000050 5c 93 83 bd 80 64 6d bc c4 ac 82 bd 8b 06 c6 bd
       -0.06424591 -0.014489293 -0.06380609 -0.09669217
000060 2e 9e 86 bd 31 de 81 bd 6e f2 84 3c 84 f5 4e bd
       -0.06573139 -0.06341208 0.01622888 -0.05052711
000070 06 b4 3f bb d4 de f3 bc ad 51 3f bd d2 eb 09 bc
       -0.002925159 -0.029769339 -0.04670875 -0.00841804
000080 20 5d 8c bd 5d fa ee 3c 25 ce c6 bd e3 bd 2c 3d
       -0.068537 0.029172117 -0.09707288 0.042173278
000090 b9 66 c7 3d af 92 99 3d c1 0d c0 3b 64 2c 77 bd
       0.0973639 0.07498681 0.0058610146 -0.06034507
0000a0 4e c6 77 bc ad 59 c0 3d 2b 10 0d bc 2c 9e 6d bb
       -0.015122963 0.09392104 -0.008609812 -0.0036257608
0000b0 07 a6 b9 bd 5e a3 8f 3d a6 3a 9c 3c 5c 4e a7 bd
       -0.0906487 0.07013582 0.019070935 -0.08169243
0000c0 d0 d4 86 bd 84 cc 71 bd 5c ea c8 bd 47 f2 0b 3d
       -0.065835595 -0.059032932 -0.098103255 0.0341666
0000d0 ff 4c 06 bd 51 ec bd 3d 02 84 96 bd 88 01 46 3c
       -0.032788273 0.092735894 -0.07349397 0.012085326
0000e0 93 35 be 3d 41 57 7a bd 92 7d 02 3d 80 f1 b7 bc
       0.09287562 -0.061118368 0.031858034 -0.022454023
0000f0 20 86 5a 3d f4 93 63 3d 41 a2 8d 3d 63 45 bc 3d
       0.053350568 0.05556102 0.06915713 0.09192922
000100 2d e2 81 3c 00 7d fa bb cc 17 a6 bd 79 0d 95 3d
       0.01585492 -0.0076442957 -0.08110008 0.0727796
000110 45 ac 92 3d f0 92 b0 bd 10 6a 51 3c d0 da 5a bd
       0.07161764 -0.08621776 0.012781635 -0.053431332
000120 ad 88 5b bd c8 71 83 3c 7c af ae 3d b7 c5 a9 3c
       -0.05359714 0.016045466 0.08529565 0.02072416
000130 37 aa c6 bd 7c 45 f8 3b a9 7f 85 3d bc 8d aa bd
       -0.09700435 0.0075766426 0.0651849 -0.08327815
000140 8c 9a df bc 52 41 28 3d 92 5b 67 bd eb d9 1a bd
       -0.027295373 0.04107792 -0.056483813 -0.03780548
000150 e7 69 3a bd e9 30 5f 3d 97 01 57 bd 49 41 95 3d
       -0.045511153 0.054490004 -0.05249175 0.07287843
000160 f3 8b 78 bc 5f 91 18 3d 0c b7 a3 bc d7 6c 14 bd
       -0.015170085 0.03724801 -0.019984744 -0.03623661
000170 6f 55 4f 3b e9 f2 82 3d 50 1b 97 bb a4 5e 9f 3d
       0.0031636616 0.06393988 -0.00461141 0.07781723
000180 a2 4f 65 bd 6c bc e2 bc 07 76 f9 3b 21 6b 03 3d
       -0.055984147 -0.027677737 0.007612947 0.032084588
000190 8b 64 39 bc 9d 2d 0d bd 5b d4 b4 bd c9 84 8b bd
       -0.011315475 -0.03446733 -0.08829566 -0.06812436
0001a0 9f 57 f6 bc 9c de a0 bd ac cf 85 bc 40 e8 21 3d
       -0.030071078 -0.07854959 -0.016334377 0.03952813
0001b0 9c 06 58 bd 78 87 ca bc e2 24 6a 3d 8d d8 5e bd
       -0.05274068 -0.0247228 0.05716408 -0.054405738
0001c0 0f 42 f2 bc 21 6d 9b 3d 38 05 af bc 90 3e 6a 3c
       -0.029572515 0.07589174 -0.021364793 0.014297143
0001d0 fc 87 b7 3d af a9 56 bc fa f0 a3 3d b0 c0 8b bd
       0.08961484 -0.013101979 0.08004947 -0.068238616
0001e0 a3 6b ac 3d fe 59 7c bd 0b f5 bd bd 0c c5 81 3d
       0.084189676 -0.06160926 -0.09275254 0.06336412
0001f0 d8 c2 9a bd 31 b1 14 bd 90 4c 5b 3d 1c a0 ae 3c
       -0.07556695 -0.036301795 0.053539813 0.02131658
000200 53 e9 9c bd 90 6f 0a bd f3 60 82 bb 48 56 8c bd
       -0.076616906 -0.0337978 -0.0039788424 -0.06852394
000210 8f ea 21 3b 44 27 e0 3c 8a 7c 44 bd 55 26 c3 3d
       0.0024706458 0.027362473 -0.047970332 0.09528796
000220 39 92 09 3b 6b 4f 35 3d d0 3d 10 ba c2 bf 4f 3c
       0.0020991697 0.044265192 -0.0005502375 0.012679996
000230 02 b5 a0 bd b2 f9 05 3d a9 e5 bb 3d 71 3d 89 bd
       -0.078470245 0.03270883 0.091746636 -0.06701172
000240 50 7e 66 bc ca 05 86 3d 74 67 c1 bd 6b fd 10 3c
       -0.014068201 0.06544073 -0.0944356 0.008849482
000250 3c ce e3 3c f9 62 a3 3d a8 0a c3 bd 4f 7e a0 bd
       0.027808301 0.07977862 -0.09523517 -0.078365915
000260 a3 d4 18 bb 2e e4 c9 3d a5 ca c4 bd 1b 1b 2b 3c
       -0.00233201 0.09857975 -0.09608964 0.010443474
000270 f9 17 0c bd 07 52 cc 3b a4 d0 13 bd ee 7d 7e 3d
       -0.03420255 0.0062353644 -0.036087647 0.062131815
000280 d7 30 62 bd 7a 13 2b 3d 07 a4 aa bd 40 d5 8a bd
       -0.05522236 0.04176662 -0.08332067 -0.067789555
000290 4f 6e f6 bc 15 41 9c 3d a9 62 ea bc cb 20 51 3c
       -0.030081896 0.07629601 -0.028611498 0.012764166
0002a0 f2 22 14 3d 75 67 c9 3d 72 29 51 bd d7 5f 50 bd
       0.03616614 0.09834186 -0.051064916 -0.05087265
0002b0 eb 68 bf 3d cd 9d 5b bd 2c d6 bb 3c c0 c5 7f bc
       0.093461834 -0.053617287 0.022929274 -0.015611112
0002c0 a5 5f fa bb ed e7 93 bd 5d a1 39 bd 4b 02 20 3d
       -0.0076407962 -0.07221971 -0.045319904 0.039064687
0002d0 69 f5 a3 3d 4c 26 4d 3c 26 a5 41 3d e5 30 cb bd
       0.08005793 0.012521338 0.04727664 -0.09921435
0002e0 1b 8e b7 3d f9 2b 9a 3d 30 58 a4 bd f4 a6 bb bc
       0.08962651 0.07527918 -0.08024633 -0.022906758
0002f0 54 07 9b 3d 00 76 5b 3b c0 c4 b3 3a 3f a5 87 3d
       0.07569757 0.0033487082 0.0013715252 0.06623315
000300 0d e0 28 bd b2 dc a1 bd 52 13 b9 bd 5b 8a 4e bb
       -0.041229296 -0.079034224 -0.09036888 -0.0031515572
000310 6a 44 82 bd bd b2 00 3d a1 53 8b bc ef 2c cb bd
       -0.06360705 0.031420458 -0.01700765 -0.0992068
000320 53 e4 13 3d 04 77 e5 3c a0 57 9f bc ba 05 b6 bd
       0.03610642 0.028010853 -0.019450963 -0.08887811
000330 87 f9 ae bd 45 11 71 bd fc 1d d5 3c b5 71 ae bd
       -0.08543687 -0.05885436 0.026015274 -0.08517782
000340 df 48 b2 3d af a1 76 3c 3d fb bf bd 90 00 26 bd
       0.08705305 0.015053197 -0.09374092 -0.04052788
000350 cd 6f 6f bd 70 59 09 bd cb 38 aa 3d 6f 80 df 3b
       -0.05845623 -0.03353256 0.08311614 0.0068207304
000360 65 bf 63 bd 01 b0 58 bd 80 1c cc bd f4 fa 9a 3c
       -0.05560245 -0.052902225 -0.099663734 0.018918492
000370 cc 20 bf bc dd b7 97 3d 09 3a 95 3d 02 90 94 bd
       -0.023331068 0.07408116 0.0728646 -0.0725403
000380 e1 68 c0 bd a2 91 24 3d 8a 43 f9 ba 52 e9 38 3d
       -0.09395004 0.04017795 -0.0019017321 0.045144387
000390 5b 5f 55 bd b0 bc e8 3c d1 30 8f bd 67 0d 0a bd
       -0.05209289 0.028410286 -0.06991733 -0.033704188
0003a0 bd 1f 4b 3d ad ea c6 3d 60 ef cb bb a0 3e c9 3b
       0.049590815 0.097127296 -0.006223604 0.0061414987
0003b0 00 8c 42 3c cd e6 8d bd 8a 12 01 bd 46 84 9d 3c
       0.011874199 -0.069287874 -0.03151182 0.019228112
0003c0 90 e3 21 bd fd 32 b9 3d 8d 22 be 3d b0 e3 a2 3b
       -0.03952366 0.09042928 0.09283934 0.00497099
0003d0 de 7d 93 bd 9f e9 99 3d 60 77 6f 3b ee f2 c1 3d
       -0.07201742 0.07515263 0.003653966 0.09470163
0003e0 94 86 9f 3d e2 92 15 3d ba 94 93 bd 07 59 6c bd
       0.077893406 0.03651703 -0.07206102 -0.05770209
0003f0 23 0a 38 3c 53 74 0c bc e8 b5 8d bd 94 da dd bc
       0.0112328855 -0.008572656 -0.069194615 -0.027081765

fc2.bias f4 [75]
000000 2c ef 33 3d e8 64 17 3b 46 7a 59 bc 27 72 31 3c
       0.043929264 0.0023100916 -0.013273781 0.010830439
000010 86 83 f5 3d da 40 95 bd bf ff 0c 3d 05 5e dd bc
       0.11987977 -0.0728776 0.034423586 -0.027022371
000020 75 1d 42 bd 1d c8 95 3d 38 67 66 bd 65 87 40 3d
       -0.047391374 0.07313559 -0.05625078 0.047004122
000030 1b bd 54 bd 8c a0 d7 bc e3 46 92 3c fb 74 ca bc
       -0.051938158 -0.026321672 0.017856067 -0.024713984
000040 d9 6f d1 3c 8e 00 65 3d 49 c3 45 bd 0e 89 0c bd
       0.025566028 0.055908732 -0.04828194 -0.034310393
000050 c5 72 80 3b dc 3a b6 bc dd ca 1d 3c 56 fa a0 bd
       0.0039199316 -0.022244863 0.009630886 -0.07860248
000060 2d b0 b1 bd 24 fe 96 bd 09 9c 89 3d c0 6b 1d bd
       -0.08676181 -0.07372692 0.067192145 -0.038432837
000070 6e 48 8c bd 3a ed 04 ba ef 8b 91 bd 9e 7c b3 bd
       -0.06849752 -0.000507075 -0.07106768 -0.08764003
000080 41 2e 84 3d 83 2c 8b bd 06 7d 27 3c 5c 3f 7c bc
       0.06454135 -0.06795599 0.010222679 -0.015395965
000090 b7 16 0c 3e 04 e4 9c bd 9e dd 88 3d 12 f8 34 3d
       0.1368054 -0.07660678 0.06682895 0.04418189
0000a0 f4 72 74 3d 35 51 5b bd d8 e2 59 bd 66 22 32 3d
       0.05967994 -0.053544242 -0.05319485 0.043489836
0000b0 5a a8 14 3c de a7 a8 bd ab 9f d7 3b 86 03 67 3d
       0.009073341 -0.08235143 0.006580313 0.056399845
0000c0 21 17 39 3d 54 0f 52 bd 22 4a 30 3e 13 ed af bd
       0.045188073 -0.05128415 0.1721578 -0.0859014
0000d0 00 cb 8c 3d ad 0d 33 3d 0e ac 5e bd f3 d0 53 3d
       0.06874657 0.043714214 -0.054363303 0.05171294
0000e0 1f ca 5a 3d 49 95 58 3d f4 d9 5a bd 1b f5 bc 3c
       0.053415414 0.052876744 -0.053430513 0.023066094
0000f0 ae 7b 6a bd 66 a6 88 3d 74 01 d1 bd 2e 76 c6 bd
       -0.057246856 0.06672363 -0.10205355 -0.0969051
000100 ab 7f 46 3d ae 3b a9 3d 96 fa 73 bd db 91 58 3d
       0.048461597 0.08263336 -0.05956515 0.052873474
000110 46 fd 68 3b 20 59 a5 3a 4e e8 4d 3d 89 8f 40 3c
       0.0035551353 0.0012615062 0.05027037 0.011752971
000120 de f9 f4 bc 0d 2e 33 3c 6a 56 88 bd
       -0.029904302 0.010936272 -0.06657107

fc3.weight f4 [50, 75]
000000 30 65 e3 3b 0e 78 b5 3d d6 30 9a bd 1a 88 a8 3d
       0.0069395527 0.08860789 -0.07528846 0.08229084
000010 3c d9 93 bc 9e ac 85 bd 5e ce ae bd 10 b6 8b 3c
       -0.018047921 -0.06527065 -0.08535455 0.017054588
000020 c2 ad d1 3d 8e 0f b1 bd 00 58 20 3b 8e 31 ad bd
       0.1023822 -0.08645545 0.0024466515 -0.084567174
000030 d8 a5 c0 bd a8 92 5c 3d b4 9e ad bd d0 a8 f2 bb
       -0.09406632 0.0538508 -0.08477536 -0.007405378
000040 52 d3 ca 3d c2 15 b6 bd f0 00 f1 3c 00 67 87 3d
       0.099035874 -0.08890869 0.029419392 0.066114426
000050 00 f0 21 bc 7f 41 c4 bd 54 f5 7c 3d 3c b8 4e 3d
       -0.009883881 -0.09582805 0.0617574 0.05046867
000060 c0 22 92 3c 4c fb 8c bc ab c8 83 bd e0 1e bc 3b
       0.017838836 -0.017209671 -0.06434759 0.0057409853
000070 33 a5 63 bd 14 18 91 3d 10 95 a1 bc e0 f8 06 3d
       -0.055577468 0.07084671 -0.019724399 0.03295219
000080 60 85 d8 3d 33 cf ae bd 4e f3 c5 bd 62 83 b8 3d
       0.10572314 -0.08535614 -0.09665547 0.09009434
000090 b8 75 72 bc b2 d9 dc bd 28 99 9d bc f4 c0 15 3d
       -0.014798574 -0.107837096 -0.01923807 0.036560968
0000a0 cd 96 85 bd 0c fb 31 3d 10 51 f1 bb d4 89 d7 bd
       -0.065229036 0.043452308 -0.0073643997 -0.105243355
0000b0 d0 14 03 3c c3 89 6d bd 81 32 89 bd 74 09 24 3d
       0.008000568 -0.057992708 -0.06699086 0.040048078
0000c0 80 84 aa 3b 94 43 6d 3d fa 62 83 bd 46 b4 76 bd
       0.0052037835 0.057925776 -0.06415363 -0.060230516
0000d0 88 6d 22 bc 41 31 be bd 10 bd 9e 3c 00 db 5f 3c
       -0.00991381 -0.09286738 0.019377261 0.0136630535
0000e0 cc 3a e2 bd ba 5e eb bd 70 36 7c 3c 06 9a a9 3d
       -0.11046371 -0.11492677 0.015393838 0.08281331
0000f0 08 74 c7 3d f8 36 19 bd 89 83 e3 bd 10 53 b6 bb
       0.09738928 -0.037405938 -0.11109073 -0.005564101
000100 92 17 5c bd 38 f9 b3 3d 98 b2 b8 3c 72 9f da bd
       -0.053733416 0.08787769 0.022546098 -0.10674943
000110 b4 20 60 3d 98 c5 c9 bc 48 6b 03 bd b0 70 9c bc
       0.054718688 -0.024630353 -0.032084733 -0.019096702
000120 4c fd b6 bd 88 51 cc bc 18 9a 49 bc d7 83 ef 3c
       -0.08935031 -0.02494122 -0.012304805 0.02923767
000130 e2 64 98 3d 38 7d 63 bd cf 87 ad 3d d1 31 dc bd
       0.07441117 -0.05553934 0.08473169 -0.10751689
000140 6a d6 b9 bd dc 75 91 3d 29 8e d3 3d 48 5d 24 bd
       -0.09074099 0.07102558 0.10329849 -0.040128022
000150 01 55 0a bd c5 cd e9 3d 86 39 b7 bd d6 b4 81 bd
       -0.033772472 0.114162005 -0.089465186 -0.0633332
000160 a0 04 25 3d 58 9e 27 3d d1 40 bf bd 05 74 f9 bd
       0.040287614 0.040922493 -0.093385346 -0.12180332
000170 fa 52 ab bc 49 8b bf bd 61 1e 98 bd ce b6 da bc
       -0.02091359 -0.093527384 -0.07427669 -0.026698496
000180 5b c4 93 bc 1c 96 4d bd 72 fa 36 3d 64 2d 18 3d
       -0.018037966 -0.050191984 0.044672437 0.037152663
000190 da 86 35 3d 53 b1 81 3c 50 12 9f bd 45 9f 55 bd
       0.044318058 0.015831625 -0.07767165 -0.052153844
0001a0 12 11 19 3d 58 ee e8 bd fd 7e 37 3d 83 28 b7 bd
       0.037369795 -0.113735855 0.04479884 -0.08943274
0001b0 79 e2 35 bd 3f bd b6 3d 5b e0 98 bd 0d 1c e0 3d
       -0.044405434 0.089228146 -0.074646674 0.1094285
0001c0 82 0f 54 bd e2 6f 54 3d e8 58 e6 3c 2a 94 8a bb
       -0.051772602 0.051864512 0.028118566 -0.0042290883
0001d0 ce c7 c9 3d 74 ed ad 3d d3 91 c7 3d fa b0 b3 3d
       0.09852563 0.08492556 0.09744611 0.0877399
0001e0 e0 6a ac bd 60 5b 90 bb 39 d6 99 bd c2 3e 84 3d
       -0.08418822 -0.004405424 -0.07511563 0.064572826
0001f0 90 c5 8c bd 63 07 af 3c 02 01 ab bd 45 10 d2 3d
       -0.068736196 0.021365827 -0.083498016 0.102570094
000200 d4 7a 5f bd 4d 53 06 bd 37 97 7d bc 22 7f 28 bd
       -0.054560497 -0.032794286 -0.015477947 -0.04113687
000210 51 0b 87 bb 6f bb 8c 3d 74 40 28 bd 7d ea ef 3d
       -0.004121222 0.068716876 -0.041077092 0.11714647
000220 eb ad 5e 3d d9 b4 d3 bd 3a 89 6c bd 8c 22 a4 bd
       0.05436508 -0.10337228 -0.057748057 -0.08014402
000230 23 0d fd 3d 3f a0 9d bd 71 91 01 bd db 07 22 bd
       0.12356021 -0.0769658 -0.031632844 -0.039558273
000240 a2 56 cd 3b 28 eb 40 3d cc 46 d0 bd 4b c9 db 3d
       0.006266431 0.047099262 -0.101697534 0.10731753
000250 99 78 a1 3b 70 bb d4 3c 12 2e ad bc b5 c9 f8 3c
       0.0049277064 0.025968283 -0.021140132 0.030369619
000260 01 d2 58 bd d3 7d 0b 3d 62 c2 49 3d 13 97 76 bd
       -0.05293465 0.034055542 0.049257644 -0.06020267
000270 40 5c 07 be e2 8b 83 3d 01 5f 46 bc a0 ae d9 bd
       -0.13218784 0.06423165 -0.012107612 -0.1062901
000280 38 f1 e4 bd 97 0a d9 3d 9c 7d ce 3d 00 37 14 3c
       -0.11178821 0.10597723 0.10082552 0.009046316
000290 06 4a ad bd 7e 76 0f bd 0a 66 87 3d 21 bf be 3d
       -0.084613845 -0.035025112 0.06611259 0.09313799
0002a0 82 28 0d 3d 11 ed 36 3d ab b2 44 bc 19 ac 75 bd
       0.03446246 0.044659678 -0.012005488 -0.05997858
0002b0 d3 28 94 bc 23 35 c3 3c be 47 c2 bd 76 94 33 3d
       -0.018085873 0.023829048 -0.0948634 0.043842755
0002c0 7e 5f 7c bd 10 90 17 3d fb 75 cb bd 03 67 49 bc
       -0.061614506 0.037002623 -0.09934612 -0.012292626
0002d0 1a 32 1a 3d c9 d8 12 bc 26 c5 55 3d 6f e9 13 bd
       0.037645437 -0.008962818 0.05218997 -0.03611129
0002e0 02 ad 71 bd c9 93 65 bb 1c 30 a5 3d f7 4a 90 bd
       -0.059002884 -0.0035030714 0.08065817 -0.070455484
0002f0 bc 10 51 3d 98 09 b8 bc 27 b4 32 bd a8 a4 86 bd
       0.05104135 -0.022465512 -0.043628838 -0.065743744
000300 d5 6b ad 3c bc ae 67 3d a1 e6 b6 bc 7c 35 08 bd
       0.021169582 0.056563124 -0.02232677 -0.03325413
000310 b4 77 8d bb b6 e9 c1 3c f6 d9 11 3c 20 ca 1a bc
       -0.0043172482 0.023671012 0.008902064 -0.009447604
000320 68 f6 a9 3d 84 71 97 bd 48 82 4e 3d b3 d6 87 bd
       0.082989514 -0.07394698 0.050417215 -0.066327475
000330 24 45 c6 bd 9b 18 d5 bb ad 91 bd 3c 5f 40 ae 3c
       -0.09681156 -0.0065031773 0.023140753 0.021270929
000340 fc 22 07 bd 12 c8 6a bd 5a b7 87 3c 2a eb 4f 3a
       -0.032992348 -0.05731971 0.016566921 0.00079314655
000350 b6 62 69 3c 04 bd 76 3d 11 75 aa 3d ce 3e bb 3b
       0.014244726 0.060238853 0.0832311 0.005714274
000360 30 1d a2 bc 13 21 c1 3d 59 40 5a bc 35 71 3b 3d
       -0.019789308 0.094301365 -0.013321006 0.04576226
000370 3b ac ce 3d b6 ff ac 3b 26 23 ab bd 02 7e e6 3b
       0.10091444 0.0052795066 -0.083563134 0.0070340643
000380 ca 11 37 bd 84 1d cf bc 70 f0 c4 bb 8c 0d 2d 3d
       -0.0446947 -0.025282629 -0.0060101077 0.042249247
000390 e4 52 c9 bd a0 22 0d bb 2e c7 ab bd 30 01 cb 3c
       -0.09830263 -0.002153553 -0.083876 0.02478084
0003a0 9a a7 91 bd 98 7b 6b 3d c0 4f 2a 3d d8 81 fd 3c
       -0.071120456 0.057490915 0.04157996 0.030945703
0003b0 48 42 c4 3c 43 2d e6 bd e8 45 19 bd 08 32 e9 3c
       0.023957387 -0.11239102 -0.037420183 0.02846624
0003c0 c0 e7 95 3a 40 0a 93 bc 50 ea 49 3d c2 b8 09 bd
       0.0011436865 -0.017949224 0.049295723 -0.033623464
0003d0 84 32 64 3d bc 4a 30 3d f8 d1 5f 3d 3c 27 e6 bc
       0.055712238 0.043040022 0.0546436 -0.02809488
0003e0 78 e5 e5 bc e4 63 43 bd d0 a7 5e 3c d0 d5 0d 3d
       -0.02806352 -0.047702685 0.013589814 0.034627736
0003f0 00 6e 25 3d d0 06 d1 3c 60 3c 22 3c 3e 56 94 3d
       0.040388107 0.025515944 0.00990209 0.07243012

fc3.bias f4 [50]
000000 70 10 96 bd bc b1 cd 3d 4e fb 5e 3d d8 6a df bd
       -0.07327354 0.10043666 0.05443888 -0.10909051
000010 94 51 00 3e b1 f9 a0 3d 03 14 54 3d 83 fe 4d 3d
       0.1253112 0.07860125 0.051776897 0.05029155
000020 01 ee d3 3d 71 cf 93 3c 44 80 db bd 71 95 b6 3d
       0.1034813 0.018043252 -0.10717824 0.089152224
000030 41 aa 45 3d 8e a0 a2 3c 0d 25 e5 bd f5 1a ba bd
       0.04825807 0.019851949 -0.111887075 -0.09087173
000040 e5 c9 c2 bd 93 a7 c8 3d cc 64 d2 3d 89 66 97 3d
       -0.095111646 0.09797587 0.10273132 0.07392604
000050 ab 81 91 bd 37 dd a4 bd 7e 41 c3 bd a7 b2 36 3d
       -0.0710481 -0.08050006 -0.09533976 0.04460397
000060 30 fe b4 3d 68 af c3 3d 86 c8 02 3e 77 b6 b9 3d
       0.08837545 0.095549405 0.12771806 0.090680055
000070 49 13 a1 3d 6f 25 62 3d 30 84 00 bd 35 5e 3f bd
       0.078650065 0.05521148 -0.031376064 -0.046720702
000080 40 ca 41 bd a4 20 58 3d 52 18 a4 bd 38 12 54 bd
       -0.04731202 0.052765504 -0.08012451 -0.051775187
000090 a8 e0 cc bd 97 2a cd 3d d3 35 9d 3d 1e ff b4 ba
       -0.10003787 0.10017889 0.07676282 -0.0013808941
0000a0 70 47 c6 bd 1b 5a 6b bd 84 35 99 bd 46 19 82 3d
       -0.09681594 -0.05745898 -0.074809104 0.06352477
0000b0 90 59 ba 3d e3 8f fa 3c ee ec cf 3d a8 aa 0f bc
       0.09099114 0.030586189 0.101526126 -0.008768715
0000c0 0d c9 3a bd 64 de 95 bd
       -0.045601893 -0.07317808

out.weight f4 [3, 50]
000000 26 9d b3 bd 35 27 04 3e 78 78 1a bd 94 b7 8f 3d
       -0.08770208 0.12905581 -0.037712544 0.070174366
000010 00 4b 6a 3c 70 a4 d9 bd 30 cc c2 bd 44 93 81 3d
       0.014300108 -0.10627067 -0.09511602 0.06326917
000020 60 57 53 bc bf bd 05 be 38 a7 c9 bc 70 3e d7 3c
       -0.01289925 -0.13060664 -0.024615869 0.02627489
000030 9f c5 08 be 2c 87 c4 3d 14 b2 29 bd 58 d4 a7 3c
       -0.13356636 0.095960945 -0.041429594 0.020486996
000040 bc 0c 83 bd 0e 14 03 be 97 c3 ea bd c0 2d d8 3d
       -0.06398913 -0.12800619 -0.11463087 0.10555601
000050 44 57 aa 3d e0 5a d0 bb 75 76 01 3e fa f8 e9 3d
       0.08317426 -0.0063584894 0.12642844 0.11424442
000060 18 c2 a7 3d 8d 02 d3 bd e6 2d e8 3d e7 45 f3 bd
       0.08191317 -0.10303221 0.113368794 -0.11878567
000070 92 74 2a bd 2c b8 26 bd 4e 47 a7 3d ad ba 01 be
       -0.041615076 -0.040702984 0.08167897 -0.12668867
000080 83 f1 06 3e 18 ca 58 3d f8 dc 93 3d 22 da 59 bd
       0.13178067 0.052927107 0.07219881 -0.053186543
000090 3c 41 62 3d d4 a1 da bd 60 50 13 3d e4 ff e8 bc
       0.055237994 -0.106753975 0.035965323 -0.02844233
0000a0 18 41 e7 bd a8 98 f9 3c 22 54 ea 3d 00 6f 2c bb
       -0.112917125 0.0304683 0.11441828 -0.0026311278
0000b0 8f 26 9f bd 08 43 27 bd ae 50 cd 3d 1a ea 4a bd
       -0.07771026 -0.04083541 0.10025154 -0.049539663
0000c0 74 ce 86 bd 10 ea 83 3d f8 ff cd 3c 3c 3e 24 be
       -0.065823466 0.06441128 0.02514647 -0.16039366
0000d0 7b 3e 15 be 8a 1b fd 3d 02 7c 93 3e a7 14 8d bd
       -0.14574616 0.12358768 0.28805548 -0.06888705
0000e0 ca 45 36 3d ca bd 94 3d 99 a9 26 3e 38 3c 06 be
       0.04450015 0.07262762 0.16275634 -0.13108909
0000f0 1e df fe 3d ca 48 f7 3c 12 5a bd 3d 1c 0b f6 3d
       0.124449 0.030186076 0.09245695 0.12013838
000100 00 2f b6 3d 00 ec d0 3c a4 81 29 3d 01 e7 c2 3c
       0.08895683 0.025503159 0.0413834 0.023791792
000110 88 02 1f 3e 55 04 76 3d af 42 e6 3d 48 8b 87 bc
       0.1552831 0.060062725 0.11243188 -0.016545907
000120 dc 7c 9e bd 17 5d 85 bd cc 54 c5 bd 8d 8b 52 be
       -0.07738659 -0.06511896 -0.09635314 -0.20561047
000130 c0 77 3b be c8 06 3a 3e 49 c6 31 bc f6 ce f5 bd
       -0.183074 0.1816665 -0.0108504975 -0.12002365
000140 91 0d 49 3e 3d ca cf 3d c2 f6 ef 3d f7 19 a0 bd
       0.19634081 0.10145996 0.11716987 -0.078174524
000150 90 67 0d 3d 39 13 ba 3d 0e ae b0 3d e5 e3 55 3e
       0.034522593 0.09085698 0.08626948 0.20887716
000160 83 b4 ec bd fc c0 24 3d b3 6d f0 3d 00 e1 f1 3d
       -0.115578674 0.040223107 0.117396735 0.118104935
000170 93 08 05 3e 66 3a 1c be 2c 17 05 3d 11 4b 07 be
       0.12991552 -0.15256652 0.0324928 -0.1321223
000180 fd 82 65 3e d2 08 84 bd 7f f6 43 bd 72 2e ad bd
       0.2241325 -0.06446995 -0.0478425 -0.08456124
000190 e5 ee 0b 3e 44 94 14 bd 9c f6 1f 3d 00 2f eb bd
       0.1366535 -0.03627421 0.039053544 -0.11483574
0001a0 c0 9c 28 3d 10 d9 b7 3d 08 4a 39 3d 1b e4 94 bd
       0.041165113 0.08976948 0.045236617 -0.0727007
0001b0 70 f7 5f 3d 2e f7 c2 bd 7d 77 00 be 60 e3 d5 3d
       0.054679334 -0.09519802 -0.12545581 0.10443759
0001c0 7f f4 f4 bd ff ff a6 bd 98 1f 60 3d d2 a8 cf bd
       -0.119606964 -0.08154296 0.05471763 -0.10139622
0001d0 ec e9 36 3d 60 d6 b7 3c 1a 25 c4 3d f8 20 47 3d
       0.04465668 0.02244109 0.09577389 0.048615426
0001e0 9f 79 d9 bd 6d e9 a1 bd c2 a6 b1 3d 40 cd 6e bb
       -0.106189005 -0.079058506 0.08674385 -0.0036438257
0001f0 01 ef 00 be 5b 70 09 3e aa c1 05 be 46 00 90 3d
       -0.12591173 0.13421766 -0.13062158 0.07031302
000200 3b a5 f1 bd 7f 4f 08 3e 18 31 69 3d 68 33 9b 3d
       -0.11799093 0.13311575 0.056931585 0.07578164
000210 10 ac 43 bc ba 51 b6 3d af 8e 10 be ba 0c 97 bd
       -0.011942878 0.08902307 -0.1411693 -0.07375474
000220 ac 7b c5 bd 10 81 c4 bc a2 f6 57 bd a6 8a ae 3d
       -0.09642729 -0.023987323 -0.05272544 0.08522539
000230 24 e8 14 3d 70 73 c7 3d 46 cb 00 bd 0b 2e 02 3e
       0.0363542 0.09738815 -0.031443857 0.12712876
000240 9c 4d 5f 3d 90 e5 a3 3d ba b6 d8 bd 76 07 30 bd
       0.054517373 0.0800277 -0.10581727 -0.042975865
000250 00 12 15 3c 96 7a c7 3d
       0.00909853 0.09740178

out.bias f4 [3]
000000 e7 9c 10 3e 1a 16 37 3e b0 be a2 3c
       0.14122353 0.17879525 0.019866318
