models/56f25f274a8171a78028f1034bc7bdb9.pt (torch_old, 55793 bytes, 8 tensors)

fc1.weight f4 [100, 20]
0.14015889 -0.130312 0.11150578 -0.04713136 -0.21572424 0.15954694 0.1650377 -0.09624058
0.16593178 -0.16094612 -0.15766415 0.1723523 0.17745753 -0.0371425 -0.14770001 -0.0984412
-0.12628809 -0.11178903 -0.037423193 -0.006038174 -0.17693588 -0.16866007 -0.15499488 -0.091015145
0.06716148 -0.046927568 0.022499032 -0.059893683 0.08659785 0.07483261 0.040593468 0.03320946
0.028787067 -0.17785075 0.098042585 0.19001175 0.1909301 0.16061342 -0.06586857 -0.18022788
0.11596084 -0.21103427 -0.20844068 -0.161739 0.1296815 -0.114609815 0.097693056 0.08237237
0.051257502 0.11237474 -0.14155962 0.007295332 0.02750336 0.13012849 0.1957293 0.025248474
0.12727728 0.1366024 -0.0032602996 -0.21050419 -0.17409022 0.17423633 0.18637839 -0.10021115
-0.0387654 0.024609296 0.09394223 -0.14387852 -0.113194466 0.22588564 -0.110387936 -0.1798805
0.07353703 -0.048572063 -0.15550616 0.09947895 -0.0768957 -0.22114989 -0.16435625 0.094432294
0.13755193 0.13177702 0.097693026 -0.17716393 -0.10646235 0.17123997 -0.124910906 -0.14272001
0.17312157 -0.10448746 -0.1752741 -0.12391906 -0.034044597 0.09316367 -0.016940638 0.2010525
0.23639396 -0.101750694 -0.18759237 -0.15164438 -0.059374437 -0.14885384 0.047703743 -0.11853996
-0.1287298 -0.18987855 -0.06890498 0.19663948 0.12670377 -0.02652371 0.101461 -0.22017176
0.07897842 0.19293281 0.07109469 0.1655935 0.20986436 0.09081784 0.2130751 0.017926186
-0.18503723 0.10996753 0.14443916 -0.14954165 0.03531269 0.012354191 -0.005568755 0.122256
0.14124824 -0.18366364 0.10725435 0.12775227 0.21003067 -0.11905606 0.18932424 -0.20736845
-0.015950687 -0.003630206 -0.10174856 -0.12722912 -0.12740189 0.15157735 -0.053819194 -0.0722405
0.0051709116 -0.015115842 0.04720831 0.16296043 -0.15444139 -0.21111976 0.123277694 0.21698259
0.16128676 -0.12265386 -0.20550527 -0.10155944 -0.11298002 0.17844269 0.10101932 0.06345451
-0.05013624 -0.15166926 0.09338719 -0.09160255 0.03731972 -0.21824537 -0.16173914 0.045972735
-0.14142846 -0.17966199 -0.09985513 0.07616773 -0.03967622 0.118195176 0.09587723 -0.124363065
0.1195524 -0.11324407 0.1099776 -0.011997595 -0.13340713 0.0155605525 -0.13016501 -0.13081548
0.16895294 -0.19072288 0.14603421 0.011534274 0.19953026 0.13522643 0.04545766 0.02723679
0.09624088 0.06862798 -0.03876303 0.0029610246 0.15322143 0.011669099 -0.047434554 -0.070511
0.15718395 -0.091808245 0.050225258 -0.20242353 0.22294438 -0.118366696 0.21817225 0.007918194
-0.19492394 0.19387485 0.14295653 0.044544697 -0.15682039 -0.12039602 -0.17483886 0.035336703
-0.043966025 0.08997899 0.13506421 -0.1499836 -0.12475947 -0.18644717 0.21159357 0.20650437
0.21278626 -1.2397766e-05 -0.06308931 -0.112296745 -0.17293566 -0.2125569 -0.17540357 -0.17467615
0.1460109 -0.10805394 0.082043126 -0.18489982 -0.1790749 0.093603134 0.09364593 -0.033023164
-0.019476637 -0.16857181 -0.021186545 0.18502894 -0.13877839 -0.09464197 -0.07644364 -0.15245911
-0.2060374 -0.19942269 0.16906054 -0.08824743 0.050740242 0.13677679 -0.12644932 -0.042734116
00000000: d085 0f3e 8270 05be 245d e43d d00c 41bd
00000010: d1e6 5cbe 4660 233e a5ff 283e c819 c5bd
00000020: 05ea 293e 0fcf 24be b672 21be 1f7d 303e
00000030: 6db7 353e bc22 18bd ac3e 17be 8a9b c9bd
00000040: aa51 01be a6f1 e4bd 1049 19bd e0db c5bb
00000050: ae2e 35be 3ab5 2cbe fab6 1ebe 2666 babd
00000060: f58b 893d 1f37 40bd e44f b83c 1453 75bd
00000070: 375a b13d d741 993d 5645 263d a506 083d
00000080: dbd2 eb3c 821e 36be 8dca c83d 7192 423e
00000090: 2e83 433e d877 243e 1ae6 86bd a88d 38be
000000a0: e07c ed3d 5e19 58be 7971 55be e99e 25be
000000b0: 3acb 043e 8db8 eabd 4c13 c83d d8b2 a83d
000000c0: 63f3 513d ba24 e63d 01f5 10be ae0d ef3b
000000d0: ba4e e13c 6740 053e 436d 483e e3d5 ce3c
000000e0: fa54 023e 80e1 0b3e c0aa 55bb 698e 57be
000000f0: b544 32be 026b 323e fad9 3e3e 813b cdbd
00000100: 78c8 1ebd 6f99 c93c c964 c03d e454 13be
00000110: 80d2 e7bd 914e 673e 1213 e2bd 9832 38be
00000120: 959a 963d 80f3 46bd 023d 1fbe 9fbb cb3d
00000130: 7e7b 9dbd 1e75 62be 014d 28be b865 c13d
00000140: 6ada 0c3e 8ef0 063e 4813 c83d 766a 35be
00000150: ef08 dabd 8859 2f3e 4ad1 ffbd 3225 12be
00000160: c846 313e 85fd d5bd 0e7b 33be 47c9 fdbd
00000170: 5972 0bbd 98cc be3d 18c7 8abc b5e0 4d3e
00000180: 4211 723e ab62 d0bd 3718 40be aa48 1bbe
00000190: 9c32 73bd 246d 18be 0065 433d 14c5 f2bd
000001a0: bfd1 03be 866f 42be 0e1e 8dbd dc5b 493e
000001b0: a2be 013e 4048 d9bc c9ca cf3d b574 61be
000001c0: 70bf a13d 2e90 453e 189a 913d 5891 293e
000001d0: afe6 563e b4fe b93d 5c30 5a3e f0d9 923c
000001e0: 667a 3dbe a836 e13d dce7 133e 7221 19be
000001f0: 0aa4 103d 3c69 4a3c 1a7a b6bb 5b61 fa3d
00000200: 61a3 103e 5212 3cbe 2ba8 db3d 7ed1 023e
00000210: 4812 573e aad3 f3bd 37de 413e 6558 54be
00000220: 04ab 82bc c0e8 6dbb 8d61 d0bd 5a48 02be
00000230: a475 02be 1837 1b3e 8471 5cbd d4f2 93bd
00000240: c070 a93b 70a8 77bc 805d 413d 19df 263e
00000250: e225 1ebe c72f 58be 0479 fc3d af30 5e3e
00000260: 5b28 253e f231 fbbd f96f 52be 65fe cfbd
00000270: 1262 e7bd aeb9 363e 38e3 ce3d 70f4 813d
00000280: a85b 4dbd 304f 1bbe c841 bf3d 1e9a bbbd
00000290: 90dc 183d b77b 5fbe f29e 25be e84d 3c3d
000002a0: 9fd2 10be 50f9 37be d980 ccbd d4fd 9b3d
000002b0: 8883 22bd 5010 f23d 485b c43d 10b2 febd
000002c0: e4d7 f43d 82ec e7bd f03b e13d 9091 44bc
000002d0: e19b 08be b0f1 7e3c fa49 05be 7ef4 05be
000002e0: 0002 2d3e dc4c 43be fe89 153e 40fa 3c3c
000002f0: a951 4c3e cc78 0a3e d031 3a3d b01f df3c
00000300: f019 c53d d48c 8c3d fcc5 1ebd c00d 423b
00000310: 14e6 1c3e c02f 3f3c bc4a 42bd 1268 90bd
00000320: d4f4 203e f605 bcbd 00b9 4d3d 1d48 4fbe
00000330: 884b 643e 3d6a f2bd 8c68 5f3e 50bb 013c
00000340: 249a 47be 2187 463e 3263 123e 8074 363d
00000350: 8695 20be 3092 f6bd f508 33be 38bd 103d
00000360: b815 34bd e846 b83d 464e 0a3e 4d95 19be
00000370: e581 ffbd 02ec 3ebe fcab 583e e275 533e
00000380: a4e4 593e 0000 50b7 f834 81bd d6fb e5bd
00000390: 0c16 31be 84a8 59be fe9c 33be 4ede 32be
000003a0: e283 153e 624b ddbd 3a06 a83d 6156 3dbe
000003b0: 695f 37be 00b3 bf3d 70c9 bf3d 4c43 07bd
000003c0: 788d 9fbc 179e 2cbe 688f adbc 3a78 3d3e
000003d0: ec1b 0ebe a6d3 c1bd 7c8e 9cbd 3e1e 1cbe
000003e0: 78fb 52be 7635 4cbe 351e 2d3e 12bb b4bd
000003f0: 00d5 4f3d 370f 0c3e ee7b 01be f809 2fbd

fc1.bias f4 [100]
0.027204536 0.009234563 0.12662359 0.010864435 0.07433668 -0.118923225 0.25457755 -0.14221925
-0.15029262 -0.18675749 -0.15115818 -0.05817246 -0.09742527 0.07011215 0.18611889 -0.10181725
0.21693291 -0.13127196 -0.1282076 -0.07324771 0.21997242 0.11875079 -0.14555451 -0.17519987
0.09786191 0.20614873 0.14590235 0.118398145 -0.21819338 0.18023045 -0.15209708 0.16670758
-0.018893236 0.18169768 -0.16993575 0.018745936 -0.050823536 -0.10833548 0.22368687 0.04014034
-0.061008047 0.16046 -0.18686983 -0.07091619 0.062039446 -0.12448393 0.027887221 0.0035072018
-0.1517894 0.18541874 0.08759087 0.0477331 0.13505846 -0.22303292 -0.14484265 0.067169614
0.11659685 0.17331588 0.0018218381 0.20641834 0.25386843 0.20537543 -0.21603665 -0.08463788
-0.14086644 0.07714146 0.09306273 -0.08235131 0.2194421 0.13690788 -0.12304395 0.12401668
-0.19530615 -0.030254498 -0.19944665 0.035357207 -0.20328508 -0.19750342 0.25614676 -0.008416214
0.009918942 -0.028769812 0.075155556 -0.09762286 -0.028415836 0.06932404 0.12897125 0.024085945
-0.044973206 -0.028540771 0.13671717 -0.20050606 -0.18762137 0.13705237 -0.14261442 0.06669077
-0.1463893 0.12597348 0.049350332 -0.21067412
00000000: 0cdc de3c 914c 173c 9da9 013e be00 323c
00000010: d43d 983d 058e f3bd fd57 823e eca1 11be
00000020: 4fe6 19be 5b3d 3fbe 36c9 1abe 3f46 6ebd
00000030: e686 c7bd f596 8f3d f395 3e3e 9085 d0bd
00000040: a923 5e3e 286c 06be da48 03be e502 96bd
00000050: 7340 613e 9d33 f33d 3e0c 15be 9867 33be
00000060: d36b c83d a718 533e 6d67 153e ba7a f23d
00000070: 166e 5fbe 558e 383e 56bf 1bbe 64b5 2a3e
00000080: fdc5 9abc f50e 3a3e a303 2ebe 1491 993c
00000090: 572c 50bd fede ddbd 2c0e 653e 326a 243d
000000a0: 93e3 79bd a04f 243e ce5a 3fbe 823c 91bd
000000b0: 131d 7e3d 6ef1 febd be73 e43c 15d9 653b
000000c0: ae6e 1bbe 69de 3d3e d862 b33d c883 433d
000000d0: c44c 0a3e be62 64be a251 14be 3990 893d
000000e0: 54ca ee3d b879 313e beca ee3a 545f 533e
000000f0: 0bfb 813e f04d 523e b638 5dbe a056 adbd
00000100: 4b3f 10be 57fc 9d3d ac97 be3d cea7 a8bd
00000110: 6eb5 603e 9431 0c3e 77fe fbbd 75fc fd3d
00000120: 56fe 47be 48d8 f7bc be3b 4cbe b8d2 103d
00000130: f729 50be 563e 4abe ab25 833e 29e4 09bc
00000140: 0f83 223c abae ebbc 28eb 993d 7eee c7bd
00000150: 54c8 e8bc c3f9 8d3d 0a11 043e e34f c53c
00000160: d335 38bd 56ce e9bc 96ff 0b3e 7651 4dbe
00000170: d11f 40be 7557 0c3e 8409 12be 2c95 883d
00000180: 14e7 15be 31ff 003e 9323 4a3d f5ba 57be

fc2.weight f4 [75, 100]
0.07641349 -0.05423789 0.073248364 0.05387091 0.03395845 0.032304585 -0.0584757 0.027642734
0.07041613 0.047285236 -0.09296916 0.028487481 0.035600346 0.059263803 -0.06735687 -0.005771436
0.07069994 0.06937944 0.015887879 0.09065855 -0.07405951 -0.074192405 0.041658126 0.06818161
-0.03751907 0.057403177 -0.034278855 0.025846519 0.0041702986 -0.07167443 -0.09704139 -0.0063858177
-0.039759923 0.027400937 -0.043986272 -0.09822261 -0.017554842 0.09125637 0.10543419 -0.015481964
-0.078964315 0.010531488 -0.0087616 0.09060568 0.06624531 0.0020975247 -0.04031929 0.057831965
-0.0103818625 0.044360995 0.09053322 -0.09552129 -0.08107531 0.043253846 0.011969328 0.02512871
-0.08676007 -0.066312425 -0.08661033 0.08343893 -0.018709868 -0.043673713 -0.08996332 0.010856778
-0.05566026 -0.03722725 -0.019650102 0.07688945 -0.05326426 0.004316613 0.09230179 -0.007106157
-0.05529236 0.087509 -0.08992858 -0.012082338 0.060709603 -0.014381403 -0.042577226 0.08688865
-0.09487789 0.07349581 0.09646239 -0.0561272 0.053322457 -0.033757456 0.020160835 -0.0876959
-0.06024133 -0.0020138025 0.045077015 -0.027911149 -0.080555215 0.101884045 -0.04693453 0.08552302
0.08254766 0.049526323 0.076324604 0.080006786 0.03659969 -0.060440455 0.035278738 -0.03102706
0.07579608 0.013145505 0.056634936 -0.015119079 0.08237649 -0.05594883 -0.042876028 0.09690222
-0.030504206 -0.097808614 -0.021891005 -0.07303671 -0.0400779 0.07162878 0.0067487136 -0.051591735
0.037823416 0.07956049 -0.0904926 -0.024743304 -0.1036214 -0.008921323 -0.06332373 0.00028702905
-0.015284404 0.007936144 0.012659338 0.041243352 0.018257579 -0.06385484 0.06649544 0.011628311
0.07169766 0.019654516 0.067431465 0.020847736 0.023081888 0.05627327 -0.00043728203 -0.049830105
-0.091006055 0.08205182 0.034183964 0.0063055097 -0.025541754 -0.04547075 0.042431023 -0.040217493
-0.009005407 -0.015174724 -0.025346458 0.06680273 0.09362005 0.03334979 0.06385696 0.09617647
-0.09462558 0.04327312 -0.07992107 -0.06848472 0.03675951 0.028938513 0.08169152 0.07075586
0.03331164 -0.026525775 -0.086815715 -0.06644392 -0.06569589 0.0077352845 0.026551269 0.079379044
0.057746105 0.0827596 -0.060760185 -0.07683422 -0.002199044 -0.065916404 -0.028843382 0.08780347
0.010241377 0.09074163 0.009135021 0.06865559 0.0018674213 -0.03993737 0.04662975 0.04247923
0.09902143 0.04004894 0.03307295 -0.0485322 -0.07050827 -0.007317472 -0.036847297 0.09119374
0.021293035 -0.061408903 -0.028589293 0.086389095 0.08245818 -0.06598046 0.012641898 0.014169958
-0.054815974 0.006540574 0.0072177933 0.06861403 0.046687786 -0.10312199 0.0061757085 -0.092649944
-0.07005266 -0.065851584 0.06760115 -0.057520464 0.081526384 -0.0682005 -0.050969545 0.0149834305
0.09189995 -0.08174055 -0.07144809 0.06464442 -0.0858194 -0.058972 -0.059341755 0.053993683
0.08210237 0.01178488 0.09791314 -0.018454406 -0.05736391 -0.0957938 0.022730643 -0.03701647
0.0020395524 0.019326312 0.060118504 -0.10272289 -0.03863726 -0.075088814 -0.059700638 -0.09069822
-0.07188178 0.035429545 -0.034220878 0.07584576 0.007714153 -0.07278565 -0.053408764 0.03447836
00000000: ad7e 9c3d 8d28 5ebd 3d03 963d bea7 5c3d
00000010: 0418 0b3d d051 043d 3784 6fbd 0473 e23c
00000020: 5536 903d 2aae 413d 9d66 bebd 945e e93c
00000030: abd1 113d 9abe 723d 66f2 89bd 501e bdbb
00000040: 21cb 903d cf16 8e3d 4c27 823c 31ab b93d
00000050: 83ac 97bd 30f2 97bd b6a1 2a3d cda2 8b3d
00000060: 99ad 19bd 981f 6b3d fc67 0cbd 14bc d33c
00000070: 00a7 883b 0bca 92bd a3bd c6bd 1f40 d1bb
00000080: 4ddb 22bd ee77 e03c f32a 34bd f028 c9bd
00000090: 2ccf 8fbc 9fe4 ba3d e1ed d73d 10a8 7dbc
000000a0: 0bb8 a1bd 438c 2c3c d08c 0fbc 798f b93d
000000b0: 9fab 873d a076 093b d725 25bd 36e1 6c3d
000000c0: b018 2abc e0b3 353d 7b69 b93d aba0 c3bd
000000d0: d00a a6bd f22a 313d 001b 443c b9da cd3c
000000e0: 43af b1bd cfce 87bd c260 b1bd 08e2 aa3d
000000f0: 7045 99bc 35e3 32bd b03e b8bd a1e0 313c
00000100: 03fc 63bd 9a7b 18bd 40f9 a0bc 3778 9d3d
00000110: a02b 5abd 6072 8d3b b908 bd3d c4da e8bb
00000120: 3e7a 62bd eb37 b33d 7a2c b8bd 00f5 45bc
00000130: a2aa 783d fa9f 6bbc 7565 2ebd adf2 b13d
00000140: 574f c2bd f984 963d 138e c53d a3e5 65bd
00000150: a668 5a3d 4245 0abd 5628 a53c e899 b3bd
00000160: 9dbf 76bd 00fa 03bb ada2 383d eca5 e4bc
00000170: 22fa a4bd 95a8 d03d 6c3e 40bd b126 af3d
00000180: bf0e a93d 1ddc 4a3d 1350 9c3d 99da a33d
00000190: 8ee9 153d 6990 77bd 7080 103d 762c febc
000001a0: fa3a 9b3d 3f60 573c 09fa 673d 03b6 77bc
000001b0: 01b5 a83d 9a2a 65bd c69e 2fbd ac74 c63d
000001c0: f5e3 f9bc e24f c8bd c454 b3bc 4594 95bd
000001d0: b928 24bd 1cb2 923d 5024 dd3b db51 53bd
000001e0: baec 1a3d 9cf0 a23d 2f54 b9bd 78b2 cabc
000001f0: 7537 d4bd be2a 12bc dfaf 81bd 637c 9639
00000200: 706b 7abc 9a06 023c 1d69 4f3c caee 283d
00000210: eb90 953c 54c6 82bd c32e 883d ac84 3e3c
00000220: 39d6 923d 8202 a13c 8219 8a3d dfc8 aa3c
00000230: 3a16 bd3c cd7e 663d 0043 e5b9 a71a 4cbd
00000240: 6261 babd c90a a83d 7c04 0c3d 739e ce3b
00000250: f13c d1bc 8a3f 3abd 27cc 2d3d 19bb 24bd
00000260: 6a8b 13bc 689f 78bc 60a3 cfbc dfcf 883d
00000270: debb bf3d ca99 083d 70c7 823d 2bf8 c43d
00000280: 0ecb c1bd 283f 313d a8ad a3bd b841 8cbd
00000290: 2491 163d 7610 ed3c e24d a73d 73e8 903d
000002a0: c971 083d 954c d9bc 70cc b1bd c013 88bd
000002b0: 918b 86bd 4578 fd3b 0c82 d93c 7b91 a23d
000002c0: 2e87 6c3d dd7d a93d acdf 78bd 425b 9dbd
000002d0: d61d 10bb 2eff 86bd f548 ecbc 4ed2 b33d
000002e0: 73cb 273c bfd6 b93d 0eab 153c 4d9b 8c3d
000002f0: 43c4 f43a 5e95 23bd d6fe 3e3d b3fe 2d3d
00000300: bfcb ca3d 5b0a 243d 8077 073d b3c9 46bd
00000310: a466 90bd 67c7 efbb 31ed 16bd c9c3 ba3d
00000320: bb6e ae3c e787 7bbd 1834 eabc c4ec b03d
00000330: d6df a83d c320 87bd f71f 4f3c 1d29 683c
00000340: b786 60bd 5052 d63b 3d83 ec3b 8385 8c3d
00000350: b13b 3f3d 9f31 d3bd 995d ca3b 41bf bdbd
00000360: c577 8fbd 32dd 86bd 7972 8a3d 949a 6bbd
00000370: 4ef7 a63d b4ac 8bbd 71c5 50bd 107d 753c
00000380: 0a36 bc3d 9767 a7bd 6053 92bd 4b64 843d
00000390: 15c2 afbd a08c 71bd 5710 73bd 7b28 5d3d
000003a0: 4a25 a83d 5f15 413c af86 c83d b22d 97bc
000003b0: 6bf6 6abd 8a2f c4bd 9d35 ba3c 959e 17bd
000003c0: 03aa 053b 3752 9e3c d23e 763d 6160 d2bd
000003d0: 1b42 1ebd 2ac8 99bd a888 74bd fdbf b9bd
000003e0: c136 93bd 921e 113d 312b 0cbd 0655 9b3d
000003f0: 01c7 fc3b a510 95bd 26c3 5abd 2e39 0d3d

fc2.bias f4 [75]
-0.07986922 0.03247141 -0.014698012 0.15349273 -0.09263618 0.10925564 -0.015033332 -0.017347163
0.01093705 -0.06973088 -0.08281393 -0.016419811 0.12040603 -0.09829009 0.0644249 -0.0073567256
-0.08982418 0.054944556 -0.031044776 -0.025120018 0.110714525 0.06535363 -0.009945486 -0.08490546
-0.016099751 0.021760806 -0.062469274 0.041637495 -0.052551176 -0.040746722 0.03629849 0.02187791
0.047851186 0.059655223 0.06671693 -0.041074228 -0.098392144 -0.073041104 0.023302736 -0.063178554
0.10947834 -0.04115182 0.08916736 -0.03194698 0.008571266 0.05783388 -0.09415454 -0.03500971
-0.032436024 -0.057126343 -0.016260859 0.01441361 -0.082762815 -0.053797543 0.18995441 0.00039834887
0.016528562 0.042217392 0.00817945 0.14084844 -0.036368817 -0.090384424 0.085103214 -0.045576204
0.18373178 -0.119252145 0.03834012 -0.12124703 -0.0693279 0.011997424 -0.07615456 -0.08072869
0.040197413 0.07783866 -0.046510365
00000000: 7992 a3bd be00 053d eecf 70bc 332d 1d3e
00000010: 0ab8 bdbd 6cc1 df3d 5d4e 76bc a31b 8ebc
00000020: 5031 333c 10cf 8ebd 5a9a a9bd d782 86bc
00000030: 7097 f63d 514c c9bd 34f1 833d b010 f1bb
00000040: bdf5 b7bd 8b0d 613d 9d51 febc 7fc8 cdbc
00000050: 4cbe e23d 20d8 853d 64f2 22bc eae2 adbd
00000060: a0e3 83bc b843 b23c c8df 7fbd 148c 2a3d
00000070: e73f 57bd 09e6 26bd baad 143d 4d39 b33c
00000080: 9bff 433d 0959 743d e3a2 883d 733d 28bd
00000090: d281 c9bd 9396 95bd 61e5 be3c c263 81bd
000000a0: 2e36 e03d d08e 28bd 609d b63d d6da 02bd
000000b0: 7f6e 0c3c 38e3 6c3d 18d4 c0bd 5766 0fbd
000000c0: a3db 04bd 50fd 69bd 7e35 85bc 1027 6c3c
000000d0: 8d7f a9bd d05a 5cbd 6983 423e 7bd9 d039
000000e0: e866 873c 25ec 2c3d 1a03 063c 933a 103e
000000f0: 78f7 14bd 781b b9bd 984a ae3d 1dae 3abd
00000100: 2f24 3c3e 783a f4bd 880a 1d3d 5d50 f8bd
00000110: c9fb 8dbd d890 443c ecf6 9bbd 1555 a5bd
00000120: 0ba6 243d e069 9f3d a781 3ebd

fc3.weight f4 [50, 75]
-0.11430093 0.09281734 -0.026795588 -0.06149864 0.1109367 -0.035757087 -0.080328435 -0.07102892
-0.023495004 0.105339244 -0.0792232 0.03889464 -0.085512824 -0.027332112 -0.085306786 0.061667755
0.05904515 0.06172733 0.036157325 0.043051302 -0.030063346 0.011424303 0.020157352 0.11382063
-0.109358706 0.055095628 0.11198513 0.10148415 -0.014517516 -0.041366324 0.06952463 0.005929649
0.040388346 0.05679646 0.08029653 -0.045957744 -0.043365814 -0.057298258 0.027187973 0.09202643
0.10286941 0.030367061 0.07285294 0.06974189 -0.105845094 0.06916225 -0.049402073 0.06618543
-0.02233699 -0.078753896 -0.013950653 -0.084852874 -0.057826646 -0.045420706 0.04936263 -0.08378491
0.08293894 0.023122847 0.065329045 -0.06175203 0.019904777 0.08028847 0.049369648 -0.07358315
-0.11161954 -0.102046244 0.037216276 -0.052827165 0.031349227 -0.03605339 0.10774019 0.0972946
0.0037885383 0.016179621 -0.0871912 -0.08817372 -0.04310974 0.090762205 0.020030025 0.01035437
0.011250909 0.078443676 0.103036925 0.046387766 0.052486077 -0.052957214 0.09697826 0.009326203
-0.042574808 0.076398015 0.08589636 -0.068211764 -0.02489103 -0.09830404 0.048189856 0.08057973
0.04798756 -0.056749556 0.05726762 0.10947552 0.003090157 0.051395684 0.019260885 -0.09926608
0.0082977 0.0030583767 -0.061264023 -0.13539419 -0.09126048 -0.108260445 -0.064863406 0.09472777
-0.061812185 0.102765776 -0.022924371 -0.08401065 0.072987124 -0.040336072 -0.019765131 -0.06727291
-0.067222625 -0.09572802 0.043033116 0.02568792 0.008483283 0.027257336 -0.088810384 -0.0058230385
-0.01378079 0.11061918 -0.05885708 0.11202124 0.077337414 0.08397508 0.16699784 -2.5751424e-06
0.113832265 0.040940624 -0.036119435 0.12526786 -0.021822592 -0.10231126 -0.004474556 -0.064395204
-0.08708069 -0.018748485 -0.11035781 0.05198955 0.14801712 0.080974594 -0.029902123 -0.06458624
-0.069592 -0.09367959 0.09739092 0.016583249 -0.044752583 -0.11007295 0.054046005 -0.03762874
0.03599015 -0.04721547 0.040431872 -0.037700094 0.05672331 0.054963842 0.0516662 -0.07078261
0.057614103 -0.022034489 0.10305807 -0.05019497 0.07836008 0.05870156 -0.081469834 -0.014531657
0.100885645 -0.030483782 -0.096298635 -0.10728469 -0.11369504 -0.009811766 -0.01599425 -0.06425023
-0.0991479 0.018903315 -0.051608853 0.04671991 0.06691852 0.03020598 -0.035558388 -0.021764085
-0.086243466 -0.01842378 -0.051651128 -0.02098684 0.06413944 -0.036245167 0.11414531 0.039208844
-0.010982305 0.09285468 0.022134274 -0.09947028 -0.100614645 0.064816505 0.026375279 -0.051134042
0.06553763 0.014612377 -0.09107989 0.045367703 0.031132892 0.07861486 -0.08370026 0.10537715
-0.08124224 0.08339989 0.019264892 0.081424594 -0.0017420128 0.076047674 -0.02432847 -0.049096264
0.06039153 -0.039543904 0.017090142 -0.074889794 0.0021406785 -0.02417668 -0.06939787 -0.10789274
0.061264887 -0.060137946 -0.042464174 0.009982884 0.10581173 0.02277793 -0.03529963 -0.06364535
-0.016763307 0.011004284 -0.059422214 -0.03562597 0.1052995 -0.017774463 0.0017430186 0.001470074
-0.087167785 0.015788704 0.048425525 -0.035046615 0.043097034 -0.04781954 0.06144297 0.062364995
00000000: 9b16 eabd 0417 be3d 6c82 dbbc ffe5 7bbd
00000010: c832 e33d 0676 12bd 3c83 a4bd 9c77 91bd
00000020: 9878 c0bc 1abc d73d c63f a2bd fc4f 1f3d
00000030: 5921 afbd 98e7 dfbc 53b5 aebd 5497 7c3d
00000040: 54d9 713d ccd5 7c3d b419 143d 9056 303d
00000050: 6847 f6bc 002d 3b3c 0821 a53c ca1a e93d
00000060: 75f7 dfbd f4ab 613d 7658 e53d ecd6 cf3d
00000070: e0da 6dbc bc6f 29bd ee62 8e3d 804d c23b
00000080: 406e 253d 68a3 683d 8272 a43d 303e 3cbd
00000090: 5aa0 31bd 94b1 6abd 50b9 de3c 5a78 bc3d
000000a0: 32ad d23d 58c4 f83c ec33 953d d6d4 8e3d
000000b0: 50c5 d8bd f0a4 8d3d d459 4abd 3a8c 873d
000000c0: 10fc b6bc b949 a1bd 4891 64bc 58c7 adbd
000000d0: a2db 6cbd 100b 3abd 7830 4a3d 6c97 abbd
000000e0: e4db a93d 206c bd3c 3ccb 853d b2ef 7cbd
000000f0: 580f a33c 486e a43d d437 4a3d c3b2 96bd
00000100: c998 e4bd 9ffd d0bd 1870 183d 4c61 58bd
00000110: 0c68 003d b8ac 13bd e4a6 dc3d 6442 c73d
00000120: 2049 783b 208b 843c 4d91 b2bd 6c94 b4bd
00000130: d793 30bd 89e1 b93d 0216 a43c 60a5 293c
00000140: bc55 383c 14a7 a03d 0605 d33d 1901 3e3d
00000150: a4fb 563d aae9 58bd 8a9c c63d eecc 183c
00000160: ec62 2ebd 9076 9c3d 6eea af3d 9cb2 8bbd
00000170: 46e8 cbbc a153 c9bd ba62 453d fc06 a53d
00000180: 9b8e 443d 3972 68bd 7491 6a3d b434 e03d
00000190: 3b84 4a3b 4884 523d 01c9 9d3c 044c cbbd
000001a0: 14f3 073c 0c6f 483b fcef 7abd c6a4 0abe
000001b0: c6e6 babd a7b7 ddbd 1bd7 84bd a200 c23d
000001c0: c62e 7dbd dd76 d23d e4cb bbbc c70d acbd
000001d0: 467a 953d 7037 25bd 7cea a1bc 61c6 89bd
000001e0: 04ac 89bd 0d0d c4bd 7e43 303d 796f d23c
000001f0: 78fd 0a3c c74a df3c 38e2 b5bd 30cf bebb
00000200: d3c8 61bc 4f8c e23d 1f14 71bd 646b e53d
00000210: 1463 9e3d 20fb ab3d 7b01 2b3e 9cd0 2cb6
00000220: e420 e93d 5bb1 273d f9f1 13bd 3846 003e
00000230: 4bc5 b2bc 9188 d1bd 4c9f 92bb a2e1 83bd
00000240: 5c57 b2bd 6c96 99bc 4703 e2bd fff2 543d
00000250: cd91 173e 02d6 a53d 4cf5 f4bc ca45 84bd
00000260: 4086 8ebd 16db bfbd e474 c73d 98d9 873c
00000270: 7c4e 37bd ed6d e1bd 585f 5d3d 9820 1abd
00000280: 686a 133d 0265 41bd e49b 253d 6a6b 1abd
00000290: b456 683d c421 613d f09f 533d 79f6 90bd
000002a0: c4fc 6b3d ac81 b4bc 1c10 d33d 3e99 4dbd
000002b0: 407b a03d 0c71 703d a8d9 a6bd 3016 6ebc
000002c0: 229d ce3d 20b9 f9bc 3838 c5bd 13b8 dbbd
000002d0: f2d8 e8bd 88c1 20bc 6006 83bc a095 83bd
000002e0: 0e0e cbbd 20db 9a3c ce63 53bd 605d 3f3d
000002f0: 940c 893d 8872 f73c aca5 11bd 984a b2bc
00000300: 6aa0 b0bd 78ed 96bc 2290 53bd 98ec abbc
00000310: 8a5b 833d d075 14bd 04c5 e93d 7499 203d
00000320: 20ef 33bc 982a be3d f052 b53c 13b7 cbbd
00000330: 0d0f cebd 84be 843d f810 d83c ee71 51bd
00000340: 9838 863d c068 6f3c 1888 babd 7cd3 393d
00000350: 680a ff3c d400 a13d 0b6b abbd facf d73d
00000360: 5562 a6bd 90cd aa3d 68d1 9d3c f0c1 a63d
00000370: 4054 e4ba e2be 9b3d 804c c7bc 2a19 49bd
00000380: 1c5d 773d caf8 21bd a000 8c3c d25f 99bd
00000390: a04a 0c3b 2c0e c6bc 7820 8ebd def6 dcbd
000003a0: e4f0 7a3d 3553 76bd eaee 2dbd 408f 233c
000003b0: d2b3 d83d c898 ba3c 5896 10bd 7e58 82bd
000003c0: 3453 89bc 504b 343c b564 73bd 8aec 11bd
000003d0: 44a7 d73d c09b 91bc 0076 e43a 80af c03a
000003e0: 0685 b2bd 5057 813c d859 463d 0a8d 0fbd
000003f0: 8486 303d 6cde 43bd a0ab 7b3d 7072 7f3d

fc3.bias f4 [50]
-0.082257114 0.11383436 -0.07016474 -0.11431084 -0.107975654 0.005803459 -0.079568006 -0.08428499
0.0765475 -0.01188578 0.10997592 0.1463681 -0.034909587 -0.11178999 0.05490913 -0.05359535
0.0036426485 0.003934562 -0.06387962 -0.01107946 0.11792038 0.12576084 -0.10263064 -0.07244945
-0.012949934 0.050262358 -0.08934875 -0.09028995 0.026059086 0.074464716 0.089766085 0.065686405
-0.011298814 -0.059086498 -0.094914846 -0.112640746 -0.09526597 -0.061639745 0.056737643 -0.025177125
-0.07387347 -0.040457565 0.106606685 -0.024286522 -0.00079012354 -0.046660215 -0.05527458 0.044537406
-0.024764083 0.097036004
00000000: 6b76 a8bd fd21 e93d 88b2 8fbd cd1b eabd
00000010: 5722 ddbd f12a be3b 8df4 a2bd 9c9d acbd
00000020: f0c4 9c3d 93bc 42bc 0e3b e13d 85e1 153e
00000030: 5bfd 0ebd 26f2 e4bd 65e8 603d cc86 5bbd
00000040: 80b9 6e3b 80ed 803b 51d3 82bd a086 35bc
00000050: 3d80 f13d 73c7 003e 0330 d2bd 6160 94bd
00000060: f62b 54bc e7df 4d3d 7afc b6bd f0e9 b8bd
00000070: dd79 d53c f580 983d 48d7 b73d 9886 863d
00000080: a91e 39bc af04 72bd b762 c2bd 31b0 e6bd
00000090: ce1a c3bd f579 7cbd bb65 683d 4240 cebc
000000a0: f94a 97bd d5b6 25bd 9b54 da3d 87f4 c6bc
000000b0: 4b20 4fba c81e 3fbd 9967 62bd db6c 363d
000000c0: 0cde cabc d0ba c63d

out.weight f4 [3, 50]
0.07484248 -0.06499672 -0.13838649 0.12766196 0.116112605 0.048541874 -0.08327268 0.042342007
0.049553685 0.030852959 -0.013980625 0.13383009 -0.024155572 0.13904169 -0.076123066 -0.053809606
0.1146241 -0.08018184 0.09535472 -0.13939385 -0.117146164 -0.13462442 -0.050802417 -0.08888042
-0.048639305 -0.12806034 -0.09283213 -0.101767346 0.025258249 -0.017063849 0.09241134 0.096096456
-0.1310632 0.07007865 0.028010786 -0.08691547 0.039631963 -0.09718551 -0.130475 -0.10246848
5.468726e-06 -0.0663479 -0.15306617 -0.020140521 0.01723114 -0.0037524253 -0.07592853 0.12427749
0.012947515 -0.009204159 -0.13899402 -0.185916 -0.042783923 0.08279115 0.060728133 0.1488569
0.2044385 0.15019025 0.05613787 0.045090023 0.18741871 0.27642316 -0.12591095 0.13551697
0.057554923 0.085303746 -0.018545538 0.06852801 0.35343584 -0.041040562 -0.13377224 -0.074834734
0.15372893 -0.08047581 0.023160826 0.09421837 0.10728504 0.38647524 0.13224806 0.012009022
-0.07265657 -0.009682191 0.045255322 0.041478377 0.13136117 0.036955997 -0.040136307 0.084993884
0.017387226 -0.06834784 -0.018766938 0.08592345 0.00073305925 0.3337365 0.028085006 -0.06399581
-0.10140021 0.14658262 0.14101885 -0.0049448987 0.050302953 -0.24256079 -0.10298817 0.06431034
0.10520351 0.00026226678 0.12393823 0.08308443 -0.076531656 -0.14018235 0.18747579 0.14829354
0.08210545 -0.069302425 0.24207726 -0.056281697 -0.08478992 -0.018830165 0.08658948 -0.023526505
0.120724924 -0.048679113 -0.002076212 0.10565233 0.054600522 0.01041797 -0.105806924 -0.030874541
-0.00971583 0.061945193 0.03482626 -0.09423602 0.02372787 -0.07278192 0.13166405 -0.04584551
0.113735124 -0.114918634 -0.069127984 -0.057955608 -0.13088304 -0.1354055 0.014557197 0.13201372
-0.17550536 -0.08750374 -0.088761404 0.23862216 -0.13002524 -0.06346557
00000000: 0447 993d 001d 85bd 30b5 0dbe d1b9 023e
00000010: 72cc ed3d d8d3 463d de8a aabd d06e 2d3d
00000020: cef8 4a3d 58bf fc3c fe0e 65bc c10a 093e
00000030: e8e1 c5bc f260 0e3e 69e6 9bbd 7667 5cbd
00000040: 0ac0 ea3d 6036 a4bd 5649 c33d 43bd 0ebe
00000050: 54ea efbd fcda 09be 3216 50bd f006 b6bd
00000060: 023a 47bd 4022 03be c61e bebd 666b d0bd
00000070: 63ea ce3c 7cc9 8bbc 2842 bd3d 38ce c43d
00000080: 6e35 06be 6585 8f3d e076 e53c bd00 b2bd
00000090: 2055 223d 3209 c7bd 3d9b 05be ffda d1bd
000000a0: 0080 b736 68e1 87bd 61bd 1cbe bcfd a4bc
000000b0: 5228 8d3c 40eb 75bb 6b80 9bbd 3285 fe3d
000000c0: d021 543c 0acd 16bc 7354 0ebe c460 3ebe
000000d0: 323e 2fbd 688e a93d 10be 783d f16d 183e
000000e0: 5358 513e 79cb 193e d3f0 653d 51b0 383d
000000f0: b1ea 3f3e 5687 8d3e cdee 00be f6c4 0a3e
00000100: b6be 6b3d bbb3 ae3d d0ec 97bc 6a58 8c3d
00000110: 8bf5 b43e 261a 28bd 97fb 08be f442 99bd
00000120: 1e6b 1d3e 80d0 a4bd c6bb bd3c 90f5 c03d
00000130: 42b8 db3d 15e0 c53e 096c 073e 7dc1 443c
00000140: f8cc 94bd 0da2 1ebc a55d 393d 3be5 293d
00000150: 8b83 063e 2c5f 173d f865 24bd 4611 ae3d
00000160: a86f 8e3c f4f9 8bbd 1fbd 99bc a2f8 af3d
00000170: c62a 403a 83df aa3e 8712 e63c 3c10 83bd
00000180: eaaa cfbd c119 163e 3f67 103e d108 a2bb
00000190: 780a 4e3d db61 78be 76eb d2bd 24b5 833d
000001a0: f074 d73d da80 8939 54d3 fd3d 2b28 aa3d
000001b0: a1bc 9cbd f68b 0fbe a7f9 3f3e 43da 173e
000001c0: e726 a83d 6eee 8dbd 1ae3 773e a387 66bd
000001d0: 56a6 adbd b841 9abc d355 b13d a8ba c0bc
000001e0: a13e f73d c063 47bd 0f11 08bb 4060 d83d
000001f0: cca4 5f3d 22b0 2a3c 4db1 d8bd 9bec fcbc
00000200: 252f 1fbc 3eba 7d3d fba5 0e3d d1fe c0bd
00000210: f360 c23c b00e 95bd f1d2 063e 80c8 3bbd
00000220: f6ed e83d 765a ebbd f992 8dbd dc62 6dbd
00000230: 3406 06be bda7 0abe 4f81 6e3c 9b2e 073e
00000240: adb7 33be 2935 b3bd 8ac8 b5bd 5e59 743e
00000250: 5625 05be 3dfa 81bd

out.bias f4 [3]
-0.1260695 0.03387036 -0.057923462
00000000: 5d18 01be a6bb 0a3d 2741 6dbd
