models/56f25f274a8171a78028f1034bc7bdb9.pt (torch_old, 55793 bytes, 8 tensors)

fc1.weight f4 [100, 20]
000000 90 ca 65 bc 52 94 45 3e 00 e9 b6 3a ce 6a 06 3e
       -0.014025345 0.19294861 0.0013954937 0.1312668
000010 f4 e0 26 be 31 01 f2 3d 68 2e 52 be 88 85 0a be
       -0.1629675 0.118166335 -0.20525515 -0.135275
000020 80 1b c4 3a e0 aa a6 bd 01 59 f2 3d ec b7 13 be
       0.0014961809 -0.081380606 0.118333824 -0.1442563
000030 25 14 28 be 5e 30 54 3d 81 71 50 be e4 cb 17 be
       -0.16413935 0.05180394 -0.20355798 -0.14823872
000040 f0 39 ed 3c eb 6a da bd 30 22 df 3c 4c 58 2a 3e
       0.02895829 -0.10664924 0.027237982 0.16635245
000050 60 8c ed 3b 4a 64 27 3e d0 cd ea 3d ad c4 2c be
       0.0072494 0.16346851 0.11465037 -0.16871901
000060 62 63 e4 3d 60 d3 96 3d 65 ff e0 3d a5 60 c5 bc
       0.11151768 0.07364535 0.10986213 -0.024093935
000070 1b 6f 64 3e 82 ae b5 bd b7 d4 10 be a6 54 34 be
       0.22308008 -0.08871175 -0.14143644 -0.17610416
000080 9f b5 1e bd d8 bd ff bd 2d 45 47 be cf 6c fe bd
       -0.038747426 -0.12487382 -0.19459982 -0.12423097
000090 c1 54 77 bd 4c 0c 0a bd 50 f7 39 3c 94 cf 91 bd
       -0.060383562 -0.033703133 0.011350468 -0.071196705
0000a0 a0 6c c7 3d c6 aa 20 be 33 84 18 be 98 30 cf bd
       0.097375154 -0.15690145 -0.1489418 -0.101166904
0000b0 d2 86 28 3e b4 44 a0 bc e9 20 4d be 87 c8 2a 3e
       0.1645768 -0.01956401 -0.20032085 0.16678058
0000c0 19 ef 21 be e4 45 a4 bd 89 99 80 bd 42 1c 13 be
       -0.15813865 -0.08021143 -0.062792845 -0.14366248
0000d0 b8 cc ad bd 4a fd 86 bd 44 3d fe bd d5 58 40 be
       -0.08486313 -0.0659128 -0.12414029 -0.18783887
0000e0 b3 17 d4 3d 28 be 0a be 30 29 d8 bd 04 c9 3e 3e
       0.10356083 -0.13549101 -0.10554731 0.18631369
0000f0 a8 19 52 3d c2 10 be bd 50 6e 13 3d fa 29 54 be
       0.051294 -0.0928054 0.035993874 -0.20719138
000100 19 54 5b be aa cd 50 3e c8 f7 43 bd 50 92 2b 3d
       -0.214188 0.20390955 -0.047843724 0.04188758
000110 00 66 aa ba e0 2b ea bb 39 7e 18 3e 10 d5 8d bd
       -0.0013000369 -0.0071463436 0.148919 -0.06925404
000120 d0 7e 6e 3d c0 6f d0 3d fc e5 79 bd ca ff b5 bd
       0.058226407 0.101775646 -0.061010346 -0.088866785
000130 73 36 36 3e 48 ed 9d 3c d2 e0 bd bd 8c 65 f1 3d
       0.17794208 0.019278184 -0.09271397 0.11786947
000140 68 6a 8c 3c 14 6b e1 3d 68 bb 0e 3e f7 70 53 be
       0.017140582 0.11006752 0.13938677 -0.20648561
000150 30 5d 3e be 72 73 4c be 31 65 45 3e e1 fe 22 3e
       -0.18590236 -0.19965914 0.19276883 0.15917541
000160 e0 fb dc bb 9a 23 27 be a8 e8 e1 bd ae 03 5f 3e
       -0.006743893 -0.16322175 -0.11030704 0.21778747
000170 90 e6 4a 3e 0c d2 74 bd 8c ca 30 bd af 1d ce bd
       0.19814515 -0.05977063 -0.043161914 -0.100642554
000180 78 3f 9b bd 1c df 3c 3e 58 26 1e 3e 21 ca 63 be
       -0.07580465 0.18444484 0.15444314 -0.22245075
000190 c8 ef d1 bd 44 1c ea 3d ec 68 b5 3d d8 09 55 be
       -0.10250813 0.114311725 0.08857903 -0.20804536
0001a0 a2 ce c2 bd 77 25 40 3e a1 49 52 3e 6a 1b a7 3c
       -0.09512068 0.18764292 0.205359 0.020398814
0001b0 70 74 c9 bc a0 4b 30 bd 93 73 3d 3e 4d 59 0c 3d
       -0.024591655 -0.04304087 0.1850112 0.03426485
0001c0 3b f3 1e 3d 9f f8 62 3d cd 1f 64 be a9 9a 19 be
       0.03880618 0.055412885 -0.22277756 -0.15000404
0001d0 10 15 d7 3c ed d9 5d be 14 9b 0f bd 80 cb 44 bb
       0.02625516 -0.21665163 -0.035060003 -0.0030028522
0001e0 f2 ee 2c 3e cc db b9 bd 86 a0 00 3e 52 51 16 be
       0.16888025 -0.09075126 0.12561235 -0.14679459
0001f0 a9 65 37 3e b6 2f ae bd 42 1d 56 3e e0 e0 16 3e
       0.17909874 -0.08505194 0.20909598 0.1473422
000200 58 11 38 3e 23 5d 4d be 3e 72 b2 bd fa 59 c6 bd
       0.17975366 -0.2005506 -0.08713196 -0.096851304
000210 6a 1e 27 be 10 05 5e 3c 70 58 0a 3d e9 dd 1a be
       -0.16320196 0.013551012 0.033775747 -0.15123715
000220 a3 44 29 3e 94 54 1b be 46 7e 32 be c2 1f 51 3e
       0.16530089 -0.15168983 -0.17430982 0.20422271
000230 7c 33 bc 3d 8c 40 93 3d 4a 72 81 bd 18 36 c4 bc
       0.09189507 0.07190046 -0.06320627 -0.023951575
000240 0f 69 0c be 05 a3 0c be ba 7d 83 bd 10 a3 50 3d
       -0.13711952 -0.13734062 -0.06420465 0.05093676
000250 75 b7 f7 bd 4d 1f f7 3d e5 cb ed 3d ce 5a 25 be
       -0.120955385 0.12066517 0.116111554 -0.1614792
000260 ad d5 49 be d0 6e ff bd 10 6b 94 3d 84 30 0a 3d
       -0.19710417 -0.12472308 0.07246983 0.033737674
000270 7e e3 8e 3c de 63 2c 3e 0d b5 d5 bd 8a 0a 5a 3e
       0.017442461 0.16834971 -0.10434923 0.21293083
000280 f2 67 37 3e f8 4c 1a 3d a0 0e 14 3e a0 59 15 bc
       0.17910746 0.03767106 0.14458704 -0.009115607
000290 6a 1e 26 3e 3c 7e 4c 3e 1b 40 84 bd 34 41 58 3e
       0.1622254 0.1997003 -0.0645754 0.21118623
0002a0 fb 0b ca bc 56 b4 58 be 1c 7f 3e 3d 5f 80 09 3e
       -0.024663916 -0.21162543 0.04650794 0.13427876
0002b0 95 3c 59 3e 81 d4 aa 3d 90 34 0e be 3d 70 e7 3d
       0.21214516 0.08341313 -0.13887239 0.11300705
0002c0 18 77 44 3d fc cf 4d 3e 70 b9 5e bd 10 7b 81 3d
       0.04796514 0.20098871 -0.054376066 0.063223004
0002d0 c0 b8 a3 3c b0 16 ed 3c 08 3b 30 be ac 61 22 3e
       0.019985557 0.028941482 -0.17210019 0.15857571
0002e0 c4 f0 0b 3e c2 a4 04 3e 88 fa 99 bc 9f e9 57 be
       0.13666064 0.12953475 -0.01879622 -0.21085213
0002f0 48 7a 5f be 30 24 4d 3d f0 0e 60 bd f0 8e 01 be
       -0.2182399 0.05008334 -0.054701746 -0.12652183
000300 48 c7 30 bd 44 26 4c be 20 25 23 3e 88 a2 43 3e
       -0.0431588 -0.19936472 0.15932131 0.1910497
000310 1e e8 25 3e 40 1a 4a 3d c0 21 02 3b 58 06 f6 3d
       0.16201827 0.04934144 0.0019856542 0.12012929
000320 7c dc 94 bd 80 1a 0b 3e 04 a8 3c bd da 70 de bd
       -0.072686166 0.13584328 -0.04605867 -0.108613685
000330 30 f0 2f 3d 20 0e b5 bd 7a ac 3a be 08 6c 63 3e
       0.04295367 -0.08840585 -0.18229857 0.2220918
000340 44 d6 5e be 28 31 fc bc 48 ac ab bc 8e f2 d5 bd
       -0.21761423 -0.030785158 -0.020956174 -0.10446654
000350 30 1b 50 bc e8 6c 39 be 4c a5 44 be dd c7 12 be
       -0.0127017945 -0.1810795 -0.19203681 -0.14334054
000360 aa 5e 00 3e de 89 a7 bd 76 83 0b 3e 68 aa 63 bd
       0.12536111 -0.08180593 0.13624367 -0.055582434
000370 74 37 fe 3d d0 1d 7d bc c8 a0 e9 3d 7f ff 36 be
       0.124129206 -0.015449002 0.1140762 -0.17870902
000380 04 db 08 bd 9f 4d 2d be e4 32 fe bd 56 25 17 3e
       -0.033411995 -0.16924141 -0.1241205 0.14760336
000390 b2 51 e2 3c 38 8b f9 bc c0 1e eb bd 24 8c 3b be
       0.027626846 -0.030461892 -0.114804745 -0.18315178
0003a0 ff 1b a8 bc 15 89 31 3d 5f f4 31 be c2 31 37 bb
       -0.020521162 0.043343622 -0.17378376 -0.0027953242
0003b0 ea 6e 3f ba 8e 24 f1 bd 2a f2 0b 3e bc 84 ef 3d
       -0.0007302599 -0.117745504 0.13666597 0.11695239
0003c0 94 48 54 be 84 98 9f 3d 00 c2 4c bb 68 4f 9b 3c
       -0.20730811 0.07792762 -0.0031243563 0.018958762
0003d0 22 37 b4 bc d5 c8 50 3d cc 88 94 3d 2d ed 43 3e
       -0.021998946 0.05097278 0.072526544 0.19133444
0003e0 8b 41 9d 3d fb c7 5e 3e 2b 40 ab bd fc 7d 26 bb
       0.07678517 0.21755974 -0.083618484 -0.0025404682
0003f0 5e 11 11 3e 20 41 d6 bd 5c 70 5f bc 80 e2 1d 3e
       0.14166781 -0.1046164 -0.013637628 0.15418434

fc1.bias f4 [100]
000000 65 d2 67 bd 70 b1 5a 3e ad 2e 2d 3e cb 78 bc bd
       -0.056597132 0.2135675 0.16912337 -0.09202727
000010 db 2d 10 be 3f a1 f1 ba 27 70 12 bd bc be 36 3e
       -0.14079992 -0.0018434896 -0.035751488 0.17846197
000020 2d f6 07 3e 3c 33 2b be 28 a1 ff bd 20 46 3b 3e
       0.13277502 -0.16718763 -0.1248191 0.1828847
000030 15 73 a7 3d ba 9b 40 3e 35 9f 11 be 5f 39 24 3e
       0.08176247 0.18809405 -0.14220889 0.1603751
000040 3c 61 e6 3d 6c eb 58 be f6 c8 50 3d 16 1c 18 3e
       0.11249015 -0.21183556 0.0509729 0.14854464
000050 3a 43 2b be 98 fb 48 3e 68 6c 14 3d 8f d6 7a bb
       -0.16724864 0.19627225 0.036236197 -0.003827486
000060 d4 57 20 3e 93 01 ff bd 36 ee dd bc 8d b6 28 bc
       0.15658504 -0.12451472 -0.027091127 -0.01029743
000070 04 17 24 be 18 e4 71 3c f1 49 4e 3e e0 29 c1 bc
       -0.16024405 0.014763854 0.20145394 -0.023579538
000080 cc bc 27 be f4 7b 04 be d1 fb bb 3d ec 65 55 be
       -0.16380614 -0.1293791 0.091788895 -0.20839661
000090 10 b0 e9 3a d9 2a 19 3c f4 4f 82 3d 0b e5 0f be
       0.001782896 0.009348595 0.06362906 -0.14052217
0000a0 c4 2c 9a 3c 94 bd b6 3d 86 50 5f be e2 93 60 3d
       0.018820174 0.08922878 -0.21808061 0.054828532
0000b0 59 d4 73 bd 7d 7b a1 bc fb 97 ff 3c 1a 79 75 3d
       -0.059528682 -0.019712204 0.0312004 0.059929945
0000c0 a6 aa 93 3c 8e 43 95 bd 63 a4 16 bd 7e 66 63 be
       0.018025707 -0.07288276 -0.036777865 -0.22207066
0000d0 24 a7 bc 3d 74 60 b0 bd 0e 44 cc 3d 1c 1c 1b 3e
       0.09211567 -0.08612147 0.09973918 0.15147442
0000e0 28 ce 2b be 27 49 14 be cc c4 93 3c 65 a2 0f 3d
       -0.16777861 -0.1448103 0.018038176 0.03506698
0000f0 a6 d7 02 be 5d 75 30 3d 16 a2 2f 3e 48 14 a6 3d
       -0.12777576 0.043080676 0.17151675 0.08109337
000100 ad 52 82 3d fd 23 c8 bc 7d b8 96 3d df 4f 24 be
       0.063634254 -0.024431223 0.07359407 -0.16046093
000110 42 87 08 bd c0 93 6a 3e 65 f5 51 3e 53 04 17 3e
       -0.033332117 0.22907925 0.20503767 0.14747743
000120 f9 43 a4 3d ce 60 13 bd 97 34 2a be 63 1c 07 3e
       0.08020777 -0.035980992 -0.16621624 0.13194422
000130 8d d3 f2 3d 93 47 ae bd 98 df 04 3e cf 06 50 3d
       0.11856756 -0.085097454 0.12975919 0.050787743
000140 d1 5e 23 be 22 3e f6 3d 67 7e 63 be d9 c3 03 bc
       -0.15954138 0.1202357 -0.22216187 -0.008042299
000150 83 7c bd 3d 63 5c b8 bd df 17 37 3e 20 83 1c be
       0.09252264 -0.09001996 0.178802 -0.15284395
000160 04 ef 2a be 27 9b 3d 3d c6 be 4e 3e 88 36 56 3e
       -0.1669274 0.046290543 0.20189962 0.2091924
000170 e6 24 62 3d a5 97 69 3e 34 cf 89 3d af 01 2a be
       0.05521097 0.22811754 0.06728974 -0.16602205
000180 e1 f1 10 be fc 2b 5a 3e 2a 70 2b be c4 a6 17 be
       -0.1415477 0.21305841 -0.16742006 -0.1480971

fc2.weight f4 [75, 100]
000000 6f 2e 10 3d 90 ca 6a bd 2a ea cb bd 42 dd 4b bd
       0.035200533 -0.057322085 -0.099567726 -0.049771555
000010 43 f5 25 3b d9 92 39 3d 4c fd a1 bd 0e 3e 85 bd
       0.002532319 0.04530606 -0.07909641 -0.065059766
000020 b4 c1 b3 bd 23 3c f4 bc bd 2f bc bd d3 d9 73 bd
       -0.0877718 -0.029813832 -0.09188793 -0.059533905
000030 c8 ba 85 3d e9 e7 51 3d f1 dc 9f bd fc 9c 08 bd
       0.06529766 0.051246557 -0.07805813 -0.033352837
000040 7b 9e af 3a a0 bc ea 3c 45 99 14 3d 75 76 c6 3d
       0.0013398671 0.028654397 0.03627898 0.09690563
000050 1d b5 ad bd ee 75 5e bd 92 1e bd 3d 95 43 90 3c
       -0.0848181 -0.054311685 0.092343464 0.01761035
000060 57 5b f6 bc 14 a5 94 3c 82 c8 a1 bc 3a d4 ba 3d
       -0.030072851 0.018145122 -0.01974893 0.0912251
000070 cc 28 a0 3d 41 8f bd 3d 25 fb 5b 3c 22 12 db 3d
       0.078202814 0.09255839 0.013426577 0.10696818
000080 4b a4 3c bd c3 3a 45 bd e0 7d c5 3d e8 4c cb bc
       -0.04605512 -0.048151743 0.096431494 -0.024816945
000090 b5 30 5a bc 1c 78 36 3c 8e 7f 10 3d 86 0c 5f bd
       -0.013317277 0.011137035 0.035277896 -0.054455303
0000a0 c5 d7 cb bc fc 89 2f 3d f6 b3 04 3d a2 b9 f0 3d
       -0.02488316 0.0428562 0.032398187 0.11754157
0000b0 02 e9 b2 3d f8 10 b2 3d dc 90 96 3b 4f cc 0b bc
       0.08735849 0.08694643 0.0045949053 -0.008532598
0000c0 d0 30 22 3d 0d 8c 6e bc 19 d6 10 bd cd 3b 85 3d
       0.039597332 -0.014559758 -0.03536043 0.06505547
0000d0 88 de 71 bd 01 88 c8 3b 7b a9 91 bd 95 35 ba bd
       -0.059050113 0.0061197286 -0.07112404 -0.09092251
0000e0 8e 37 09 bc 45 c2 91 3d 57 3b dd 3c 58 06 85 3c
       -0.008375062 0.07117132 0.027005835 0.016238376
0000f0 3b 9b 60 3d 39 f7 9b 3d c9 fb b7 bd df d1 9c 3d
       0.05483554 0.07615513 -0.08983571 0.07657217
000100 94 67 ce bd a2 bc 45 bc fe e5 05 3d ff 9d 43 bd
       -0.1007835 -0.012068899 0.03269004 -0.0477581
000110 e9 21 d3 3c 0f fb 7c bc 05 9b cc 3b cf 95 2f 3c
       0.025773006 -0.015440716 0.0062440657 0.0107168695
000120 20 95 e9 3d 4e 1b 82 3d 92 c6 a0 3d 01 dd ae 3b
       0.114053965 0.06352864 0.07850374 0.0053364043
000130 ea f0 f6 3a 0f de 29 bd df ba 76 bd 0b 0d 62 3d
       0.0018840109 -0.041471537 -0.060236808 0.05518822
000140 80 12 1c ba 45 d9 c8 bc e2 fe 00 3d 8f 71 6c bd
       -0.00059536844 -0.024517665 0.031493075 -0.057725485
000150 90 e8 38 3d b8 82 8d bd 50 f1 71 3d f2 ae 2b 3d
       0.045143664 -0.06909698 0.059068024 0.041914888
000160 49 28 25 bd 1c 6a e1 bc 41 0d 10 3c 0a 6c 7c 3d
       -0.040321622 -0.027516417 0.0087922225 0.06162647
000170 2e fb c7 3d 53 0e dc 3d ec 61 9d 3d 65 51 aa bd
       0.097647056 0.1074492 0.07684693 -0.08316306
000180 7a 4f 8d 3c 07 cd 92 3d 6e 99 fc 3c 7d 29 a2 3d
       0.017249811 0.07168012 0.03083488 0.079180695
000190 ac e2 b6 bd b1 05 0f 3d aa 32 f8 bc 54 cf 16 bd
       -0.08929953 0.034917537 -0.030297596 -0.036818817
0001a0 3f 6a 17 3d d5 7f ad bd 97 fe 2e 3d 3d dd 87 3d
       0.03696656 -0.08471648 0.042723265 0.06633995
0001b0 2a 75 2d bd 7c 36 8e 3d ea 49 87 bd 8b 28 a0 bd
       -0.042348064 0.06943986 -0.06605895 -0.07820233
0001c0 44 90 b5 bd 37 3d 19 bd cb 07 83 3c 3f 0c b7 bb
       -0.08865407 -0.037411895 0.015994927 -0.0055861766
0001d0 bf d1 cd bb a7 20 b3 bd 5c 39 ab bd 16 e7 93 bc
       -0.006281107 -0.08746462 -0.0836055 -0.018054526
0001e0 3d bb 39 bd 7f 20 39 3d cf 56 dc bd 87 04 69 bd
       -0.04534458 0.045197006 -0.10758745 -0.056889083
0001f0 7b 46 37 bd 1f 36 3c 3b 81 9a c4 3c 07 9a 42 3d
       -0.04474495 0.0028718782 0.023999454 0.047510173
000200 28 88 86 bb 1e c0 9e bc b9 8b 0d 3d 34 56 97 bb
       -0.0041055866 -0.019378718 0.034557078 -0.0046184305
000210 7c 55 4f 3d e7 76 4e bd eb 06 c4 bc d0 a5 7b bd
       0.050618634 -0.050406363 -0.02392908 -0.061437428
000220 8f 2d 57 bd 7c 25 80 3d 55 0b 53 bd a5 03 c2 3c
       -0.052533682 0.062571496 -0.05152448 0.023683378
000230 f7 f9 b1 bd 34 4f 02 3b 20 1e 83 3b ac 97 c9 bc
       -0.08690255 0.0019883635 0.004001394 -0.024608456
000240 77 e3 66 bd 71 85 8e bd 50 f4 85 3d a4 d7 2c 3d
       -0.05636927 -0.06959046 0.065407395 0.04219784
000250 69 1b 29 bc 37 d6 bd bd 5d 23 98 3c f6 45 1e 3d
       -0.0103214765 -0.09269374 0.01857155 0.03864094
000260 fa b7 11 bd be 5d e0 3b 04 74 22 3d 12 85 8f bd
       -0.035575844 0.0068471124 0.039661422 -0.07007803
000270 07 ee 42 bd f5 58 aa 3d 6f ef 15 3d e0 7d b8 3d
       -0.04759028 0.083177485 0.036605295 0.09008384
000280 79 e0 87 3d 21 cd 9d bd f1 02 ad 3d 83 11 90 3c
       0.06634612 -0.07705141 0.08447827 0.017586475
000290 7e 7b 89 bd 37 03 9d 3d 71 f9 06 bd 03 a0 8a 3c
       -0.067130074 0.07666629 -0.03295273 0.016922003
0002a0 71 20 e3 bc 15 65 12 bc 08 10 d5 3d fb 54 2a bc
       -0.02772543 -0.008935233 0.10403448 -0.0103962375
0002b0 3e bb a6 3d b2 20 71 3d 24 de c8 3c 4d d0 19 3d
       0.08141182 0.05886907 0.024519987 0.037552167
0002c0 da d6 29 bd db e6 e5 bc 16 f6 c7 bd 56 c4 98 bd
       -0.041464664 -0.028064182 -0.09763734 -0.07459323
0002d0 f8 7c 3a bb b2 55 44 3d 5d d8 49 bd f4 f2 93 3c
       -0.0028455835 0.047933288 -0.049278606 0.018060185
0002e0 44 eb 85 bd 6d de c8 bc a2 46 a3 3d 53 4b 81 bd
       -0.06539014 -0.024520123 0.079724565 -0.06313195
0002f0 2d d2 e5 bc 23 62 ca bd c9 02 8b bd 03 33 e5 3d
       -0.028054321 -0.09881999 -0.067876406 0.1119137
000300 ab 80 d7 bd 72 58 e5 bd 5f 47 0b bd 9c 66 98 bd
       -0.10522588 -0.1119851 -0.03400361 -0.07441446
000310 73 22 f9 3c 82 de bb 3d 5a 19 8d bb 29 e3 a4 3d
       0.030411934 0.09173299 -0.0043060007 0.0805114
000320 ee 56 c3 3d f7 5a 2d 3d 8a c5 4e bc 76 c6 e5 bc
       0.09538065 0.04232308 -0.012620339 -0.028048735
000330 ab d3 8d bd dd 30 ab 3c b4 e3 9c 3c 1c f8 3c ba
       -0.06925138 0.020897323 0.019151546 -0.0007208602
000340 82 17 a8 3d 73 f2 a1 3d d0 d8 93 3b 7f bf 4e bd
       0.08207609 0.07907572 0.00451193 -0.050475594
000350 74 7f 82 3c 56 fa 2d bd 00 7d 63 3a c9 9c 67 bd
       0.015929915 -0.042475067 0.0008677989 -0.056546006
000360 ac 45 8f bc db b3 99 bd 6f bb ab 3d bb fe ac 3c
       -0.017489277 -0.07505008 0.083853595 0.021117559
000370 8c c3 e9 bc e5 13 39 3d cd ba 46 3d 72 c7 ab 3c
       -0.028535627 0.04518499 0.04851799 0.020969126
000380 b6 5f ae 3c 1d c3 51 bd 78 ce f6 bc e1 4f cc 3d
       0.021285873 -0.051211465 -0.030127749 0.09976173
000390 d0 b4 20 3c f8 75 e6 bc a3 8d 76 3d f2 c3 2b 3d
       0.009808734 -0.028132424 0.06019367 0.041934915
0003a0 d0 ae 97 bb 20 0e 99 3c 75 ca 2e bd 50 ed a3 3b
       -0.0046289936 0.018683493 -0.042673547 0.005002655
0003b0 69 53 79 bc c9 37 ab 3c c2 be 4e 3d 3a 97 92 bd
       -0.01521764 0.020900624 0.05047489 -0.071577504
0003c0 a8 4e a2 3d 67 f8 a5 3d 9d d3 35 bd 4c 08 03 bd
       0.07925159 0.081040196 -0.044391263 -0.031990334
0003d0 c2 84 29 3d ca 3a 58 3d e0 27 c1 bb 58 3a c5 bd
       0.041386373 0.05279044 -0.005894646 -0.09630269
0003e0 a0 2e c9 bb 33 62 a8 3d 1d b3 91 bd 83 5b cc 3d
       -0.0061395913 0.08221855 -0.07114241 0.09978392
0003f0 50 2c a9 bd 38 79 4e bc 01 4d 5b bd 80 c1 5c bd
       -0.08260405 -0.012602143 -0.053540234 -0.053895473

fc2.bias f4 [75]
000000 a6 c3 05 3e 5d 89 d3 3d b9 a9 99 bd bd 4a 44 bd
       0.13062915 0.10328934 -0.07503075 -0.04792284
000010 34 e5 90 3c 74 06 98 3c 28 b4 e8 3d 37 d9 94 bd
       0.017687418 0.018557765 0.11362487 -0.07267993
000020 17 5c 4a 3d a9 be ab 3b 0c 8a b5 bc 55 6a ea 3d
       0.04940423 0.0052412343 -0.022160552 0.114460625
000030 9b fa 08 bd c6 20 f5 ba 27 a3 9c 3c 72 27 98 bd
       -0.03344212 -0.0018701784 0.019120766 -0.074293986
000040 d1 7b b4 3d 9e 19 1e 3d d6 32 b1 3d a4 27 af 3d
       0.088126786 0.03859865 0.08652274 0.08552483
000050 33 68 7b bd f8 39 01 3d 1f 2d be 3c b8 d8 d4 3c
       -0.06137867 0.031549424 0.023214875 0.025982246
000060 af 8f 50 bd 87 ec b7 3d 5d be 77 3c 67 11 0d 3e
       -0.050918277 0.08980661 0.01512107 0.1377617
000070 b8 8f c7 bc 6a 9f af bd 10 1d 70 bc 0d 7a ad bd
       -0.024360523 -0.08575328 -0.014655367 -0.08470545
000080 88 3b d4 3b 97 fe ff 3b 3d 54 58 ba b6 97 17 bd
       0.0064768232 0.007812332 -0.00082522986 -0.037009917
000090 1b 23 a5 3c d5 d6 57 3d 47 8c c5 bd 3c 70 1d 3d
       0.020158341 0.052695114 -0.096458964 0.038437113
0000a0 e4 c1 90 3d af ba 2a 3d 12 3d 7e 3d 87 4d ca 3c
       0.07068232 0.04168194 0.06206996 0.024695171
0000b0 e2 57 83 3d 02 e9 6f 3c ed f5 a5 3d b6 86 db 3c
       0.06413247 0.014642956 0.08103547 0.026797634
0000c0 f7 56 9b 3d 39 95 bc 3d 54 ba b4 bd ba 91 da 3d
       0.075849466 0.092081495 -0.08824602 0.106723264
0000d0 35 20 8e 3d cd a3 16 3d 49 4c a2 3d 81 6d ab bb
       0.06939737 0.036777306 0.079247065 -0.0052315597
0000e0 cc 77 90 3d ed 0f 8d 3d 9b 31 9b 3d 20 bd 70 3d
       0.070540994 0.06887803 0.07577821 0.058774114
0000f0 11 ed fd bc ee f0 43 bd c5 01 21 3d fe 1b 8f bd
       -0.030996831 -0.04783719 0.03930833 -0.06987761
000100 6c f6 cc 3d da b4 cb bd 70 5c eb bc 29 5f a9 3b
       0.10007939 -0.09946604 -0.028730601 0.0051688147
000110 b8 e8 3b bc f2 55 b8 bd 01 70 ed bc fa 8a 3a 3c
       -0.011469059 -0.09000768 -0.028984072 0.011385674
000120 fa 75 2f bd 8a 7c 60 bd 7a ed 56 3d
       -0.04283712 -0.05480627 0.05247257

fc3.weight f4 [50, 75]
000000 3e 87 73 3d 7a 92 97 bd 78 40 5c bd b8 81 47 bd
       0.05945515 -0.07400985 -0.05377242 -0.048707694
000010 0e 42 a4 3d b8 15 2e bd 83 1a a7 3d 22 ca 91 3d
       0.080204114 -0.04250118 0.081593536 0.07118632
000020 5b 87 f9 ba 3e e4 eb 3d eb 1d c4 bc 92 8f b7 3d
       -0.0019037531 0.11518143 -0.023940047 0.08962931
000030 ae f9 64 bb 76 17 97 3d dc 2a 5b bc 7c f9 99 bd
       -0.003493886 0.07377522 -0.013376918 -0.075182885
000040 8a 5c ac 3c 1f 04 06 3d e8 8f 8d bd c5 19 66 3d
       0.02104022 0.032718774 -0.069122136 0.05617692
000050 67 9a c3 bd ce e3 fc 3c ba b2 00 bc a6 53 b8 3c
       -0.09550934 0.030870344 -0.007855112 0.022500824
000060 52 ab c7 bd 95 f3 e6 bc 40 32 8c 3d fe d7 68 3c
       -0.09749474 -0.02819232 0.06845522 0.014211653
000070 7c 5e 4d 3d 18 dc df 3d 2b d7 92 bd 4a dd 17 bd
       0.050138935 0.109306514 -0.07169946 -0.037076272
000080 1c 71 33 bc 61 73 19 3d e6 5c c9 3d b0 40 82 3d
       -0.01095226 0.03746355 0.09832172 0.063599944
000090 5f 03 30 bd 14 ea 5f bc 24 b7 91 bd 5d aa 62 bd
       -0.042971965 -0.013666648 -0.071150094 -0.055338252
0000a0 af 97 b3 bc b1 28 3b bc 04 4e 92 bc 0f dc aa bd
       -0.021922914 -0.011423276 -0.017859466 -0.08342754
0000b0 2f 3c 74 bc 73 2b b8 bb 41 a3 71 bd ec fd b5 bd
       -0.014906927 -0.005620414 -0.05899358 -0.088863224
0000c0 f3 6c 93 bd 03 41 a9 ba d6 d7 73 3c 0d 21 51 bd
       -0.07198515 -0.0012913052 0.014883002 -0.05105691
0000d0 2c 3b ca 3d a3 56 f1 bd 2c d1 49 bd ba cb da 3d
       0.098745674 -0.11784103 -0.049271747 0.10683389
0000e0 3b 86 24 bd 3f 15 d4 bd 25 e0 69 3d 89 d0 4f 3d
       -0.040167075 -0.10355615 0.057098527 0.050735984
0000f0 fd 7c 8b 3d 9f a3 44 3d 03 74 cf 3d 9d 26 d5 3d
       0.06810949 0.048007604 0.10129549 0.104077555
000100 ea 9b 5a bd e2 43 8c bd fe 40 39 3d 78 33 d8 bc
       -0.053371347 -0.06848885 0.045227997 -0.02639173
000110 9f ba 4a bd 5f 45 df bd d1 9e 83 bd c1 34 a0 bd
       -0.049494382 -0.10901903 -0.06426776 -0.07822562
000120 7a ce e7 bd a1 2f 85 3d 5e f0 97 3c b2 40 bf bd
       -0.11318679 0.06503225 0.018547233 -0.093385115
000130 3c 1c 38 3d 58 2a 53 bd f0 6b 71 3d 4e 63 aa bd
       0.0449488 -0.051554054 0.058940828 -0.08319722
000140 00 b6 f1 bb 4d 94 c0 bd 40 e9 ab bc 3e 0c d5 bd
       -0.0073764324 -0.09403286 -0.020985246 -0.10402726
000150 d0 de a1 bd 9e b7 b6 bd 9c a5 92 3d 16 a8 ae 3d
       -0.07903826 -0.08921741 0.07160494 0.085281536
000160 00 2f c2 b9 ec 2b ad 3d 40 9b 9f ba f0 ef 40 3c
       -0.0003703758 0.08455643 -0.0012177005 0.011775956
000170 24 72 42 bd 80 3e e3 bb 59 3c 79 bd e8 3c 01 3d
       -0.047472134 -0.006934941 -0.060848568 0.031552225
000180 00 7f a1 3d ec 3d 4b bd 66 fd 6f bd ee 45 eb bd
       0.078855515 -0.0496196 -0.05859127 -0.114879474
000190 1d da cb bd 2c 7e 02 3d d8 74 3c bc c8 52 95 3d
       -0.09953711 0.031858608 -0.011502467 0.0729118
0001a0 90 57 83 3d a4 21 6c 3d d4 c8 8b 3d e0 46 e9 3d
       0.064131856 0.05764927 0.06825414 0.113904715
0001b0 28 ad 9b bc 3c 50 3c 3d 32 66 99 3d d0 a4 99 3d
       -0.019003466 0.045974955 0.07490195 0.075021386
0001c0 92 d6 96 bd 58 9f b9 3d ee 83 af bd f4 9e e3 bd
       -0.07365145 0.090635955 -0.085700855 -0.11114302
0001d0 41 9c 90 bd ba 49 b2 3d 80 d8 39 3d 8a 48 91 3d
       -0.07061053 0.087054685 0.045372486 0.07093914
0001e0 3c 79 ea bc 24 53 a8 bc f6 0f 2a bd 5e 0a a9 3d
       -0.028622262 -0.020547457 -0.041519128 0.082539305
0001f0 c0 e5 71 3c 8c de a0 bd a9 fb e5 bd 38 b5 24 bd
       0.014764249 -0.078549474 -0.11229641 -0.040211886
000200 40 54 b4 3b 00 56 a7 3b a8 42 a9 bc 2e ff a9 3d
       0.0055032074 0.0051066875 -0.020661667 0.08300625
000210 72 5e 9d bd c8 5e 73 3d 28 8d 5b bc d0 96 92 bb
       -0.0768403 0.059416562 -0.0134003535 -0.0044735447
000220 60 d8 a1 bb b8 eb d8 3d 48 74 e2 3d 74 64 b3 bc
       -0.004939124 0.10591835 0.11057335 -0.021898486
000230 50 bb 1d 3d 00 74 b8 bd 28 c1 23 bd e9 68 59 bd
       0.038508713 -0.090065 -0.03997913 -0.053078566
000240 cc b5 ae 3d 20 25 b5 3c f8 fb f4 bc 97 65 b4 bd
       0.08530769 0.02211243 -0.029905304 -0.08808439
000250 d6 a8 9a 3d e0 6e d4 bc 04 89 d3 3d 18 3f 07 3d
       0.07551734 -0.025931776 0.10328868 0.033019155
000260 2c 52 d5 3d 54 d8 e8 3d 1c 6c 9e bc 3e 3d 33 bd
       0.10416064 0.11369386 -0.01933866 -0.043759577
000270 28 43 47 bc 84 64 6c 3d 40 2e 93 3a e8 a9 5f bc
       -0.012162007 0.057713047 0.0011228994 -0.013651349
000280 74 3f 62 3d 18 5b 15 3d 68 dc 81 bc 30 e5 10 bc
       0.055236295 0.036463827 -0.015852168 -0.008843705
000290 c2 2d d8 3d a8 f4 ae 3d 74 11 15 bd 63 26 93 bd
       0.105556026 0.08542758 -0.036393598 -0.07185056
0002a0 f0 fd 37 3c 1e 9d b1 bd 40 5f 60 3d 63 e5 e8 bd
       0.011229977 -0.08672546 0.054778337 -0.11371877
0002b0 c0 39 15 bc 30 62 10 3d 3a 2a 8d 3d de f8 d1 3d
       -0.009108007 0.03524989 0.0689282 0.10252546
0002c0 c2 77 90 bd 20 ab 49 3b fc 4e f1 bc 40 8c 04 3d
       -0.07054092 0.0030772164 -0.029456608 0.032360315
0002d0 a0 79 bc 3d a2 ee c1 3d 38 46 a0 3d a8 af 14 bc
       0.09202886 0.09469344 0.07825893 -0.009075083
0002e0 68 cb c8 bd 2c 0c cd bd a0 e1 81 bd a8 41 cc 3c
       -0.09804422 -0.10012087 -0.06341863 0.024933651
0002f0 8b 7c 86 bd 74 b7 e1 3d 1b 30 d2 bd 70 7a cd bc
       -0.065667234 0.11021319 -0.10263082 -0.025082797
000300 00 13 cd bd 70 e3 7e 3d fc c1 af 3d 7c 75 80 3d
       -0.100133896 0.06222862 0.085819215 0.06272408
000310 da 51 92 3d 20 c4 2f bb 02 c3 d3 bd f2 03 80 3d
       0.07144518 -0.002681978 -0.10339929 0.062507525
000320 ac d2 91 3d 4c 9a e6 bc 7a 9c 92 3d 14 c5 8e bc
       0.071202606 -0.028149746 0.07158752 -0.017427959
000330 08 77 31 bd fa 7d 96 bd c0 95 fa 3c 00 a5 8b 3c
       -0.043326408 -0.07348247 0.030588984 0.017046452
000340 fd be e5 bd 71 1a 7f bd 30 8b a9 3d 57 b6 b4 bd
       -0.11218069 -0.062281076 0.08278501 -0.08823841
000350 2e ad 8f bd 00 c4 31 3a 72 a2 a7 bd ee a6 e6 bd
       -0.07015453 0.00067812204 -0.08185281 -0.11262308
000360 2e fe e8 3d 08 ed 02 bc 9e 3c e5 bd 1a 3c b8 3d
       0.11376606 -0.007991083 -0.111932024 0.089958385
000370 b0 b6 f4 3c 7c e5 15 bd 04 87 d5 bd f9 65 9e bd
       0.029872268 -0.036595806 -0.10426143 -0.077342935
000380 f2 67 3b bd da 32 15 3e 3c 46 d1 bd dc 05 dd bd
       -0.045753427 0.1457018 -0.10218474 -0.10792133
000390 58 56 83 3c 48 68 1b bc ac 08 a6 bd f1 00 fd 3d
       0.016032383 -0.009485312 -0.08107123 0.12353695
0003a0 5b 6f e3 bd 36 0e 28 3d 6b 8d 3f bc a6 a7 e4 bd
       -0.11105224 0.041029178 -0.0116914315 -0.11164789
0003b0 42 55 dd 3d a8 d6 cc bc 53 e9 93 3d 47 0f 12 3d
       0.10807277 -0.0250047 0.072222374 0.0356591
0003c0 bc 2e d6 3d 86 6c f0 3d b2 57 6e 3d 48 0c 9b 3d
       0.104581326 0.11739449 0.0581891 0.07570702
0003d0 c0 f5 22 3d 2c d9 0a bd e3 ea dd bd db be 9e 3c
       0.039785147 -0.033898517 -0.10835817 0.019378116
0003e0 11 02 fe 3d 50 25 0a bc 8f f1 1c bd c9 3c bf 3d
       0.12402738 -0.008431748 -0.038316306 0.09337766
0003f0 e4 64 11 3e 22 51 4d bd 76 94 8b 3d e8 aa c0 3d
       0.14198643 -0.050126202 0.06815426 0.09407598

fc3.bias f4 [50]
000000 18 85 ac 3d f8 11 b1 bc 9d 07 e0 bd 37 c8 67 bc
       0.08423823 -0.021615013 -0.10938952 -0.014146856
000010 8f ee 9c 3d 10 55 e3 3c c2 fd d1 3d b8 ae b6 3d
       0.07662689 0.027750522 0.102534786 0.08920044
000020 2f 46 77 3d 02 82 f2 3c b5 de cc bd 94 f5 36 3d
       0.060369667 0.029603008 -0.100034155 0.044667795
000030 54 9c de ba 4d 1c 7d bd 2f 7b 82 3d cd 86 17 3c
       -0.0016983845 -0.061794568 0.06371152 0.009248448
000040 76 81 c1 3d f7 82 e3 3d 3f db e5 3d 96 f6 74 bd
       0.09448521 0.11108964 0.112234585 -0.059805475
000050 17 6e 97 bd 7b ff 19 bd 7b 2a be 3c 4c e2 c1 3c
       -0.07394045 -0.03759716 0.023213616 0.023667477
000060 50 f4 9f bb 4d 60 13 3d db 8d fc bc e8 a5 6f bd
       -0.0048814192 0.03598051 -0.03082936 -0.05850783
000070 e3 36 a6 3c a1 54 5f bd 9d 8b a6 bd 31 0e 6b 3d
       0.020289844 -0.054524068 -0.08132098 0.05738658
000080 12 07 df 3d 4c 7b 5e 3d b4 c7 8e bd d9 b5 95 bd
       0.108900204 0.054316804 -0.06971684 -0.07310075
000090 3b 96 6d 3d 39 75 a9 3d ae ce 56 3c f8 05 26 bd
       0.0580046 0.082743116 0.0131108 -0.040533036
0000a0 b0 e9 e6 3d e0 07 3c 3c 92 be 37 3c 55 7b df bd
       0.11275041 0.011476487 0.011214869 -0.109121956
0000b0 12 7f 33 bd 86 a3 53 bd 20 ae 88 bd d9 25 ad 3d
       -0.043822356 -0.05166962 -0.06673837 0.084544845
0000c0 06 95 f6 bb cf 67 6f bd
       -0.007525089 -0.05844861

out.weight f4 [3, 50]
000000 a2 e1 d6 bd 46 bf 2c bd b0 9b 02 bc a9 49 9b bd
       -0.10492255 -0.0421746 -0.007971689 -0.07582409
000010 64 ea bd bd 96 82 d6 3d 60 d2 ea bd 4e b5 f7 3d
       -0.09273222 0.10474126 -0.11465907 0.12095128
000020 c0 53 3e 3d 40 cf e2 3c 8e 40 b0 bd 26 a8 23 bd
       0.04646659 0.027686715 -0.08606063 -0.03995528
000030 c0 c6 07 bb 80 0a 50 bb 80 0b a3 bb 1c 02 9c 3d
       -0.002071783 -0.003174454 -0.004975736 0.0761759
000040 44 73 57 bd 00 ee b8 39 f2 cf 8b bd f0 14 a5 3c
       -0.05260016 0.0003527254 -0.06826772 0.020151585
000050 22 8b 0b be fe 98 d6 bd 48 05 9e bd 58 00 1c 3d
       -0.13627294 -0.104784 -0.07715851 0.038086265
000060 54 e7 8d 3d f8 fd 01 be 96 8a 80 bd bc b0 33 3d
       0.06928888 -0.12694538 -0.06276433 0.04386972
000070 ae 74 dd bd 70 ce 3b 3c be 2f ef 3d 44 09 63 3d
       -0.108132705 0.011462793 0.11679028 0.05542876
000080 8a e1 f9 bd 26 17 fd 3d e6 ba b3 bd 1e 00 a3 bd
       -0.12201221 0.12357931 -0.087758824 -0.07959007
000090 21 3b d1 bd 98 c0 e7 3c bf 6d 07 be 06 e6 c2 3d
       -0.10216356 0.028290078 -0.13225459 0.0951653
0000a0 5a 2c 0b bd 90 6b 42 3c 7e 08 ea 3d 82 92 b5 3d
       -0.033977844 0.011866465 0.11427401 0.08865835
0000b0 0a d9 cb 3d 30 13 6f 3d c2 d4 28 bd e0 7c 4d bd
       0.09953506 0.058367908 -0.041218527 -0.05016792
0000c0 a4 8b a5 3d 04 af 9e 3d 40 4b ad bd d0 f3 fa 3c
       0.08083275 0.07748225 -0.084616184 0.030633837
0000d0 60 6b b4 bd 00 dc 77 be 99 76 dd bd 3a 66 a0 bd
       -0.08809543 -0.24205017 -0.10813636 -0.07831998
0000e0 53 dd e7 bd 5d a1 32 be f0 8b 40 bd 27 70 36 be
       -0.11321511 -0.17444368 -0.047008455 -0.1781622
0000f0 a1 61 f5 bd dd 70 d7 bd 42 38 df ba 27 fe a2 3b
       -0.11981512 -0.10519574 -0.0017030316 0.004974145
000100 ae d6 27 3e 0b 70 42 bc c3 b6 56 be 53 5b e4 bd
       0.16390488 -0.011867533 -0.20968156 -0.11150231
000110 ed f4 09 be 00 07 98 bd 26 6a 3d 3d 91 44 99 bd
       -0.13472338 -0.0742321 0.04624381 -0.07483781
000120 50 9c c6 bd c2 3d 07 be a8 1b 7d 3d 65 d5 0e 3d
       -0.09697783 -0.13207152 0.061793953 0.034871478
000130 b0 37 5c bd 3b 28 c0 3d cc 7f 86 3c 54 20 41 bd
       -0.053764045 0.09382673 0.01641836 -0.04714997
000140 ef 96 d3 3d 8c 5e 16 3e 00 59 53 bd 1c 3f 04 3e
       0.10331523 0.14684504 -0.05159855 0.129147
000150 5d 97 03 be 88 df 08 be e4 c3 14 be 6f ea 1a 3e
       -0.1285071 -0.1336652 -0.14527851 0.15128492
000160 f9 d1 ca bc 80 ba a9 bb 66 2c 85 3c 14 a9 82 bd
       -0.024758326 -0.0051797032 0.016256522 -0.06379905
000170 41 3d 11 bd bc 50 10 3d f7 ec d5 bd 9b 43 eb 3d
       -0.035458807 0.035233244 -0.10445588 0.11487504
000180 18 fd 7f 3d 21 31 18 3e 5d ac ae 3d 50 1e c5 bd
       0.06249723 0.14862491 0.085289694 -0.09624922
000190 2b 2d e5 3d 64 a3 4f bd 89 43 83 bd c9 8d 08 3d
       0.11190256 -0.05069293 -0.06409366 0.03333834
0001a0 ed 8d aa 3d 04 54 3b bd a5 97 c0 bd 1c 58 87 bd
       0.083278514 -0.04573442 -0.09403924 -0.066086024
0001b0 d1 1c 0c be 38 16 ce 3d aa 0f 8c 3d f8 a4 e9 bd
       -0.13682868 0.10062832 0.06838925 -0.114084184
0001c0 ea 5f 35 bd da 4c ac 3d b3 ee b4 3d 00 97 a5 bc
       -0.044280924 0.08413096 0.08834591 -0.020213604
0001d0 8d 24 b2 3d a0 66 af bd 4f 6a 04 be 5c eb ac bc
       0.08698378 -0.08564496 -0.12931179 -0.021108322
0001e0 60 74 42 bc c0 68 41 3c aa b3 b1 3d 48 40 b8 3d
       -0.011868566 0.0118047595 0.08676846 0.08996636
0001f0 bd 7f 02 3e a4 38 d8 3d 76 df d4 bd 1f 74 53 bd
       0.12744041 0.10557678 -0.10394184 -0.051624414
000200 de 28 4d bd 80 1b 57 bd 98 8e 83 3c 06 7b 91 3d
       -0.050087802 -0.05251646 0.016059205 0.07103543
000210 b3 35 16 be 45 a9 7d 3d 9c 82 63 3d c7 f7 0f 3c
       -0.14668922 0.061929006 0.05554448 0.008787102
000220 d5 29 f6 3c 19 97 b8 bd 02 0d c6 bd 4a 78 4e bd
       0.030049244 -0.090131946 -0.0967045 -0.050407685
000230 6c 49 16 be 50 1b b2 3c b2 87 17 3d ee f2 07 bd
       -0.14676446 0.02174154 0.036994644 -0.03319066
000240 cd f9 a4 3d ae 0f 6e bd 52 e9 d3 bd ae d3 28 3d
       0.08055458 -0.058120422 -0.10347237 0.0412175
000250 a8 b6 b5 3d 6c 2a 4d 3d
       0.088727295 0.050089285

out.bias f4 [3]
000000 dd 5d d4 bd 17 6e 56 3e ee 83 32 bd
       -0.103694655 0.20940433 -0.04358285
