models/a381fa2dd0fd0a7908543482e85f097a.pt (torch_old, 55793 bytes, 8 tensors)

fc1.weight f4 [100, 20]
000000 20 34 b8 3d 9e a1 08 be 28 de 85 bd b8 db 48 3e
       0.08994317 -0.13342902 -0.065365136 0.19615066
000010 ac 61 ad bd 98 9a 18 be d3 cb 5d bb 48 1d ba 3d
       -0.08465895 -0.14902723 -0.0033843413 0.09087616
000020 0a c1 9a 3c c4 2e 29 be 91 0b 10 3e a0 64 da 3d
       0.018890876 -0.16521746 0.14066912 0.10663724
000030 20 ca 7f 3c 04 57 59 be d4 1c 47 3e 80 79 5d 3e
       0.015612155 -0.212246 0.19444591 0.2162838
000040 04 d0 2a 3e 08 3d 28 3d be 88 24 be e8 e3 f4 3d
       0.16680914 0.04107383 -0.16067788 0.11957532
000050 f6 e4 2a be 9e b0 34 be 4e 91 03 be 58 ca 73 3d
       -0.16688904 -0.17645499 -0.12848398 0.059519142
000060 4e 7d a8 bd 3a 36 03 3e 82 39 de 3b 22 f9 a1 3b
       -0.08227025 0.12813655 0.006781758 0.004943029
000070 3b 3d 79 3d d0 08 e7 bc 2e bd 39 be f3 00 63 3e
       0.06084941 -0.028202444 -0.18138573 0.22168331
000080 7c 70 a5 bd 96 64 18 be 9c 1d fc 3d bf d2 55 be
       -0.08078095 -0.1488212 0.12310335 -0.20881175
000090 38 7c 25 3e c8 0e 4a 3d a2 d4 1a be 6c 16 14 3e
       0.16160667 0.049330503 -0.15120175 0.14461678
0000a0 1c 94 3d be 94 0a 36 3e 39 f6 48 be 44 06 a3 bd
       -0.1851353 0.17777473 -0.19625176 -0.079601794
0000b0 0c fc 82 bd 40 7c b5 3d 3c 11 86 3d ad 2f 49 be
       -0.063957304 0.088615894 0.06546256 -0.19647093
0000c0 fe 6c 5f 3e 8f 2f 52 3e d4 27 86 3d c5 ff 30 3e
       0.21818921 0.20525955 0.06550565 0.17285068
0000d0 69 4b 05 be d0 17 0e be 66 e4 2b 3e 68 0b 9e 3d
       -0.13017048 -0.13876271 0.16786346 0.07717019
0000e0 be cc a8 bd e0 6d 8a 3b fa b0 f7 bd 81 4a fd bd
       -0.082421765 0.004224524 -0.120943025 -0.12367726
0000f0 32 0b 83 bd 88 16 5a 3e 0e 5e 06 be d8 3d 4e 3e
       -0.0639862 0.21297657 -0.13121817 0.20140779
000100 65 58 04 3e 0e 69 29 3e 54 05 2d 3d f4 a3 5c 3e
       0.12924345 0.16543981 0.04224141 0.21546918
000110 df c6 cd 3d f3 52 31 3e e6 77 27 be 66 ce 04 be
       0.10047697 0.17316799 -0.16354331 -0.1296936
000120 60 e7 94 3d 40 80 43 3c 68 ae 78 3d 48 8f 86 3d
       0.07270694 0.011932433 0.0607132 0.065702975
000130 f0 59 2a bc f8 c5 bf 3d e1 18 44 be 75 38 1e be
       -0.010397419 0.093639314 -0.19150116 -0.15451224
000140 80 ba 2b 3e c0 ed be 3d a0 c9 e2 3c 90 ab 24 be
       0.16770363 0.09322691 0.027684033 -0.16081071
000150 68 7c 0f be 00 20 ec b8 a8 9c 18 3e e7 2d 4e 3e
       -0.14012301 -0.000112593174 0.1490351 0.20134698
000160 72 af 0e 3e b5 68 61 3e 3c 53 1b be 29 6c 45 be
       0.13934115 0.22012599 -0.1516847 -0.19279541
000170 8c 81 43 be 90 26 5f 3e 10 86 76 3d 54 fe 7a bd
       -0.19092387 0.21792054 0.060186446 -0.061277702
000180 9a 9e 01 3e 00 fe dc 3d 10 b3 c4 bc a0 d5 8e bc
       0.12658158 0.10790634 -0.024011165 -0.017435849
000190 88 91 ac bd 3c 8f fc 3d 68 2e df 3d 38 7a 88 3c
       -0.084261954 0.12332007 0.10897523 0.016659841
0001a0 10 14 0f 3d 38 a9 5c be d9 07 1c be 4b f2 5b 3c
       0.034931242 -0.21548927 -0.15237369 0.013424466
0001b0 94 ce 45 3e 8e 72 2a be 0f 05 41 3e e3 e0 d0 3d
       0.19317085 -0.16645262 0.18849586 0.10199144
0001c0 1c 15 af 3d e0 11 46 3e 22 58 39 be c4 df cd 3d
       0.08548948 0.19342756 -0.18100026 0.100524455
0001d0 5e e7 00 be b2 06 32 3e d4 5e 01 3e bc 07 01 3e
       -0.1258826 0.17385367 0.1263383 0.12600607
0001e0 5e 3b 17 3e d6 6a 0e 3e 10 cf e9 3d de 4e 45 be
       0.1476874 0.13907942 0.11416447 -0.19268367
0001f0 f7 d9 07 bd a9 cf 1c bd d6 89 41 be 58 58 b3 3b
       -0.03316685 -0.038283978 -0.18900236 0.005473178
000200 18 92 ef bd 8e a4 67 bd 78 ce 58 3e 89 97 4f 3b
       -0.11697787 -0.056553416 0.21172512 0.0031676015
000210 f8 0e 1c 3e 38 f5 4f 3e e2 f8 62 3e 90 30 00 3d
       0.15240085 0.20308387 0.22165254 0.031296313
000220 62 da c8 bd e8 2b 7d 3d d6 39 55 3e b8 12 7d 3d
       -0.09807278 0.06180945 0.20822844 0.06178543
000230 f8 dd 99 bc 40 2d 25 3d 40 73 10 3e 00 77 18 3e
       -0.0187826 0.040326357 0.14106464 0.14889145
000240 0c d1 05 3c 9a 0a 88 bd 98 ec 27 be 3d 51 40 3e
       0.008167516 -0.06642647 -0.16398847 0.1878099
000250 ac 24 11 3e 61 80 b3 3d 07 73 1a 3e c6 5d 02 be
       0.14174145 0.08764721 0.15082942 -0.12731084
000260 a4 0b ff 3d 5a 86 ac bd f8 15 1b bd 98 19 c6 3d
       0.12453392 -0.08424063 -0.037862748 0.0967285
000270 d8 3b e8 bc 8f 09 11 be 9c 6d 21 bd f0 ad 5d 3d
       -0.028348848 -0.14163803 -0.039411172 0.054120958
000280 b0 5d 28 3e 72 6b fd bd 0c 47 2d 3e c6 55 63 3e
       0.16441989 -0.12374009 0.16921633 0.22200689
000290 06 e3 b3 3d de 6e 33 be 37 9f 38 3d 3a 2c a6 3d
       0.08783536 -0.17522761 0.045073714 0.08113904
0002a0 70 b2 0d be 63 da 45 3e 22 fa 8c bd fe 19 28 bc
       -0.138376 0.19321589 -0.068836465 -0.010260103
0002b0 7c 67 f3 bd 18 ed 45 3d fc 99 34 3e 18 43 f0 3d
       -0.118849725 0.048321813 0.17636865 0.11731547
0002c0 f1 cd 59 be f0 27 ad bc 70 82 41 3c d0 71 6d 3d
       -0.21269967 -0.021137208 0.011810884 0.05796987
0002d0 d8 38 8d bc 1e b9 3c 3e ea 52 35 3e c0 54 52 3e
       -0.01723902 0.18429992 0.1770741 0.20540142
0002e0 5f 2d 2e 3e f1 c5 04 bd fd 6f 40 be 8f f4 bb bd
       0.17009495 -0.032415334 -0.1879272 -0.09177505
0002f0 84 dc 6e bd e0 ac 2c 3d fd f4 32 3e c6 74 62 be
       -0.05831577 0.042157054 0.17476268 -0.22114858
000300 a0 64 47 bd 0a e6 38 be 48 7f 03 bd 80 4d 23 3d
       -0.048679948 -0.18056503 -0.032103807 0.03986883
000310 4c c6 4e bd b4 d7 ef 3d b2 e2 11 3e 78 27 49 3e
       -0.05048208 0.11711064 0.14246634 0.19643962
000320 c2 cb 20 3e 36 87 e4 bd 20 24 53 bc 24 ad 92 bd
       0.15702727 -0.11158602 -0.012887031 -0.0716193
000330 b4 de 2c bd 06 e5 2a bd d9 7b 60 be 6c 5d 8d 3d
       -0.042204574 -0.04172232 -0.21922244 0.069025844
000340 38 b7 42 bd 0d 29 66 bd 78 a1 73 bb 20 ca 32 3e
       -0.047538012 -0.056191493 -0.00371751 0.17459917
000350 78 bf 2f 3e fc 6e 3f 3e c8 73 8f bc b7 a4 dd bd
       0.17162883 0.18694681 -0.017511263 -0.108224325
000360 08 b0 ae bc 96 47 13 be 79 8b dc bd 96 4c 57 be
       -0.021324173 -0.14382777 -0.1076879 -0.21025309
000370 14 75 1e 3e 34 f4 9d bd df 61 48 be 84 f9 05 bd
       0.1547435 -0.07712594 -0.19568585 -0.03270866
000380 14 3e 35 3e 00 9f 16 bc 13 44 0b 3e 40 ef ae bc
       0.17699462 -0.009193182 0.13600187 -0.021354318
000390 1e 72 22 3e f0 16 da 3c d6 58 22 3e 00 56 d5 b9
       0.15863845 0.026622266 0.158542 -0.000406906
0003a0 c0 df b2 bb aa 4c 45 3e 50 9b 7f 3c a8 37 3b bd
       -0.005458802 0.19267526 0.015600994 -0.045707375
0003b0 0e 92 4e be 91 47 d5 bd 54 a5 0e 3e ca bc 94 bd
       -0.20172903 -0.10414041 0.13930255 -0.07262571
0003c0 b2 4e 61 3e 3a 7d 4a 3e fc 42 30 3e 9a 69 1c 3e
       0.22002676 0.19774333 0.17213053 0.15274659
0003d0 ac e7 52 bd fa 83 04 be a2 c4 03 3e eb 6f 02 3e
       -0.05149047 -0.1294097 0.12867978 0.12738006
0003e0 70 5c 8a bd 2d 9e 9d 3d 49 02 4e 3e 11 f0 c4 3d
       -0.06755912 0.07696185 0.20118059 0.096161015
0003f0 1c c4 49 be a4 4b 1f bd 00 3e 98 3a 50 f0 3d 3e
       -0.19703716 -0.038890496 0.0011615157 0.18548703

fc1.bias f4 [100]
000000 08 d2 cf 3d c4 37 12 3d 82 63 e7 bd 6c ff 15 3e
       0.10147482 0.035697713 -0.112982765 0.14648217
000010 91 f0 4e be 51 21 60 3e a2 f1 1d 3e 00 7d 49 3d
       -0.20208956 0.21887709 0.15424207 0.049191475
000020 12 ca da 3d 34 b9 db 3d 76 b8 03 3e fc c5 52 bd
       0.10683073 0.10728684 0.12863335 -0.051458344
000030 5b dc 05 bd 8e 6a c6 ba bc 9a 1e 3e b9 88 4f be
       -0.03268085 -0.0015137957 0.15488714 -0.20267
000040 46 41 4f be ef d4 5a 3c 9c 0e 60 bc 96 ce 20 3e
       -0.20239744 0.013356431 -0.013675358 0.15703806
000050 84 ea 15 bc 4b 51 3d 3d be c4 6d 3d 5f 12 63 3d
       -0.009150151 0.046220105 0.058048956 0.055437442
000060 88 54 d6 3d 9b 0a 16 be 9a 8b f2 bd 73 9e f9 bd
       0.10465342 -0.14652483 -0.11843033 -0.12188425
000070 c9 38 e4 3d b6 eb 21 bd 4b d2 22 3d cf 62 0d bc
       0.111436434 -0.039531432 0.039751332 -0.008629515
000080 70 c2 03 3e 54 ce 81 bd f5 a8 04 3e 16 9e a4 bd
       0.12867141 -0.06338182 0.12955077 -0.08037965
000090 94 b5 17 3e 97 7b c1 bd d1 b1 33 3d d2 d1 85 bd
       0.1481536 -0.09447401 0.04387075 -0.06534161
0000a0 db 72 92 3d 03 30 a3 3c d3 10 59 3e 1e 0f 2e be
       0.07150813 0.019920355 0.21197824 -0.16997954
0000b0 42 ce c3 3d 51 f0 0e be a0 28 82 bd b5 5e ce 3d
       0.09560825 -0.13958861 -0.06355405 0.10076658
0000c0 44 1f ce 3d e3 1d 33 3d 89 29 e8 bc cb 38 a2 bc
       0.10064557 0.043729674 -0.028340118 -0.019802472
0000d0 d4 e8 39 be ba 7c 3a 3e dc 1d f8 3d 30 f5 c2 bd
       -0.18155223 0.18211642 0.1211507 -0.09519422
0000e0 99 ec c7 3d c3 0b 9c bc 33 f3 d6 bd c3 44 76 3d
       0.09761924 -0.019048577 -0.10495605 0.06012417
0000f0 c9 68 76 3d be 20 18 3e ab 57 09 bd 9a ba 7e bd
       0.060158525 0.1485624 -0.033530872 -0.062189676
000100 13 40 ea 3d 5d 75 54 3e f5 11 73 bc 32 d2 30 bd
       0.114380024 0.20747896 -0.014835824 -0.043169208
000110 4e a9 e8 bc ca 62 11 be 9f a2 5e 3e 0d 75 20 3d
       -0.028401043 -0.14197841 0.21741723 0.03917413
000120 fb ea 21 3e f6 63 ac bd df 3f 47 bd 45 a2 48 be
       0.15812294 -0.084175035 -0.048644897 -0.19593151
000130 31 0e 37 3e 20 c2 17 bd 70 2b 0d 3c c5 3b f8 3c
       0.17876507 -0.037050366 0.008616313 0.030301938
000140 11 4d 30 be d2 8c be 3d 8c 25 e3 3c 48 37 76 bd
       -0.17216899 0.09304203 0.027727865 -0.060111314
000150 04 66 b4 bd 61 1d 37 3e 43 f1 66 3e 0f ab 34 3e
       -0.088085204 0.17882301 0.22552972 0.17643379
000160 fa 21 7b 3d b1 0a 8e 3d 49 11 53 bc 58 4a ea 3d
       0.0613117 0.06935633 -0.012882539 0.11439961
000170 17 00 42 3e df 67 04 be 2c 20 41 3e 56 9e fb bd
       0.18945347 -0.12930249 0.18859929 -0.122860596
000180 17 b7 c2 3d b7 8b 43 be 9b 77 b8 bd 8a 07 3b be
       0.09507578 -0.19096266 -0.09007188 -0.18264595

fc2.weight f4 [75, 100]
000000 28 58 25 3c e4 5c ef 3c d0 ba 8d bd d2 06 3a 3d
       0.010091819 0.029219098 -0.06920397 0.04541666
000010 e3 12 93 bd 20 ff 82 bb ac ad fc bc a9 0a b7 3d
       -0.07181337 -0.0039976984 -0.030844532 0.0893758
000020 33 cf 1f bd 20 3d 11 bd d0 cb db bb ec b2 db bc
       -0.03901596 -0.035458684 -0.006707646 -0.026818715
000030 0b e0 b5 3d c0 55 78 bc b8 79 be bd 9b 7d b1 bd
       0.088806234 -0.015157163 -0.0930056 -0.086665355
000040 3a 95 22 bd 73 40 8f 3d 4e b2 9a bd d0 c8 bc bd
       -0.039693095 0.069947146 -0.0755354 -0.092179894
000050 56 16 7a 3d 04 b8 da 3c 42 73 7a 3d c4 f1 85 bd
       0.061056457 0.026699074 0.061145075 -0.06540254
000060 c0 47 76 bc f7 cb 23 bd a0 5f 90 3b 51 0f 9a 3d
       -0.015031755 -0.039989438 0.0044059306 0.075224526
000070 39 4f 97 3d d4 bf a4 3c f7 3d aa 3d e1 ad bb 3d
       0.073881574 0.020111002 0.083126 0.09164024
000080 3a 43 5d bd 47 d3 33 bd 1a ca 21 3d 2a 4a 1e 3d
       -0.05401919 -0.04390266 0.03949938 0.038644947
000090 51 b5 b2 3d 00 5d cb 3b 2d 6d 9d bd f0 05 1a 3c
       0.087259896 0.006206155 -0.07686839 0.00940083
0000a0 bd bc 75 bd 3e 99 94 bd dd a1 9d bd f0 8d 4d 3c
       -0.059994448 -0.07255791 -0.076968886 0.012546048
0000b0 86 34 67 3d 50 05 2f bc d5 c0 ba 3d e3 85 ab bd
       0.056446575 -0.010682419 0.09118811 -0.08375146
0000c0 42 8f 2a 3d 66 37 3d 3d b0 89 cc bd a0 7d c5 bb
       0.041640528 0.04619541 -0.09987199 -0.0060269386
0000d0 77 a6 b9 bd 15 3f 82 3d 0e 22 65 3d 98 7d b2 bc
       -0.09064954 0.06359688 0.05594068 -0.021788403
0000e0 b4 1f d0 bc 89 43 b2 3d c1 13 b9 3d dd 82 b1 3d
       -0.025405742 0.087042876 0.09036971 0.08667538
0000f0 b9 ac 94 3d 47 6a 56 bd 18 a5 b3 bd ba 0a 05 3d
       0.07259507 -0.052347448 -0.087717235 0.032480933
000100 53 57 43 bd 58 59 be bc a0 fb ce bc 10 67 8c bd
       -0.0476907 -0.023235962 -0.025266469 -0.06855595
000110 4a c8 46 bd b0 46 c3 bb 62 83 44 3d 52 ac 7d 3d
       -0.048530854 -0.0059593543 0.04797686 0.061931916
000120 ab c6 be bd 80 17 9c 3b 3e 1a 32 3d 62 40 8a bd
       -0.09315237 0.0047635436 0.043482058 -0.06750561
000130 6c 8b d3 bc 63 dc 70 bd 55 58 a6 bd 48 bb 85 bc
       -0.025823317 -0.058803927 -0.08122317 -0.016324654
000140 22 13 48 3d ba 0e 5c bd 80 38 d5 3b fe 3f 02 3d
       0.04884637 -0.05372498 0.0065069795 0.03179931
000150 c7 d5 8c 3d 30 10 a6 bd 9e 79 6c 3d e9 43 9b 3d
       0.06876712 -0.08108556 0.05773317 0.07581312
000160 44 7c 02 bd fd 60 9b bd a8 b3 86 3c 0a 45 83 bd
       -0.03185679 -0.075868584 0.016443089 -0.064096525
000170 02 5f 7d 3d 0c a9 94 3c cd cc 9a 3d fc ec ef 3c
       0.061858185 0.018147014 0.07558594 0.029287808
000180 53 51 bb bd 50 92 fb bb 87 0e 72 bd b4 e6 8a 3c
       -0.09146371 -0.007677354 -0.059095886 0.016955711
000190 0a 40 f3 3c c7 ae 20 3c 38 46 aa 3d 0b c8 79 3d
       0.029693622 0.009807295 0.083141744 0.06098179
0001a0 bf 10 91 3d a6 ef 58 3d 21 d5 46 bd d8 6c 09 bc
       0.07083272 0.05296292 -0.0485431 -0.008387767
0001b0 4a b7 35 bd f9 72 a6 3d de 88 9f 3d 50 7a f8 3b
       -0.04436425 0.08127398 0.07789777 0.00758294
0001c0 a1 e2 a9 bd 3f 49 99 3d 54 c8 8e 3d f7 a6 25 bd
       -0.08295179 0.07484674 0.06971803 -0.040442433
0001d0 e5 31 ac bd 08 0a af bd 7e 37 a3 3d 96 2a cb 3b
       -0.08407954 -0.08546835 0.07969569 0.006200145
0001e0 22 3e c4 bd 30 60 9f bd 34 bc fb bc be c2 79 bd
       -0.095821634 -0.07782018 -0.03072939 -0.060976736
0001f0 b0 d4 0b bd 28 62 8b 3c 8b e8 36 3d d0 e5 82 3b
       -0.03413838 0.017014578 0.044655364 0.003994681
000200 f5 16 09 bc 2e 8a 97 bd 3d c3 6e bd 17 60 4c bd
       -0.00836729 -0.073994026 -0.058291662 -0.049896326
000210 08 6f 9a bb d4 0b 82 bd 5e cc 6c 3d e8 89 4e bd
       -0.004712943 -0.06349912 0.057812087 -0.050424486
000220 d4 ce 90 3d f8 9b 2f 3d 06 b5 8f bd 68 d1 4e bc
       0.07070699 0.042873353 -0.07016949 -0.0126231685
000230 00 dd a3 bc 1c b7 8b 3d 40 e3 45 bd 4c 95 eb 3c
       -0.020002842 0.06822035 -0.048312426 0.028757714
000240 5e 7d a6 bc 60 8f 6a bd b1 15 c7 3d 74 ab 08 3d
       -0.020323452 -0.05726564 0.09720934 0.033366635
000250 8a 1f fb 3c c1 05 4b 3d fc 17 30 3d 4c 6d 48 bc
       0.030654687 0.049566034 0.042991623 -0.01223309
000260 1a 9b 73 3d 2e 7c 8c bd 98 93 49 3c 00 12 bb bb
       0.05947409 -0.06859623 0.0123032555 -0.005708933
000270 07 45 8a bd 53 1d 7d 3d 22 5f 93 3d 2a a8 a8 bd
       -0.06751447 0.061795544 0.071958795 -0.082352
000280 ea e0 6f 3d 18 2f 07 3d d6 43 2a 3d 8d 33 75 bd
       0.058564104 0.033003896 0.0415686 -0.059863616
000290 43 79 74 bc 97 6a eb 3c 88 71 db bc 53 6d 6a bd
       -0.014921489 0.02873735 -0.026787534 -0.057233166
0002a0 f8 31 99 bd c0 ee 8e ba b9 5e 72 3d b4 e4 c9 bc
       -0.07480234 -0.0010904893 0.059172366 -0.024645187
0002b0 02 86 a4 bd 63 b6 8f 3d a0 a0 96 bd ab d4 c2 bd
       -0.080333725 0.070172094 -0.073548555 -0.095132194
0002c0 47 07 09 3d 28 8c 94 bd 98 69 9a 3c 53 af 4b bd
       0.033454206 -0.07253295 0.01884918 -0.04972775
0002d0 54 28 05 bd 59 40 b2 3d f5 db 71 3c 91 68 bb bd
       -0.032509163 0.087036796 0.0147619145 -0.09150804
0002e0 b4 b9 d0 bb 53 cd 00 bd 5e 69 26 bd 82 ae e1 bc
       -0.006369794 -0.031445812 -0.04062783 -0.027549032
0002f0 ee 2f aa 3d 4f 0d 06 bd 1c 54 74 bd d9 85 89 bd
       0.08309923 -0.032727536 -0.059650525 -0.067149825
000300 ad d7 ef 3c cc 4e 92 bc cb 7f ed 3b 93 1c 4f bd
       0.029277647 -0.017859839 0.0072479 -0.05056436
000310 2b af b1 bd 62 7c 55 3d bc c3 84 bd 7d 5d b0 3d
       -0.08675989 0.052120574 -0.06482646 0.086115815
000320 76 8a 6c 3d 21 4b 15 3d 61 5f 0f 3d d6 a1 c1 3d
       0.057749234 0.0364486 0.03500307 0.09454696
000330 fb 34 90 bd 1a 24 2c bd d8 3d 89 bc 24 ed 46 bd
       -0.07041355 -0.042026617 -0.016753122 -0.048566
000340 c4 1b b4 3d e6 37 b0 3d 09 67 40 bd 99 c6 60 bd
       0.087943584 0.08604412 -0.046973262 -0.054876897
000350 f2 eb 44 3d 30 2e 94 bd 6d 19 85 3d 1f 82 12 3d
       0.048076577 -0.07235372 0.0649899 0.035768624
000360 e1 e8 9c 3d 64 04 b5 3d 77 5d 91 bd 99 74 ba bd
       0.076616056 0.08838728 -0.07097905 -0.091042705
000370 85 ba 5d bc eb fc ad bd 0e 24 86 3d 28 a1 92 3d
       -0.013533239 -0.08495506 0.06549846 0.07159644
000380 1d 6f 25 3c 90 af a7 3d b6 4f 95 bd ce 58 ca bd
       0.010097292 0.08187783 -0.07290594 -0.098802194
000390 e7 f4 85 bd 5c f5 a9 bd c0 07 50 bc d6 18 ad bd
       -0.06540852 -0.08298752 -0.01269716 -0.08452003
0003a0 bc b1 85 bd d3 bb 9a 3d 30 86 86 bb 6b a7 74 3c
       -0.06528041 0.07555356 -0.004105352 0.014932494
0003b0 5d 67 bc bd 06 71 b3 3d e7 e2 a4 3d b5 2e c2 bd
       -0.091994025 0.08761792 0.08051091 -0.09481565
0003c0 aa c3 25 bd bc 74 82 3d 9a c9 c6 3c f0 43 14 3c
       -0.040469803 0.063699216 0.024266053 0.009049401
0003d0 66 3f c0 bc a3 fe 93 3d ee fb 96 3d 5c e3 ef bb
       -0.02346773 0.072263025 0.073722705 -0.0073208045
0003e0 3d 40 9c 3d e0 1a 86 3d f6 f8 81 3d 62 af c6 ba
       0.0762944 0.06548095 0.06346314 -0.0015158469
0003f0 f5 f0 ab 3d 34 0a ae 3c 7b a9 ac 3c 76 b9 a8 bd
       0.08395568 0.0212451 0.021076908 -0.08238499

fc2.bias f4 [75]
000000 63 0f c6 bd 2b 54 9e 3b 91 85 aa 3d d6 cf 04 bd
       -0.096709035 0.004831811 0.08326257 -0.03242477
000010 67 0e eb bc 40 8a 31 3d 55 05 3c 3c a5 44 9b 3d
       -0.028693391 0.043344736 0.011475881 0.07581452
000020 8d 64 1e bd 75 40 a5 bd 6c 6a 6d bd 10 0e c1 3c
       -0.03867011 -0.08068935 -0.05796282 0.023566276
000030 99 64 bb 3d 43 50 89 bd ca 74 c0 3c 56 b8 ee 3c
       0.09150047 -0.06704762 0.02349319 0.029140633
000040 74 e3 d8 bc 88 1b 6d bd f2 56 b4 bd 9c 1d df 3c
       -0.026475646 -0.057887584 -0.08805646 0.027235799
000050 88 70 aa bc 9d e7 09 bc d3 56 34 bd fb ad 0d 3c
       -0.020805612 -0.008417037 -0.044028115 0.008647437
000060 70 af 6f bd c2 7a cb 3c c4 c6 59 bb f1 37 e7 3b
       -0.05851692 0.024838809 -0.0033230046 0.0070562293
000070 5e 1f a5 3d 38 d7 2c 3d 9a ec ac bc 30 1f 65 3d
       0.080626234 0.042197436 -0.021108914 0.055937946
000080 05 31 34 3d 50 f2 8c bb 9e 63 71 3d 6c a5 85 bd
       0.04399206 -0.004301347 0.058932893 -0.06525692
000090 13 1b 11 3c 03 bd e5 bc a5 04 be bd 23 ff 94 bd
       0.008856553 -0.02804423 -0.092782296 -0.07275226
0000a0 aa 54 ba bc 20 7c e3 bc cc d9 8b 3c d9 0d 83 3c
       -0.02274545 -0.027769148 0.017071627 0.015997814
0000b0 3a 3f 70 3d ab fa a2 bd 18 05 af 3d 01 63 ba 3c
       0.058654048 -0.07957967 0.085458934 0.022752287
0000c0 da 13 bd 3d 87 a4 04 bd a7 44 bf 3d c9 32 8f 3d
       0.09232302 -0.032383468 0.09339266 0.069921084
0000d0 6f ed 97 3d 78 56 af bd b5 c2 c8 3d ea 46 68 bd
       0.07418334 -0.085614145 0.098027624 -0.056708254
0000e0 ba 3e 45 3d 51 d1 7b bc ea 03 14 bd 07 59 2c bc
       0.048155524 -0.015369729 -0.036136545 -0.010519273
0000f0 9f f3 cb bd 7e ee ac 3d 94 03 0e bd d5 a5 8a 3d
       -0.099585764 0.08443926 -0.03467138 0.06769911
000100 b9 97 c8 bc 3d dc 4b 3d d3 87 bf bd 1b 3a 65 3c
       -0.02448641 0.049770582 -0.09352078 0.013990904
000110 9f 90 82 bd 82 9f 9d bd d7 ef 63 3d 40 0a 7c 3d
       -0.063752405 -0.07696439 0.05564865 0.061533213
000120 3b d5 8a 3b 61 a4 93 bc a0 8c 18 3d
       0.004236845 -0.018022718 0.037243485

fc3.weight f4 [50, 75]
000000 1e fc b9 3d 53 4a 0a bd ee f4 98 3d 31 1f d2 bd
       0.09081291 -0.033762287 0.07468592 -0.102598555
000010 d3 31 8c 3b 70 14 8f bd 95 7e b1 bd 72 8f 98 bd
       0.0042784004 -0.0698632 -0.08666722 -0.07449235
000020 cc c8 85 3d e4 85 96 3d 05 87 21 3d 6c fe cf bc
       0.065324396 0.07349756 0.039435405 -0.025389872
000030 bc e1 54 bc 02 d3 86 3d 68 00 9f bd f5 14 70 bd
       -0.012993272 0.06583215 -0.07763749 -0.058613736
000040 fa a8 25 bd 29 68 5b bd 58 cb b0 3d fc 41 09 3d
       -0.04044435 -0.05356613 0.08632535 0.033510193
000050 38 97 cf bd 8f 01 b4 bd b9 fd d9 bd ac 4d e9 3d
       -0.101362646 -0.0878936 -0.10644097 0.11391768
000060 8c 9c eb 3d 31 42 ce 3d 68 2a 87 3d bd ac 19 bc
       0.11504468 0.10071219 0.06599885 -0.009379563
000070 85 eb 45 bd 05 5a 29 bd 1b 50 c8 bc 7e 72 85 3c
       -0.048320312 -0.041345615 -0.02445226 0.016289946
000080 2e bb d5 3d b0 a6 88 3c be 6c a0 bd e6 f6 a0 bd
       0.10436092 0.016681045 -0.07833241 -0.07859592
000090 6c 5e 0b 3d f6 09 1b bd 18 1f bb 3d 5c 32 87 bd
       0.034025595 -0.037851296 0.0913679 -0.06601402
0000a0 16 59 57 3c 1e 9a ab 3d 7b 28 cf 3d 82 56 84 3d
       0.013143798 0.08379005 0.10115143 0.064618126
0000b0 73 9e e4 3d d0 08 da 3d ff 99 1a 3d 28 15 5d 3d
       0.11163034 0.10646212 0.03774452 0.053975254
0000c0 a1 a7 b2 bd 32 fb a2 3d 52 e4 e8 bd 1e e5 e1 bd
       -0.08723379 0.07958068 -0.11371674 -0.11030029
0000d0 13 8a 67 3d 6a 98 f3 3c c6 0f b1 bd 05 01 b1 bd
       0.056528162 0.029735763 -0.08645587 -0.086427726
0000e0 46 ba 3c bd fb 10 1f 3d 52 5c b0 3d bb b7 bc bc
       -0.04607608 0.038834553 0.08611359 -0.023036828
0000f0 a8 2a e3 3c 5b 4e d1 3d 65 ee 80 bd e8 dc aa bd
       0.027730301 0.10220023 -0.0629547 -0.08342916
000100 54 4f 63 3c bb 2d 55 3c 44 7f 3a 3d 99 fe 45 3d
       0.013873894 0.013011391 0.045531526 0.048338506
000110 60 17 bf bc 30 a8 ab bd 84 3f 6a bd 75 48 43 3d
       -0.023326576 -0.083816886 -0.05718948 0.047676522
000120 f9 d0 8a bd 7f 24 5a bd 97 8e d1 bd db 7b 8c bd
       -0.067781396 -0.05325746 -0.10232275 -0.06859561
000130 0e 68 d5 bd 6d 1b b5 bd bd 22 e4 bd 07 de 0b bd
       -0.104202375 -0.08843122 -0.11139438 -0.03414729
000140 88 e0 3d 3d 58 c9 7f bc 04 81 25 bd b8 48 d1 bc
       0.046356708 -0.015611969 -0.040406242 -0.02554737
000150 50 01 ae bb 3a 3f df 3c 4a c4 cb bd 85 ac 9c 3d
       -0.005310215 0.027251828 -0.099495485 0.07650093
000160 8d 6c 94 bd ae 91 31 bd 58 51 d7 bd 02 f9 ce 3d
       -0.07247267 -0.04335182 -0.10513562 0.10106088
000170 a1 e3 8e 3c 28 a9 c0 3c ef 0a e6 3c 8c 18 c2 bd
       0.017442526 0.02351816 0.028081385 -0.09477338
000180 65 e2 d0 3c d8 63 d1 3d 01 a4 e8 3d 83 16 e0 bd
       0.025498578 0.10224122 0.11359406 -0.10941794
000190 c2 60 93 bd bb 8c 52 3d 47 c5 9f 3d 4e 39 a8 3d
       -0.071961895 0.051403742 0.078012995 0.08214055
0001a0 32 5d ca 3d b5 df c8 bd 4a 66 1e 3d 16 90 1a bc
       0.09881057 -0.09808294 0.03867177 -0.009433767
0001b0 ba d0 c5 3d 0b 90 54 3d d8 70 28 3d 94 02 b6 bd
       0.09658952 0.051895183 0.04112324 -0.088872105
0001c0 c2 ae d0 3d f4 7f 51 bd 6b 9d 08 3b 1c d5 5c bd
       0.101895824 -0.051147416 0.0020845782 -0.053914174
0001d0 ed 47 78 bd 9d 30 b0 3d 89 29 55 3c 56 04 f8 3c
       -0.06061547 0.08603022 0.013010391 0.030275505
0001e0 bc ff 82 3d 2c ea 0f bd 86 c4 d3 bd 38 1c 21 bd
       0.06396434 -0.035135433 -0.10340218 -0.039333552
0001f0 80 19 28 3c 7a 55 08 3d 16 10 79 3d 39 c8 d2 3c
       0.010259986 0.03328464 0.060806356 0.02573024
000200 88 0e 87 bd a7 33 b1 bd cb fe 9a bd ee 45 d5 bd
       -0.065945685 -0.0865243 -0.07568129 -0.10413729
000210 75 45 48 3d 4d a1 70 3d e8 a7 51 ba 94 61 55 3d
       0.048894364 0.05874758 -0.0007997737 0.05209501
000220 fe e6 ae 3d 41 5d 43 bd 5a 51 b7 3b c4 87 c2 3d
       0.08540152 -0.047696356 0.0055944147 0.094985515
000230 b8 e9 ba 3d db f8 bf bd d4 d0 77 3d 5f 6d 12 bd
       0.091266096 -0.09373637 0.06050189 -0.035748836
000240 34 ab 96 bd 0c e0 af bd d8 cc 45 bd 4f 1b de 3d
       -0.07356873 -0.085876554 -0.048291057 0.108450525
000250 5b 2c 27 bd 21 72 eb 3c bc cb fb bc bc 29 b0 3b
       -0.040813785 0.028740944 -0.030736797 0.005376069
000260 f6 63 cb bc 5a fc 2a 3c 97 d6 8d bd 11 6e e1 bc
       -0.024827939 0.010436142 -0.069256954 -0.027518304
000270 50 b3 79 3c bf 4c 0e 3d 40 b8 da bb 4c 5f 00 bd
       0.015240505 0.03474116 -0.0066747963 -0.031340882
000280 a8 a6 4d 3d 42 09 ee bd 5d 8a 55 bd 1a c1 cb bd
       0.050207764 -0.116228595 -0.052133907 -0.099489406
000290 02 c4 af bd 62 b9 86 3c a0 d6 92 bd 12 17 d7 bd
       -0.085823074 0.01644582 -0.07169843 -0.10502447
0002a0 82 58 24 bd db ea aa 3d 63 d5 47 3d d7 0e 7a bc
       -0.04012347 0.083455764 0.048787486 -0.015262327
0002b0 02 e8 a2 bd b8 bb 58 3d c1 b0 d4 bd b6 5a 3b 3d
       -0.07954408 0.052913398 -0.10385276 0.045740806
0002c0 07 9d 3b 3c 96 36 c1 3a be c5 c3 bd 6b 7b 06 3c
       0.011451012 0.0014740999 -0.09559201 0.008208136
0002d0 14 d5 a3 3d d6 e8 75 3d 7d f3 c3 bd 58 1a 6d bc
       0.07999626 0.060036503 -0.09567926 -0.014471613
0002e0 b8 9a d2 3d 12 75 cd bd a0 f3 0a 3d fa 93 f1 3c
       0.102834165 -0.10032095 0.033923745 0.029489506
0002f0 50 a8 f4 bc 17 15 b3 ba 0f 89 13 bd 1a 8c bd 3d
       -0.029865414 -0.0013662901 -0.03601938 0.09255238
000300 16 ff 6b 3d 79 f5 d1 3d a9 47 10 3d b8 2d ab 3c
       0.057616316 0.10251898 0.03522459 0.020895824
000310 ea 85 e8 3d 7a 93 3d 3d 44 2a 14 bc e8 84 bc 3c
       0.11353667 0.046283223 -0.00904328 0.023012593
000320 97 66 c4 3d 4c e0 ea 3d 50 1c 24 3c 76 ce bf 3d
       0.0958988 0.114685625 0.010016516 0.09365551
000330 81 54 34 3b ff 61 a1 bd 25 3b 10 bc 18 53 51 bd
       0.0027516189 -0.078800194 -0.008803164 -0.051104635
000340 42 b7 28 3d db 03 24 3d c0 13 cc 3d ab df 11 3d
       0.041190393 0.04004274 0.099647045 0.035613697
000350 84 4d a2 bd 4f 31 74 bd f8 1f 0c 3c 97 61 8d bd
       -0.07924941 -0.059617337 0.008552544 -0.069033794
000360 2e 69 8e 3d 85 93 1c bd 10 25 cb bd 98 fd 51 3d
       0.06953655 -0.038226623 -0.099191785 0.051267236
000370 86 1b a3 3d 76 6e a0 3d e2 46 63 3d be ee 8f 3d
       0.07964234 0.07833569 0.05548752 0.07027958
000380 00 2f 56 bd de 0a d9 bd b3 78 e9 3d 88 75 b1 bd
       -0.052290916 -0.10597776 0.11399975 -0.086649954
000390 b5 5d 95 3d 0e ea e6 bd c6 26 cf 3d 07 e0 b0 3c
       0.07293264 -0.11275111 0.10114817 0.0215912
0003a0 a7 6d 6f 3d 3b 37 82 bd 4e 7d b3 3d 9c 42 ce bd
       0.058454182 -0.063581906 0.08764134 -0.100712985
0003b0 67 b8 d5 bc 29 03 d6 bd 87 ee b6 3d 53 94 f5 bc
       -0.026088906 -0.104498215 0.08932214 -0.029977953
0003c0 6e a0 86 bc 80 11 89 ba bb f6 fc bc 82 a5 91 3d
       -0.01643392 -0.0010457486 -0.030879369 0.07111646
0003d0 4f 2d 72 bd 9b bc 93 bd 37 c6 c8 bc b0 ef d8 3d
       -0.05912524 -0.07213708 -0.024508579 0.10592592
0003e0 e5 7f e9 bc d0 99 81 3d c1 9b 40 3c a8 57 01 3e
       -0.028503368 0.063281655 0.011755885 0.12631094
0003f0 96 ba b8 bd db ed 87 3b 72 7c c9 3d 59 11 b6 bd
       -0.090199634 0.0041482276 0.09838189 -0.088900276

fc3.bias f4 [50]
000000 95 50 84 bc ca 15 13 bd 56 53 89 bb 20 7d 76 3d
       -0.016151706 -0.03590945 -0.0041908426 0.060177922
000010 6a 62 37 bd 40 8f a2 3d 4a d7 30 3b ff f0 cc 3d
       -0.04477159 0.07937479 0.002698379 0.10006904
000020 a3 e9 39 3c 31 b3 70 bd 6d 7a a9 3d cc e7 21 3a
       0.011347207 -0.05876464 0.08275304 0.0006176203
000030 21 ba c4 3c 01 fe 5c 3d 98 fc 41 bd ee c1 d6 bb
       0.024014534 0.053953175 -0.047360033 -0.00655388
000040 a4 83 e2 3d 85 f7 98 3d 4c 97 e4 3d 19 7b bf 3d
       0.11060265 0.074690856 0.1116167 0.09349651
000050 27 1b 2c 3d 2f 44 3d bd 6e 69 64 bd 0d ac 00 3c
       0.042018082 -0.046207603 -0.055764608 0.00785352
000060 cb e7 a6 3d cf 75 b1 bd f5 fd 8e bc 71 38 69 3d
       0.0814968 -0.08665048 -0.01745508 0.056938592
000070 4c cc a5 bd 54 e8 37 3d 52 bf 9f 3d 65 fb 86 bd
       -0.08095607 0.0448993 0.07800163 -0.065909185
000080 ea 2d 67 bd 74 18 e6 3d 7a 1b 13 bd 94 9a 0d bd
       -0.05644027 0.11235133 -0.035914876 -0.034571245
000090 68 0e 24 bd bc 46 2e bd f9 de 9f 3d 19 25 dd bc
       -0.0400528 -0.042547926 0.078062005 -0.026995229
0000a0 90 72 95 bd d3 b2 d7 3d 9a 9d 26 bd 94 a0 9d 3d
       -0.07297242 0.10532155 -0.040677644 0.076966435
0000b0 80 1c 77 bd 4c 84 e9 bd 7f b0 4e 3d d1 8c b1 bc
       -0.060329914 -0.11402187 0.05046129 -0.021673592
0000c0 bd 40 b5 bd 5c b3 3a 3d
       -0.088502385 0.045581207

out.weight f4 [3, 50]
000000 5a 0b 61 bd 14 2a 07 3d 52 ce bf bd 93 ce aa bd
       -0.054942466 0.032999113 -0.09365524 -0.08340182
000010 66 64 05 be 2a 81 fb 3d 60 9b 40 3d 7c 5d 49 bd
       -0.1302658 0.122804955 0.047023177 -0.04916142
000020 f0 d2 b4 3c a2 8d ff 3d 60 58 9b bd 13 b8 06 3e
       0.02207324 0.12478186 -0.075852156 0.13156156
000030 b8 05 d3 3c 74 85 8f 3d 86 91 f9 bd 1a 56 cd bd
       0.025759563 0.07007876 -0.121859595 -0.10026188
000040 7a 21 fa 3d 9c b9 91 bc 8f 72 05 3e e7 c0 06 3e
       0.122134164 -0.0177887 0.13031982 0.13159524
000050 7a 20 b7 bd 50 64 e9 3c 2a 44 85 bd f2 7f ed bd
       -0.08941741 0.028490216 -0.06507142 -0.11596669
000060 c4 70 3d 3d 6c 76 f8 bc 90 43 c6 bd 52 60 67 bd
       0.04625012 -0.030329905 -0.09680855 -0.056488343
000070 5a 1b 5b bd a0 de b9 3c 9e 12 68 bd 8a 3d 98 3d
       -0.05349288 0.022689164 -0.05665838 0.07433613
000080 00 13 99 bb db 12 89 bd 3b 97 0b 3e 48 b4 2e 3d
       -0.0046714544 -0.066930495 0.13631909 0.0426524
000090 b4 36 64 bd 6e f3 8c 3d 88 11 25 3d 8a 37 ff bd
       -0.05571623 0.06882368 0.040299922 -0.12461765
0000a0 d9 21 9e bd 70 a7 21 3d 00 a0 ac 37 98 cf 82 3c
       -0.077213 0.03946632 2.0578504e-05 0.015968129
0000b0 da 67 fa 3d b7 5d bc bd 26 2f 6e bd a8 ab a8 bc
       0.12226839 -0.09197562 -0.058150433 -0.020589665
0000c0 58 70 98 3d aa bb f4 3d 0f 29 96 3c 3a 21 36 3d
       0.07443303 0.119498566 0.018330125 0.04446528
0000d0 0e 4b d3 bd c7 8c 20 be 62 73 cb 3d b5 e5 14 bd
       -0.1031705 -0.15678702 0.09934117 -0.03635188
0000e0 8f 56 78 3d b5 1d d7 3d 3d e5 92 bd 78 2d 8a 3d
       0.060629424 0.10503713 -0.0717263 0.06746954
0000f0 47 3c ca 3d 4c ce 72 3c a3 f3 da 3d fc e7 4a bb
       0.09874778 0.014819693 0.10691001 -0.0030961027
000100 04 79 23 3d 68 e0 58 bc 2a 46 7b 3d ab 37 db 3d
       0.03991033 -0.013237096 0.06134621 0.10703977
000110 46 45 06 be 90 00 a4 bd ba e4 0b be ac 9a 00 be
       -0.13112363 -0.0800792 -0.13661471 -0.12559003
000120 18 27 03 be c3 25 01 3e 4f c0 d4 3d 2b 1b b1 bd
       -0.12807882 0.12612061 0.103882425 -0.0864776
000130 48 18 43 bd d8 d8 09 be 3b ec bf bd e7 40 02 3e
       -0.04763058 -0.13461626 -0.09371229 0.12720071
000140 bd 8e 08 be 1a 58 08 bd ee 28 84 bd 45 e8 c5 3c
       -0.133357 -0.033287145 -0.06453119 0.024158606
000150 ed 8d 00 3e 36 1c 04 bd fc d0 9f 3d f6 c6 eb 3d
       0.1255414 -0.032253467 0.078035325 0.11512558
000160 79 c0 c8 bc f3 fb ae bd 5d d4 cc bd ed 2c 06 3e
       -0.02450584 -0.08544149 -0.100014426 0.13103075
000170 52 14 2b 3c c3 27 72 3c 90 d6 f1 bd 88 1d 7d 3d
       0.010441856 0.014779988 -0.11808503 0.06179574
000180 1d 14 2b 3c 61 08 7c 3b c0 5b b7 bd 06 22 ef bb
       0.010441807 0.0038457143 -0.08953047 -0.007297757
000190 32 af df bd 80 1d 37 bc 00 a6 56 3c 40 e5 ef 3c
       -0.10922088 -0.011176467 0.013101101 0.02928412
0001a0 d7 d1 09 3e c8 a1 38 3d 80 31 fe 3a 42 34 be 3d
       0.13458954 0.04507616 0.0019393414 0.09287311
0001b0 20 39 e1 bb c2 49 88 3d 84 f9 eb bd 9e 21 cd 3d
       -0.006873265 0.06654693 -0.11522201 0.100161776
0001c0 fc 91 a8 bc 9b 82 a0 bd 8e be ee bd 1d 19 00 3e
       -0.020577423 -0.07837411 -0.11657439 0.1250958
0001d0 c3 c5 e2 bd 88 94 9f 3c f8 44 ce bc 3b 0b 0e 3e
       -0.11072876 0.019480005 -0.025179371 0.13871472
0001e0 9a 0b 98 3d 26 1f 9b 3d 03 f0 88 bd f0 20 db 3d
       0.07424088 0.075743005 -0.066864036 0.10699642
0001f0 78 90 90 bd 04 10 35 3d 0e 9f e5 3d d6 a9 d1 3d
       -0.07058805 0.044204727 0.11211978 0.10237472
000200 1c f2 60 bd 96 6b 00 bd c4 ff bf 3d 2b 57 fa bd
       -0.054918393 -0.031352602 0.09374955 -0.12223657
000210 0d 1a 04 3e de 80 18 bd 80 61 0c bb 82 47 23 bd
       0.12900563 -0.037232272 -0.002142042 -0.039863117
000220 f0 91 c0 bd 6e cb c7 bd bf 2b 02 3e f2 df c7 3d
       -0.09402835 -0.09755598 0.12712 0.09759511
000230 51 0c 9e bd 5a a5 1a bd dc fc f2 bd 10 dd 65 3d
       -0.07717193 -0.037755348 -0.11864635 0.056119025
000240 c2 bc 00 be ce 05 d0 3d 90 a1 87 bd 70 7e 3f 3c
       -0.12572005 0.10157357 -0.066226125 0.01168786
000250 9c d2 f2 bc 46 e1 59 bd
       -0.029641442 -0.053193353

out.bias f4 [3]
000000 2a 3a 02 be df e6 52 3d 2e 04 55 bd
       -0.127175 0.051489707 -0.05200594
